GNN/graph.pt (torch, 282607 bytes, 1 tensors)

edge_weight f4 [6774]
00000000: 4bf8 f33e 92e8 a83e c1f0 b13e e5e3 d63e
00000010: 63c1 bb3e fa57 2c40 4ec7 2740 0da2 e53e
00000020: 68d1 0e40 e06c 3340 0f05 bd3e 4931 023f
00000030: 22b7 fe3e aad2 9f3e fdc0 9e3e b0b7 7e3f
00000040: ee66 713f 478a 8a3f 6ef6 243f e139 bd3e
00000050: efc0 de3e cc29 bd3e 2f8c a240 d328 843f
00000060: e898 c73e 9480 cb3e ad04 f13e fd40 2f3f
00000070: 8193 f73e 26de c33e 2d7c 873f 65d7 523e
00000080: eb2b a43e 6a69 3b3f bef1 b53e 3534 273f
00000090: ef46 a53e 0a13 2e3f 03cc 073f 4930 e73e
000000a0: a239 3240 06cc c83e 0fbe 013f 80b1 5a3f
000000b0: 3c4c 053f 3740 1e3f 0f24 1c3f 1c4b 1b3f
000000c0: ad1a 283f 6ff5 993f b4e3 7a3f a311 2b3f
000000d0: 1328 c23e 8f3e bf3f 7f97 ab3f 1d42 3f40
000000e0: fb96 e23e 8ae3 a63e 89e8 203f ed68 1d3f
000000f0: ba9c 303f 30cd 313f 4d6e 2f3f 7ccd c43e
00000100: 1fc6 bc3e 86e2 db3e e4fe df3e 09da a53f
00000110: 49d4 0a3f 547f de3e 723f 063f f2f7 a63f
00000120: 15df 4c3f 2033 e93e 0202 1f40 01a8 2640
00000130: b062 163f 9b0c 383f 682b 7a3f 016c 8b3f
00000140: feb3 233f 91c8 503f 1d1b 7a3e a719 953f
00000150: 4d79 b23e ee63 0f3f 2f08 813e 9942 263f
00000160: 35c8 b63e 3573 103f de7b de3e e102 423f
00000170: f845 d43e a37f a43e c033 5b3f a9b6 403f
00000180: 8fc1 683f 7d80 d73e 08e0 403f b172 f43e
00000190: fef3 d83e 8916 0540 1bd0 f23e 997f 3a3f
000001a0: 404c 723f 522e 243f eafa bf3e b124 f13e
000001b0: bdc0 a83f 645f 893e 2874 883e 354c 8a3e
000001c0: 5137 c33e aee2 0240 c02d d33f 6556 163f
000001d0: 49f6 883e cce0 c93e 65e2 893e 18d0 8a3e
000001e0: 8452 bd3e 8e2a a43e 65bf 8b3e 63c6 223f
000001f0: e26b 483f 626e 0c3f e0df 693f 9294 e23e
00000200: 7354 283f b6ce 413f fa05 853f 98c1 663f
00000210: efdf 4d3f f2ab be3e 70e9 aa3e c6c4 a93e
00000220: 8290 833f 5fc8 643f 29e5 143f e16c c43e
00000230: 7c64 493f d160 453f b981 8d3f 4055 143f
00000240: b372 eb3e d7e5 153f bbf1 1d40 dc8a 4b3f
00000250: 95bb d53e 3679 4240 aa5e ec3e 0a1b 233f
00000260: a72d b03f 374a 6e3e 01e5 6f3e b7f6 f23e
00000270: b4b0 5a3e 746c 443e b429 5c3e 00a4 603e
00000280: 3da5 5d3e 11bf 453e 5623 5f3e 1a1c 433e
00000290: 133c 353f bc1c db3e 1ec8 223f 5baa 503f
000002a0: 63a6 9c3e 1e37 183f 7f9c 203f a817 263f
000002b0: 437d 8a3f 0162 213f e47e 033f b89d 023f
000002c0: 4e31 e33e c945 053f 9361 043f 6fc5 763e
000002d0: ae14 093f de1e 753e c59a 2a3f 213f 2f3f
000002e0: bff1 3d3f ca50 033f 0f50 ea3e e4dc 253f
000002f0: 7200 223f e030 243f 588b b63e beab 0d3f
00000300: 8f61 1c40 d014 d03e 680e c43e e091 353f
00000310: e43d 103f 27f4 163f 2c11 b53f a870 db3e
00000320: 448a 693e 32f3 3e3e 7d23 ec3e e4f8 d93e
00000330: a708 003f 38ac 3d3e d850 f43e e62c 133f
00000340: 223c b13e 0a8c 1b3f 8011 ac3e 4143 e63e
00000350: fb18 8840 dc13 1f40 c68f 943e 213a ad3e
00000360: 3a0c f63e 3197 d83e df31 ff3e 9409 3a3f
00000370: 4375 943f 4b3f fc3e 2750 2e3f 641a 003f
00000380: 9b97 053f 2b4f 083f d9b2 043f e87d 063f
00000390: c439 da3e 6586 103f c165 073f db63 a63e
000003a0: 38d2 d83e f8f1 983e e057 f13e 5cd1 e73e
000003b0: f8d2 6c3e 1621 973f 2edf 4d3e a77e 4c3e
000003c0: 7111 a33e 7b20 4b3e f34b 6b3f 4128 013f
000003d0: 20da ad3e 946d 1a3f 2db2 be3e b50c 333f
000003e0: 4c38 353f c3a3 393f c6e7 303f 9f6a 373f
000003f0: 69c9 2e3f cdcb 9a3e e2ae 0b3f 449a 2f3f
0.4765037 0.32989937 0.34753993 0.41970745 0.3667098 2.6928697 2.6215396 0.44850197
2.2315311 2.8035202 0.36917922 0.50856453 0.49749094 0.3121541 0.31006613 0.99499035
0.94297683 1.0823449 0.6443852 0.3695822 0.43506572 0.3694595 5.0796123 1.0324959
0.38983846 0.39746535 0.4707388 0.6845854 0.48354724 0.38255423 1.058477 0.20589979
0.32064757 0.73207724 0.35535997 0.65314037 0.3228068 0.679978 0.5304567 0.45154026
2.7847676 0.39218158 0.5068063 0.85427094 0.5206945 0.61816734 0.6099252 0.6066148
0.65665704 1.2028025 0.980037 0.66823786 0.379212 1.4940966 1.3405608 2.9884102
0.44255814 0.32595474 0.6285482 0.6148823 0.68989146 0.69453716 0.6852768 0.38438022
0.36869904 0.4294626 0.43749154 1.2957164 0.5423017 0.4345652 0.5244056 1.3044417
0.80027896 0.45546818 2.4844975 2.6040041 0.58744335 0.71894234 0.9772248 1.0892335
0.6394652 0.8155604 0.24424405 1.1648453 0.3485817 0.56011856 0.25201556 0.6494537
0.3569962 0.5642579 0.43453878 0.7578564 0.41459632 0.3212863 0.8562584 0.7527872
0.90920347 0.42090216 0.75341845 0.47743753 0.4237365 2.0795004 0.47424397 0.7285095
0.946476 0.6413318 0.3749612 0.47098306 1.3183819 0.2683059 0.2665112 0.27011266
0.3812814 2.0450854 1.6498337 0.5872558 0.267504 0.3942932 0.26930538 0.27111888
0.36977017 0.32063717 0.2729446 0.63583964 0.78289616 0.5485593 0.9135723 0.44253975
0.6575386 0.7570604 1.0392449 0.9013915 0.8041982 0.3724056 0.33381224 0.3315794
1.0278475 0.8936824 0.5816217 0.38364318 0.7866895 0.77100855 1.1055213 0.5794258
0.45985946 0.5855383 2.467879 0.7950876 0.41744676 3.0386481 0.46165973 0.63713133
1.3763932 0.23270498 0.23427202 0.47453853 0.2135647 0.19181997 0.21500283 0.21937561
0.21645065 0.19311167 0.21790823 0.19053689 0.7079479 0.4279536 0.63586605 0.8150994
0.30595693 0.594591 0.62738794 0.64879847 1.0819477 0.6304017 0.51365495 0.5102191
0.44373554 0.5205961 0.51711386 0.24098752 0.5354718 0.23937556 0.6664241 0.684557
0.74197 0.5129515 0.45764205 0.6479018 0.6328193 0.6413708 0.35653186 0.5534018
2.4434545 0.4064088 0.3829224 0.7092571 0.5634444 0.58966297 1.4145865 0.42859387
0.2280665 0.18647459 0.46120825 0.425727 0.500132 0.18522727 0.4771793 0.57490385
0.3461619 0.6076056 0.336071 0.44973186 4.2530494 2.4855871 0.2901594 0.3383341
0.48056203 0.4230285 0.49842736 0.72670865 1.1598285 0.4926704 0.6809105 0.5004027
0.52184457 0.532458 0.518354 0.5253587 0.42622197 0.5645507 0.5288964 0.3249806
0.42347884 0.29872108 0.47137356 0.45276916 0.23127353 1.1806972 0.20104668 0.19970189
0.31849244 0.19836609 0.91912764 0.5045205 0.3395548 0.6032345 0.37245312 0.69941264
0.7078903 0.72515506 0.6910366 0.71647066 0.6827608 0.30233613 0.54563725 0.68594766
