GNN/graph_avg.pt (torch, 282622 bytes, 1 tensors)

edge_weight f4 [6774]
00000000: 4582 3e3c ba9c 063c 4b3b 1a3c d54b 993c
00000010: 25bd 223c f3d5 273d d863 233d 6209 473c
00000020: 1515 0b3d 6ebb 2e3d b1d5 233c 617b a33c
00000030: ceab a03c 2f87 0a3c f999 093c 72ec 1f3d
00000040: 4590 173d 2bca 113d b181 8e3c 0bf1 1b3c
00000050: 200e c33b 82f1 863c c4fe ec3d 7d1b aa3c
00000060: ff62 8e3c 3763 303c 8227 453c 2a4a 843c
00000070: cc84 4a3c 33c5 293c 974e df3c b3bf b63b
00000080: 1c4c 0e3c d5d8 ae3c bfd8 033c 75fe 9b3c
00000090: 6a41 0f3c 5f67 a23c 9c62 7d3c 5bb0 573c
000000a0: 3990 2d3d b655 3b3c 9442 543c 0708 cc3c
000000b0: dc76 543c df6e 813c 296a 7f3c 5427 863c
000000c0: fd7d 893c 26f6 c23c 84da 9e3c 1f18 903c
000000d0: f6b9 273c 5c2d f23c 694a d93c dc31 723d
000000e0: 570a 2b3c e68a 523c f0c1 873c f5a3 6d3c
000000f0: e58b 913c cd86 923c aa92 903c 448e 143c
00000100: da65 1a3c 0ed3 023c 34c5 3d3c 7b83 a13c
00000110: d63b 6b3c 3f80 3c3c 9178 633c e999 a23c
00000120: 2211 5b3c 6b91 453c 47d9 1a3d 0f4c 223d
00000130: 4c08 763c 295c a53c 12d8 bd3c 8718 e43c
00000140: e958 0f3c 77d2 363c 76c3 1d3c feed f33c
00000150: 6c28 613c ab94 cc3c 5518 383c eb03 893c
00000160: 9a6d 1e3c 6852 6c3c 62b5 3b3c 92e2 9f3c
00000170: 0d18 333c 345d 0b3c 0d1e b63c cad0 9e3c
00000180: 59d0 4b3c 7b37 003c 50ba a23c e523 313c
00000190: 8314 013c a085 513d 91f4 2f3c be6b 473c
000001a0: 178b 813c c684 8a3c 821e 0b3c 9073 4b3c
000001b0: 1b4b 0e3d 414e 2d3c 7e25 2c3c 0479 2e3c
000001c0: baaa 1f3c 85ec fe3c aea7 cd3c 6cc9 773c
000001d0: 286d ed3b a31d 253c 7506 ef3b 83a2 f03b
000001e0: 8fe1 163c 91d1 0d3c 5841 f23b a7dc 973c
000001f0: 04fc ba3c 2304 833c d831 da3c bc63 533c
00000200: 600b 9d3c 5cd0 b43c b3a0 d93c 1649 d73c
00000210: 7812 c03c be89 213c 5fa5 133c 8ca8 123c
00000220: 5e9d 443c f9a3 0f3d 7df7 ba3c 6aa6 763c
00000230: 2ae3 fc3c bad8 f73c 7931 b33c a87b 743c
00000240: 49d3 933c cc39 bc3c 1fd0 193d aedf b63c
00000250: 8007 403c 0063 3d3d 1f5e 543c 088b 923c
00000260: f291 ab3c 190f bd3b 0455 be3b c325 0b3c
00000270: 6af2 093c 8bcd f73b 39e0 0a3c 4bb3 0d3c
00000280: a1cf 0b3c bb78 f93b a6c0 0c3c 3725 f63b
00000290: e5cd 883c 6165 253c 12c0 753c a382 9d3c
000002a0: 427e ec3b 5acc 653c 4179 723c 98bf 7a3c
000002b0: f291 e23c bea5 ca3c e020 573c 7fb0 553c
000002c0: 801d 023c 1709 5a3c bc93 583c f9a8 1b3c
000002d0: c803 1d3c 6c9e 1a3c a82a 9f3c 577f a33c
000002e0: b335 b13c ff05 753c 829a 5a3c b0a8 873c
000002f0: ad3f 893c 7a1a 8b3c 7d4d 153c 1f53 4d3c
00000300: c57b 373d 74c9 163c e656 773c 8630 993c
00000310: 7d36 793c eb2e 043c ed19 d23c 801a 2e3c
00000320: 5d4a b93b e17f 973b 309a 423c 5ff0 2c3c
00000330: ee29 4b3c 747c 963b 04d7 413c 0a48 7e3c
00000340: 0e02 cb3b 71ed 773c 5624 153c 9fdf 033c
00000350: ed8e c83d 5078 783d 72f5 533c 7125 163c
00000360: db96 4f3c 85bc 363c 2939 a03c 1eb6 333c
00000370: 6fdc 5d3c cbe8 593c d096 8e3c 2ca9 393c
00000380: 20a5 c73b 99b4 cb3b 424f c63b 4bfd c83b
00000390: a6f5 f93b b9de 733c c757 ca3b 6038 103c
000003a0: 98c4 883c 9ef3 403c 9b49 4b3c 9a43 433c
000003b0: 929d ab3b 5249 b23c 79dc 013c 1afe 003c
000003c0: b9de 0c3c 3821 003c af4b 633c 58b0 193c
000003d0: 6fdf ce3b 6587 7e3c 4830 0a3c 16bc 623c
000003e0: a47b 653c 7114 6b3c f504 603c ba43 683c
000003f0: 2656 5d3c 07bb f63b f185 643c 65c5 9d3c
0.011627738 0.008216077 0.009413551 0.018712917 0.009932791 0.040975522 0.03989014 0.012148233
0.033955652 0.042659216 0.0099996785 0.019956293 0.019613173 0.008455082 0.008398526 0.03904385
0.03700282 0.035593193 0.017395826 0.009517918 0.0059526116 0.016472582 0.1157203 0.02076506
0.01738119 0.010765842 0.012033345 0.016148645 0.012360763 0.010361957 0.027259154 0.0055770515
0.008685138 0.021343628 0.008047282 0.019042233 0.008743623 0.019824682 0.015465405 0.013164605
0.04237387 0.011434009 0.012955327 0.024906171 0.012967791 0.015799938 0.015589275 0.016376175
0.016783709 0.023799013 0.019391306 0.017589627 0.010237208 0.029562645 0.02652474 0.05912958
0.010439477 0.012850499 0.016571969 0.014504422 0.017766902 0.017886544 0.01764806 0.009067122
0.009423697 0.00798489 0.011582661 0.019716015 0.014357528 0.011505186 0.013883726 0.01984878
0.013370784 0.012058596 0.037804868 0.039623316 0.015016627 0.020185547 0.02317432 0.027843727
0.008749225 0.011158577 0.009629121 0.02977657 0.0137425475 0.024973234 0.01123627 0.016725501
0.009669686 0.014423944 0.011456819 0.019517217 0.010931027 0.008506108 0.022231126 0.019386668
0.012439811 0.007825728 0.019864231 0.010811781 0.0078784255 0.051152825 0.0107394615 0.012171684
0.015813394 0.016909014 0.00849116 0.012417689 0.034739595 0.010577739 0.010506986 0.01064897
0.009745294 0.03111864 0.02510437 0.015123706 0.0072456785 0.010077867 0.007294471 0.0073435917
0.009209051 0.008655922 0.0073930435 0.018537832 0.022825249 0.015993183 0.026635095 0.0129021965
0.019170463 0.02207201 0.026565885 0.026279967 0.023446307 0.0098595 0.0090115955 0.0089513175
0.01200041 0.035068486 0.02282309 0.015054325 0.030870039 0.03025471 0.021874176 0.01492206
0.018045085 0.022976778 0.037551995 0.022323456 0.011720538 0.046236992 0.012961893 0.01788856
0.020943616 0.005769622 0.0058084745 0.00849289 0.008419612 0.0075623444 0.00847631 0.008648704
0.008533389 0.007613269 0.008590853 0.0075117606 0.01669974 0.010094971 0.014999406 0.019227332
0.0072171995 0.014025772 0.014799417 0.015304469 0.027657483 0.024737235 0.013130397 0.013042568
0.007941604 0.013307831 0.013218816 0.009500735 0.009583421 0.009437185 0.01942952 0.019958181
0.021632051 0.014955043 0.013342502 0.016559929 0.016753996 0.016980398 0.009112713 0.012532025
0.04479577 0.009203304 0.015096402 0.018699896 0.015210745 0.008067827 0.025647128 0.010626435
0.0056546167 0.0046233987 0.0118775815 0.010555356 0.012400134 0.0045924727 0.011831049 0.015520105
0.0061953133 0.015132294 0.009102901 0.008048921 0.09792886 0.060661614 0.012936937 0.0091642
0.012670244 0.011153345 0.019558506 0.010968713 0.013541325 0.013300131 0.017405897 0.011331838
0.0060926825 0.0062165973 0.0060519287 0.0061337105 0.0076281605 0.014884644 0.0061750147 0.008802503
0.016695306 0.011776833 0.012407686 0.011917973 0.0052372897 0.021763477 0.0079261 0.0078730825
0.008598023 0.00782042 0.013873025 0.0093804225 0.0063132565 0.01553521 0.008434363 0.0138387885
0.014006529 0.014348135 0.013673057 0.0141763035 0.013509309 0.0075296196 0.01394795 0.019259164
