GNN/graph_min.pt (torch, 282623 bytes, 1 tensors)

edge_weight f4 [6774]
00000000: 076c 433c 1797 113c b5b9 1b3c bc1a a43c
00000010: a750 243c ce6c 823d c6f0 7d3d e4f6 483c
00000020: 5e29 583d c2c8 873d ea6b 253c 3022 ac3c
00000030: 2f1a ab3c a9de 0b3c 27ef 0a3c 0c63 283d
00000040: 9c95 1f3d af43 193d b6cd 953c e53e 323c
00000050: 6ee7 c83b 2775 903c 6a43 f83d 676e b53c
00000060: fd6c 983c 9118 323c c80d 603c 84a3 8f3c
00000070: 7226 663c 236a 2b3c 0d3f ff3c d284 b83b
00000080: efac 0f3c ed28 b63c 0bae 063c b084 a23c
00000090: 9da4 103c 3c32 a93c cefd 833c beb5 603c
000000a0: 3fe0 863d 822b 433c 7938 713c 9990 d43c
000000b0: 94ca 653c d527 883c 1857 863c db05 8d3c
000000c0: 1aa2 903c d340 183d 351c f83c a329 9a3c
000000d0: 9250 303c 3620 3d3d e1b0 293d b923 bd3d
000000e0: beb6 393c 2636 603c 8f6b 953c 8403 813c
000000f0: 205d a63c eb7b a73c 4040 a53c db4c 213c
00000100: bf6a 223c c6b0 053c e4d7 463c 3006 fb3c
00000110: f97a 763c 6683 453c b158 6e3c eeb6 fc3c
00000120: 6971 7a3c 8b03 4f3c 6aaa 703d ef3d 7c3d
00000130: e7cc 8b3c adfc ab3c 4b6f c23c c59b 013d
00000140: 4aa5 133c dd4d 3c3c 8401 283c 079b 0a3d
00000150: 95c6 6f3c 3a01 db3c 2313 453c c79c 9c3c
00000160: 6cf6 1f3c 5f48 863c 7499 4e3c d0c0 b63c
00000170: 2d1e 453c f206 123c 2406 cb3c e087 b53c
00000180: e2ec 513c 9306 033c c91a b33c 5bf2 343c
00000190: 73e8 033c e0bb 5c3d 82bc 333c affb 633c
000001a0: e818 943c 8875 983c cf1b 0e3c 3bed 5f3c
000001b0: 840f 1b3d 9f8e 383c 9752 373c c7cc 393c
000001c0: aef5 273c e719 463d 79d0 1f3d 1c9d 8d3c
000001d0: dab9 ef3b 09b1 2d3c 1d57 f13b 29f7 f23b
000001e0: 942f 233c 9214 153c 029a f43b a536 9e3c
000001f0: 11ce c23c ef7e 883c 1052 e33c 163b 5c3c
00000200: da9c a33c 5760 bc3c 1352 f73c 274a e03c
00000210: fe1a c83c e242 293c c234 1b3c fd2a 1a3c
00000220: 83a3 4b3c f93d 173d 75dc c43c fbd9 813c
00000230: 9b22 053d 3e7b 023d 6cf0 0b3d bdb9 8b3c
00000240: fca5 9b3c d42f c63c 4f0e 6f3d e233 be3c
00000250: a2b9 473c 1b2c 933d ebe0 5c3c 7f6a 983c
00000260: b653 053d a586 c63b e2dc c73b 20f1 0d3c
00000270: 1de7 123c 08f2 033c 5ce4 133c 60e6 163c
00000280: 4fe3 143c 7ed5 043c fae3 153c 1810 033c
00000290: 668a 943c d295 333c a06a 853c e305 ab3c
000002a0: 1164 003c 3383 793c 3da3 833c 4621 883c
000002b0: d5bd 003d 275f d53c f47a 743c 50d8 723c
000002c0: 6eba 043c b6c8 773c 6a20 763c 11c4 253c
000002d0: 012b 203c 37a8 243c dbd2 a53c e955 aa3c
000002e0: 179f b83c 7845 7f3c 1bbf 633c 6db4 8e3c
000002f0: 87cf 8f3c 07c1 913c a30e 1d3c a0bc 513c
00000300: b589 3c3d f106 1a3c dcb2 833c 439b a83c
00000310: 9ffc 823c 9825 083c 27a2 da3c 56d2 363c
00000320: 9b91 c23b f415 9f3b 9d6f 5e3c 4799 353c
00000330: 4a56 553c 8a05 9e3b da8b 4b3c 9ea6 853c
00000340: bb15 cf3b c512 863c 2196 163c 9785 063c
00000350: e8d9 d83d 4e8f 863d 2ce7 623c b999 173c
00000360: 217b 643c 7e20 493c d2b3 a83c f02e 3a3c
00000370: 79c9 653c 3711 653c 370b a23c 80a6 3d3c
00000380: fcc6 ce3b 97fb d23b e764 cd3b 722b d03b
00000390: b5fa fe3b dd34 863c 4f92 d13b f79d 113c
000003a0: b3a5 913c 817a 4d3c f47d 593c 6ee8 503c
000003b0: a34d af3b fd72 bb3c c94a 0a3c fb5d 093c
000003c0: 4a15 143c c272 083c 337b 6b3c 4c0e 1d3c
000003d0: aa67 d33b 8777 913c 7728 0d3c f110 b13c
000003e0: 6036 b33c 4e95 b73c 16f2 ae3c 7962 b53c
000003f0: bbd9 ac3c 126d 053c f1d9 813c 0d18 a43c
0.011927611 0.00888612 0.009504725 0.02003228 0.010028995 0.06368409 0.061997198 0.012265895
0.052773826 0.066300884 0.0100965295 0.021012396 0.020886509 0.008536973 0.00847987 0.041110083
0.038961038 0.037418064 0.018286567 0.010879253 0.006131104 0.017633988 0.12122233 0.02214737
0.018606657 0.010870115 0.013675161 0.017534025 0.014047252 0.010462317 0.031157995 0.005631068
0.008769258 0.022236312 0.008220206 0.019838661 0.008828309 0.020653836 0.016112234 0.013715206
0.0658574 0.011912229 0.014722937 0.025947856 0.014025349 0.016620556 0.016398951 0.017214706
0.017655421 0.037171196 0.030286888 0.018818682 0.010761397 0.046173297 0.04142845 0.09235329
0.011335073 0.013684785 0.018239764 0.015748747 0.020308077 0.02044483 0.020172238 0.009844984
0.009913146 0.008159822 0.012136433 0.030642599 0.015043967 0.012055254 0.014547513 0.030848946
0.015285828 0.012635122 0.05875627 0.061582502 0.017065478 0.020994509 0.02373471 0.031642694
0.009011576 0.011493173 0.010254268 0.03383925 0.014634748 0.026733983 0.012028488 0.019117726
0.009763341 0.016391931 0.012609828 0.022308737 0.01203112 0.008912789 0.024783202 0.022159517
0.012812825 0.007997173 0.021863358 0.01104411 0.008051026 0.05389011 0.010970237 0.0139149865
0.018078282 0.01861073 0.008673622 0.0136674 0.037856594 0.011264472 0.011189125 0.011340327
0.010251446 0.048364546 0.039017174 0.01728683 0.0073158564 0.0106012905 0.007365121 0.0074147177
0.009960074 0.009099143 0.007464648 0.019313166 0.0237799 0.01666209 0.027749091 0.013441822
0.019972254 0.022995157 0.030190503 0.027379109 0.024426933 0.0103308875 0.009473028 0.009409663
0.012429121 0.036924336 0.024030903 0.015851011 0.032503705 0.031855814 0.03416483 0.01705634
0.019000046 0.024192728 0.058363255 0.023218099 0.012190254 0.07186147 0.013481359 0.018605469
0.032550536 0.0060585313 0.0060993293 0.008663446 0.0089662345 0.00805331 0.009026613 0.009210199
0.009087398 0.008107541 0.009148592 0.0079994425 0.0181324 0.010961013 0.016286194 0.02087683
0.007836358 0.015229034 0.016069049 0.016617429 0.031431038 0.026046349 0.014921892 0.014822081
0.008101089 0.015123537 0.015022377 0.010117547 0.009775878 0.010049871 0.020242145 0.020792918
0.022536797 0.0155805275 0.013900544 0.017420018 0.017555011 0.017792238 0.009586009 0.012801319
0.046029765 0.009401069 0.016076498 0.020581847 0.0159896 0.008309744 0.026688648 0.011158546
0.0059377677 0.004854912 0.013576415 0.011083907 0.013021061 0.0048224377 0.01242348 0.0163148
0.006319729 0.016366372 0.009191067 0.008210561 0.10588437 0.06570302 0.013849061 0.009252959
0.013945372 0.012275813 0.020593558 0.01136373 0.014025086 0.013981155 0.019780738 0.011575341
0.006310342 0.0064386833 0.006268132 0.0063528353 0.0077813515 0.016382629 0.006395615 0.008887759
0.017779207 0.012541414 0.0132746585 0.012750728 0.005349831 0.02288198 0.008440682 0.008384223
0.009038279 0.008328142 0.014372635 0.009585928 0.0064515667 0.01775719 0.008615605 0.021614524
0.021876514 0.022410061 0.02135567 0.022141682 0.021099916 0.00814368 0.015850993 0.020031
