GNN/graph_max.pt (torch, 282623 bytes, 1 tensors)

edge_weight f4 [6774]
00000000: 35d6 393c ef58 fa3b 26c4 183c e0d2 8f3c
00000010: 4e31 213c 7070 f73c 8ae2 f03c 4225 453c
00000020: 5c0c cd3c a3cd 003d 2f47 223c 8ea8 9b3c
00000030: 5070 973c 3c36 093c 474b 083c 3745 183d
00000040: 754f 103d 451e 0b3d 33e3 873c 3c99 0a3c
00000050: 8a89 bd3b bd35 7d3c c3ed e23d 5b3f a03c
00000060: 9d96 853c 2eb6 2e3c 8005 303c 9934 753c
00000070: 97cf 343c 4228 283c d278 c63c 3103 b53b
00000080: fef1 0c3c 4019 a83c 5621 013c 27f9 953c
00000090: f8e4 0d3c bc22 9c3c 079b 733c 3b5d 4f3c
000000a0: 28e2 ff3c be1a 343c 1182 3d3c 1728 c43c
000000b0: 2c91 453c b7af 763c b465 733c 53d8 7f3c
000000c0: e705 833c 7f61 8f3c e1a6 693c a542 873c
000000d0: 98ef 1f3c d01a b23c 6acd 9f3c 201e 323d
000000e0: 1284 1e3c ca71 463c b6c4 783c 383d 5c3c
000000f0: 0b5c 813c 0b3b 823c 887e 803c 7cad 093c
00000100: 2322 133c 2214 003c 3b7d 353c 571e 6e3c
00000110: fbf7 603c 7446 343c 6e8b 593c d5b8 6f3c
00000120: 63ad 423c 55f2 3c3c e64a e43c 0e46 ef3c
00000130: 0ea9 5b3c 8839 9f3c 6e77 b93c 7aa5 cb3c
00000140: cb4a 0b3c 78a6 313c beb2 143c 73c8 d93c
00000150: 5338 543c 74f0 bf3c 2db8 2c3c ea8d 733c
00000160: 40ec 1c3c a0fd 523c 9dfb 2b3c 7c1a 8e3c
00000170: 0917 243c 5448 053c 1b83 a53c 2727 8d3c
00000180: 540c 463c 240d fb3b 4d18 953c 977d 2d3c
00000190: eebd fc3b 7fd0 473d 8354 2c3c f137 313c
000001a0: cf3d 663c f3d3 7d3c bd40 083c 2968 3a3c
000001b0: bf81 033d e858 233c 3241 223c 8072 243c
000001c0: 8c27 183c 99ea bb3c 1499 973c b03a 5c3c
000001d0: a72b eb3b d458 1d3c 10c1 ec3b 3459 ee3b
000001e0: 474d 0c3c 423b 073c 18f4 ef3b 2d00 923c
000001f0: 83c4 b33c 41eb 7b3c f7c5 d13c 173b 4b3c
00000200: b1fb 963c d2d5 ad3c e54c c23c f3f9 ce3c
00000210: b1a8 b83c 287d 1a3c c5c9 0c3c b1d8 0b3c
00000220: 210f 3e3c 3ac4 083d f304 b23c b2d8 6a3c
00000230: 08c9 f03c 59fc eb3c ccc8 833c fb4a 593c
00000240: 46c0 8c3c d637 b33c fac3 e23c b416 b03c
00000250: 8fe7 383c 199b 0b3d 017d 4c3c 221b 8d3c
00000260: ddf1 7c3c 2b74 b43b 40ab b53b 0576 083c
00000270: 3305 023c 5590 e93b 57e5 023c dd8e 053c
00000280: fec6 033c f922 eb3b 2aaa 043c 6300 e83b
00000290: cd92 7d3c ea48 193c 4fc1 633c fff9 913c
000002a0: 072d db3b a0f8 543c eab7 603c 2363 683c
000002b0: c248 ca3c 19f3 c03c a711 403c c2c8 3e3c
000002c0: cc34 ff3b 18aa 423c c25c 413c 31b7 123c
000002d0: bbfb 193c f6bb 113c 0106 993c e62f 9d3c
000002e0: c55e aa3c 0891 6b3c 972a 523c af46 813c
000002f0: 6f42 833c 8408 853c 2547 0e3c 2918 493c
00000300: 81b3 323d 25ae 133c 8120 693c 155b 8c3c
00000310: 32a3 6d3c a671 003c 9538 ca3c d52d 263c
00000320: 58db b03b 989a 903b abf5 2c3c 4611 253c
00000330: a6ea 413c faa2 8f3b 6104 393c 7b78 723c
00000340: ad16 c73b 328b 663c 92b9 133c d553 013c
00000350: 348c ba3d c8c3 663d 85dc 463c 3bb8 143c
00000360: b432 3e3c 636d 273c 428e 983c 9dac 2d3c
00000370: b476 563c b8c9 4f3c 349c 7e3c ecd5 353c
00000380: 06fd c03b d6e9 c43b 8eb2 bf3b b749 c23b
00000390: 3722 f53b 7670 5f3c a698 c33b 94d9 0e3c
000003a0: b8e8 803c 46dd 353c 1fd3 3e3c 0b4b 373c
000003b0: 6714 a83b 6415 aa3c 66cc f43b 3729 f33b
000003c0: b153 063c d588 f13b f5a8 5b3c 9276 163c
000003d0: e787 ca3b b538 623c 6c57 073c 74bf 263c
000003e0: dfc4 283c 98e2 2c3c 3bc0 243c 8fd0 2a3c
000003f0: 22c7 223c 456e e53b 2907 4c3c d9ea 973c
0.011342575 0.0076399962 0.009324109 0.017556608 0.009838415 0.030204982 0.029404897 0.012032809
0.025030307 0.03144611 0.009904667 0.019001272 0.018486172 0.008374747 0.008318729 0.037175383
0.035232026 0.033964414 0.01658783 0.0084593855 0.005784218 0.015454707 0.11080506 0.01956146
0.01630717 0.010663552 0.010743499 0.014966154 0.011035821 0.010263504 0.024227533 0.005524062
0.008602617 0.020519853 0.007881483 0.018307282 0.008660547 0.019059531 0.014868504 0.012656505
0.03123577 0.010992704 0.011566655 0.023944898 0.012058537 0.015056542 0.014855791 0.015615541
0.015994025 0.017502544 0.014260978 0.01651127 0.009761713 0.0217413 0.019507129 0.04348576
0.009675043 0.01211209 0.015183618 0.01344233 0.01579096 0.015897295 0.015685335 0.008403178
0.008980307 0.0078173 0.011077221 0.014533601 0.013730998 0.011003125 0.0132778715 0.01463147
0.011882159 0.011532386 0.027867746 0.02920821 0.013407005 0.019436613 0.022639956 0.024859179
0.008501719 0.010842912 0.009075819 0.02658484 0.012952882 0.023430087 0.010541958 0.014865378
0.009577811 0.012877852 0.010497001 0.017346613 0.010015258 0.00813492 0.020204118 0.017230583
0.0120879 0.0076614786 0.018200064 0.010589025 0.007713071 0.04878282 0.010518196 0.01081656
0.014052822 0.015492427 0.008316216 0.011377373 0.032106157 0.009969927 0.009903239 0.010037065
0.009286772 0.022939013 0.01850561 0.013441727 0.0071768346 0.009603698 0.0072251633 0.0072738174
0.008563346 0.008253874 0.0073227994 0.01782235 0.02194429 0.015375913 0.025607092 0.012404225
0.018430563 0.021220122 0.023718307 0.02526567 0.022541376 0.009429254 0.0085930275 0.00853555
0.011600287 0.03339026 0.021730876 0.014333891 0.029392734 0.028806852 0.016086958 0.013262506
0.017181527 0.02187721 0.02768134 0.0214952 0.011285677 0.03408346 0.012480975 0.017224852
0.015438524 0.0055070124 0.005544096 0.008328919 0.00793581 0.0071278014 0.007989249 0.008151737
0.008043049 0.0071758 0.008097211 0.007080124 0.015476895 0.009355763 0.013901069 0.017819403
0.0066887173 0.01299873 0.0137157235 0.014183792 0.024692897 0.023553418 0.011722959 0.011644544
0.0077882763 0.011881374 0.0118019 0.008954809 0.009398396 0.008894911 0.01867962 0.019187879
0.020797143 0.01437784 0.012827537 0.015780775 0.016022889 0.016239412 0.008683954 0.012273827
0.04362822 0.009013687 0.014228941 0.017133275 0.014504241 0.007839596 0.024685184 0.010142763
0.0053972416 0.0044129603 0.010556619 0.010074919 0.01183573 0.004383442 0.011292548 0.014799233
0.006075701 0.014071273 0.009016411 0.007893522 0.09108773 0.056339055 0.012137537 0.009077127
0.011608768 0.010218951 0.018622521 0.010600236 0.0130898245 0.012682371 0.015540171 0.011098366
0.0058895377 0.0060093207 0.005850143 0.0059291977 0.0074808854 0.013637653 0.005969125 0.008718867
0.015735969 0.011100119 0.011647015 0.011187325 0.0051293853 0.020762153 0.0074706553 0.0074206847
0.0081986645 0.007371048 0.013406982 0.009183543 0.0061807516 0.013807465 0.008260589 0.010177482
0.010300844 0.010552071 0.010055597 0.010425701 0.009935172 0.0070016705 0.012452879 0.018544601
