GNN/model_avg_weights.pth (torch, 12991 bytes, 16 tensors)

convs.0.weight f4 [32, 32]
000000 d3 be 8e 3e c1 c0 69 3d 73 1b 26 be f4 bc 76 be
       0.27879962 0.05706859 -0.16221409 -0.24095517
000010 d9 13 c1 3d fc 52 5e bd ba c5 93 3e ca be 5c be
       0.09427614 -0.05427836 0.2886179 -0.21557155
000020 e9 04 05 be 08 7a 89 be ee 0c 83 3d 83 cf 15 3e
       -0.12990154 -0.26850915 0.063989505 0.1462994
000030 81 a1 10 3e db 0c 42 3e 27 89 46 be 83 14 8a 3e
       0.14124109 0.18950216 -0.19388257 0.26968774
000040 c0 c7 72 3e fc 3b 83 3e e8 f3 bd 3d 09 6a 20 3e
       0.23709011 0.25631702 0.09275037 0.15665449
000050 f2 50 06 3e 6d a5 ea 3d 68 2c 84 be 75 64 72 bc
       0.13116816 0.11457334 -0.2581513 -0.014794459
000060 c7 bc 97 3e 39 4f 36 3e fa bd 09 3e 28 6b 40 be
       0.29636213 0.17803659 0.13451377 -0.18790877
000070 4d e8 24 be fa 40 e5 3d 30 b2 b0 3c 6a 89 18 3e
       -0.1610424 0.11194034 0.021569341 0.1489617
000080 fe 8e e7 3c d3 96 45 be 37 c7 48 3d 3a 01 a5 3d
       0.028266426 -0.19295816 0.04901811 0.080568746
000090 30 e7 6d be 04 14 56 be bc 97 31 3e 0c cb 80 3e
       -0.23232722 -0.20906073 0.17343038 0.25154912
0000a0 b4 50 9a bd f2 7e 8e bd 4c 92 f7 bd d5 35 52 bc
       -0.07534924 -0.06957807 -0.12088451 -0.012830217
0000b0 07 83 c2 3d b2 1d 57 3b bd 72 5d be ae 86 77 3d
       0.09497648 0.0032824096 -0.216258 0.060431175
0000c0 ab 95 35 be de f4 78 3c f7 78 90 3e e4 a2 91 be
       -0.17732875 0.0151951 0.2821729 -0.28444588
0000d0 45 d8 4e be de 77 72 3e 85 00 ba bd 28 49 01 be
       -0.20199688 0.23678538 -0.0908213 -0.12625563
0000e0 d3 1e 1a be fb 37 be 3d 88 e5 8d 3e 77 55 9c 3e
       -0.15050821 0.09288021 0.2771418 0.30533955
0000f0 66 85 89 3c 3e 1c 54 bd a6 2b b4 3d 85 10 8b 3e
       0.016787242 -0.051784746 0.08797388 0.2716104
000100 35 13 22 be 2d c7 0a be 4c 16 90 be 1f 52 8d 3c
       -0.1582764 -0.13552542 -0.2814201 0.017251072
000110 38 a7 a5 bd df 6d 57 be 5a dc 01 be 1b 97 ef 3d
       -0.08088535 -0.21038006 -0.12681714 0.11698743
000120 2f 4b 3e 3c 9f 56 14 be 40 50 c9 bd b1 d4 c1 bd
       0.011614605 -0.14486168 -0.098297596 -0.09464396
000130 3f b2 d8 3d ed c8 03 be 74 d3 68 3e 3d 6e 6b be
       0.10580873 -0.12869616 0.22736913 -0.22991271
000140 12 1f 2d be 34 ee bc bd 61 12 35 3e 78 a0 93 3e
       -0.16906384 -0.09225121 0.17682792 0.28833365
000150 9e ca c3 bc 4a d5 cc 3d 2a 31 2f 3e de 89 9a 3d
       -0.023900326 0.10001619 0.17108598 0.07545827
000160 68 18 98 3c 16 7c a4 bd 92 50 78 3e 2d 11 fd 3d
       0.018566325 -0.0803148 0.24249485 0.12356792
000170 11 3e a4 3e a4 d6 30 3e a1 b3 85 3e 37 b8 a2 3d
       0.32078603 0.17269379 0.26113608 0.079452924
000180 b9 f5 5d 3e f8 92 20 be 2c 1c 1d be 3a 19 d9 3c
       0.21675767 -0.15681064 -0.15342778 0.026501287
000190 41 72 5f be 6a 22 73 3e 86 a7 c7 bc 01 d8 33 3e
       -0.21820928 0.23743597 -0.024371874 0.17562868
0001a0 83 11 23 3e 3e eb 4d 3e 7d 5f 41 be a3 3c 13 be
       0.15924649 0.20109269 -0.18884082 -0.143786
0001b0 98 67 07 be 9b fe b3 bd bd 48 bf 3d 14 5f 6b 3e
       -0.13223112 -0.087887965 0.093400456 0.22985488
0001c0 c0 0c a2 3e f8 05 93 3d 7b d2 3b 3e 78 3e 3c be
       0.31650352 0.07178873 0.1834201 -0.18383205
0001d0 ae af 79 3d 33 7a 45 be fd f4 7e 3e e2 34 07 be
       0.060958557 -0.19284897 0.24898143 -0.13203767
0001e0 22 79 f2 3d 58 c1 ab bb eb 3b c7 3d 8a d5 91 be
       0.118395105 -0.005241554 0.09728225 -0.2848323
0001f0 72 3c 2c 3d 06 83 19 be 60 e7 a8 3c ed 8d 9e 3d
       0.042049833 -0.14991388 0.02061814 0.07741914
000200 79 4a 75 3e 02 b8 8f 3e fb 87 4f 3e 2d ba 36 be
       0.2395419 0.28070074 0.20266716 -0.17844458
000210 8b 5a eb bc 75 e8 8d 3e e6 65 8b bc 54 17 fb bc
       -0.028729698 0.27716413 -0.017016362 -0.030650772
000220 24 8d 1f 3e 76 52 51 3e 9c d5 12 3e 63 65 61 be
       0.15581185 0.20441613 0.14339298 -0.22011332
000230 26 38 0b be b0 b4 6f be 85 9a 81 3e 71 e6 47 be
       -0.13595638 -0.2340877 0.25313202 -0.195215
000240 2f d0 7d 3e 5d b1 f0 bc a2 f4 b9 bd 3e 32 a2 be
       0.24786447 -0.029381448 -0.09079863 -0.31678957
000250 2a a9 b0 bd 3d 54 4c be 1b 27 30 be 24 f4 59 3d
       -0.086260155 -0.1995401 -0.17202418 0.053211346
000260 c8 4b 84 3d fc 7a c6 39 c0 17 f2 bc 9b eb 82 3e
       0.064597666 0.00037857133 -0.02955234 0.25570378
000270 07 1d 17 3e e9 40 02 3e 50 c3 5e 3e cd e3 8b 3e
       0.14757167 0.12720074 0.21754193 0.27322236
000280 da 67 4f bd cf 27 1e 3e 39 8f 85 bd f5 fb 4f 3e
       -0.05063615 0.15444873 -0.06521458 0.20310958
000290 09 0c 4f be 4b 46 14 be a7 6a f4 3c d2 78 c0 3d
       -0.20219435 -0.1447994 0.029836012 0.09398045
0002a0 05 3d 9e bd 6f 5c 69 37 76 b4 8a be 01 ce 65 bc
       -0.07726482 1.3909404e-05 -0.27090806 -0.014026166
0002b0 9a 56 da bc 2e 5c ba bd a3 f3 df 3d 2b a9 05 3d
       -0.026652623 -0.09099613 0.10935142 0.032632034
0002c0 d3 36 bf 3c 9d 47 50 3e 58 97 86 3d 97 71 5b 3e
       0.023341572 0.20339818 0.06571835 0.2143005
0002d0 bb 28 01 3e 08 4e 34 3d d9 b5 88 be 4b ee c5 bd
       0.12613194 0.04401973 -0.2670124 -0.096645914
0002e0 d3 60 1b be ec 1b 8b be 49 2b 78 bd 40 fc 28 be
       -0.15173654 -0.2716974 -0.060588155 -0.16502476
0002f0 e1 50 6c be 59 36 10 3e 5a 41 e7 bc e0 4f 7c 3e
       -0.23077728 0.14083232 -0.028229404 0.24639845
000300 4d c5 b7 3d 8c d9 0a bd 99 3b d4 bd 4b c4 f5 3c
       0.08973179 -0.033898875 -0.1036293 0.030000826
000310 f9 13 90 bd e9 d6 24 be dc f3 61 3e 80 20 ff bd
       -0.070350595 -0.16097607 0.22065681 -0.12457371
000320 11 9c a0 bd 6f ee b1 3c 53 33 4e 3e 68 c1 31 3e
       -0.07842267 0.02172014 0.20136766 0.17358935
000330 85 e8 ac 3c 9a 69 3f 3e da 98 8b bd fd 31 b6 bd
       0.021106968 0.18692628 -0.068162635 -0.08896253
000340 84 6d 95 3e dd 24 6c be 03 b1 10 3e f0 1d 72 be
       0.29185116 -0.23060937 0.14130025 -0.23644233
000350 65 a9 41 3e c2 a6 0a be 1f 2b 29 be c8 21 30 be
       0.18912275 -0.13540176 -0.16520356 -0.17200387
000360 25 ba a1 bd 25 d5 00 be 3d c0 a1 bd cd fa 6b be
       -0.078968324 -0.12581308 -0.07897995 -0.23044892
000370 96 aa 81 be 6d b4 f0 3d 24 d9 42 3e 67 d8 d0 bd
       -0.2532546 0.117531635 0.19028145 -0.101975255
000380 da b4 82 be 48 73 d4 bd de 77 e8 3d ac e7 ed bd
       -0.25528604 -0.10373551 0.11350988 -0.116164535
000390 8b fb 29 be 10 86 81 3e e4 a7 3d be 4e 7e 3b 3d
       -0.16599862 0.25297594 -0.18521076 0.04577475
0003a0 02 e2 8e 3e 2c de 15 be 91 46 1e 3e 80 cf 9e 3e
       0.27906805 -0.14635533 0.15456606 0.31017685
0003b0 9b 1c 03 bd fd 1d 3c 3d 72 60 89 3d cd 35 98 3e
       -0.032009702 0.045927037 0.067078486 0.29728547
0003c0 b6 83 9d bd 05 4c 26 3e c0 b2 67 3e 92 d5 3b be
       -0.076911375 0.16239937 0.22626781 -0.1834319
0003d0 e7 8f 4b bd 08 9e 6b be e9 6d 10 be 4b 9a cb bd
       -0.049697783 -0.23009503 -0.14104427 -0.099415384
0003e0 1b 22 93 3e f0 a0 b4 bd 28 c2 56 3e 3b 99 3f be
       0.28736958 -0.08819759 0.20972502 -0.18710797
0003f0 1e 93 76 3e 67 24 2c 3e a7 b4 9c be 5b 14 0b 3d
       0.24079558 0.16810761 -0.30606577 0.03395496

convs.0.bias f4 [32]
000000 f3 36 b2 bb e9 05 bc bb 00 00 00 00 34 2d c1 39
       -0.0054386794 -0.0057380092 0.0 0.00036845508
000010 e6 4a a4 3c af 75 25 3c 9f c9 06 bc 1e 86 27 3c
       0.020055246 0.010098859 -0.008226781 0.010224847
000020 65 41 f8 bb ae 53 87 bc 25 77 9d 3c c2 b8 52 3c
       -0.007576155 -0.016519394 0.019221852 0.0128614325
000030 33 83 3d bc 82 4f e6 3b de 7a 23 bc 8c 97 c8 3b
       -0.011566925 0.007028521 -0.009978024 0.0061215814
000040 65 bf 94 ba cf 9c 28 3c 02 31 8f bc 09 37 58 bc
       -0.0011348544 0.010291292 -0.017479423 -0.013196715
000050 f5 6c 18 bb e9 c9 8e 3b 5e 6e 65 3b fe b1 bd 3c
       -0.0023258303 0.0043575657 0.003500841 0.023156162
000060 d1 05 c6 ba 28 bb 3a 3c 62 8a ff bb 96 09 aa 3c
       -0.0015107935 0.011397161 -0.007798479 0.020756524
000070 df f6 16 3c 79 f9 0c bc 84 44 15 bc 20 84 53 bc
       0.009214132 -0.008604401 -0.009110574 -0.012909919

convs.1.weight f4 [32, 16]
000000 6c a1 97 3d 96 f4 8a 3e 14 99 1e 3e 29 aa 66 be
       0.07403836 0.2713973 0.15488082 -0.22525848
000010 e7 d3 33 3e d1 cc 16 bc 9f 86 bd 3d 6c ce af 3b
       0.17561303 -0.0092041055 0.092541926 0.0053651836
000020 4d 92 e3 3d df 73 2f 3b d4 1b b7 3b a2 5b 9b be
       0.11111889 0.0026771945 0.005588034 -0.30343348
000030 95 54 d1 bd 04 ab f5 3d 50 86 5f 3e 67 05 64 3e
       -0.10221211 0.11995509 0.2182858 0.22267686
000040 83 8a 88 be ae 07 a1 3e 19 a8 06 3e 5d 19 9b 3e
       -0.26668176 0.31451172 0.13150062 0.30292788
000050 ca 04 9e 3e d8 33 26 bc a0 47 8d 3e 01 de ac 3e
       0.3086303 -0.010144196 0.27593708 0.33763126
000060 85 a7 5f bc 9e 19 7e be 5a 54 4a 3e 59 ff 55 be
       -0.01365078 -0.2481446 0.1975874 -0.20898189
000070 99 a5 11 3d a4 78 2f be 31 3f 91 3e 19 dc f3 3d
       0.035558317 -0.17135864 0.28368524 0.11907215
000080 dc 3d 60 3d e1 79 7e 3e 8a c1 6d 3d 92 dc a3 be
       0.054746494 0.2485118 0.0580459 -0.3200422
000090 fa e0 b2 3e 9a 8b a8 be 53 a0 a4 bd 69 23 ad 3e
       0.34937268 -0.32919008 -0.08038392 0.33816078
0000a0 96 41 ef 3d dc 3f f1 3b f4 fd b8 be 6c 44 0e 3b
       0.116824314 0.007362349 -0.3613125 0.0021708263
0000b0 83 8d 8f 3e 4b 3c 0c bd 6c 67 a4 bd 3f 7c b1 be
       0.28037652 -0.034237187 -0.08027539 -0.34665105
0000c0 5d f8 21 3e 92 fe c6 3d 97 e4 ba 3d 41 05 a1 be
       0.158174 0.09716524 0.09125631 -0.3144932
0000d0 b3 d9 4b be 2d 96 48 3e ff b8 98 be b5 14 f0 3d
       -0.19907264 0.19588538 -0.2982864 0.117226996
0000e0 3b 5d 6c be cb bf a4 bd 33 a5 fe bd ae cc 5e 3d
       -0.2308244 -0.08044394 -0.12433853 0.054394417
0000f0 d3 10 44 bc 6d 55 b7 be 37 3f be 3d b5 76 40 be
       -0.011966902 -0.35807362 0.09289401 -0.18795283
000100 7e 0d ef 3d fc a2 4d be 83 26 9f bd d3 72 c7 bc
       0.11672495 -0.20081705 -0.077710174 -0.024346745
000110 d1 f5 f8 bd 32 06 ac be d2 8b 89 be 6b 09 9b 3e
       -0.12156261 -0.33598477 -0.26864487 0.30280623
000120 08 d2 2a bc 1a 41 3f 3e 86 5a a2 be 8e 00 ae be
       -0.010426052 0.18677178 -0.3170969 -0.33984798
000130 80 9f ee 3d 84 3c 47 ba f3 eb 9e 3c 0c 52 c3 3c
       0.11651516 -0.0007600265 0.019399619 0.023842834
000140 74 ff 3d be 2c 33 30 be fa 91 e4 bd a5 fe b6 3e
       -0.18554479 -0.1720702 -0.11160655 0.35741153
000150 60 83 88 3e 93 6b 6e 3e ba f3 60 3c 7d 71 57 be
       0.2666273 0.23283224 0.013729984 -0.21039386
000160 9c 29 94 be 5e d8 a5 be b9 7b 44 be 10 c8 b1 3e
       -0.28937995 -0.32391638 -0.19187821 0.34722948
000170 80 b8 84 be d7 64 17 bd 76 97 81 bd 03 59 36 3d
       -0.25922012 -0.036961403 -0.06327717 0.044518482
000180 e5 e6 3c be 9b 95 14 3e d0 a1 b4 be 43 09 84 3e
       -0.18447454 0.14510195 -0.35279703 0.25788316
000190 63 c3 9a 3c df 47 56 be a7 0f b1 3e d7 f6 90 3e
       0.018891996 -0.20925854 0.34582254 0.28313324
0001a0 3c 33 44 3d 05 65 7d be 02 3d 0a 3c e7 ef 65 3e
       0.047900423 -0.24745567 0.008437397 0.22454797
0001b0 7a ff 82 bd bc d6 cc 3d 50 f2 00 3d 82 1e 30 bd
       -0.063963845 0.10001895 0.031481087 -0.042997845
0001c0 79 bd 16 3c 90 e2 45 3e 31 dc 1a be 2c 99 84 3e
       0.009200447 0.19324708 -0.15123059 0.2589811
0001d0 a6 bc 59 be 60 10 00 be bf b4 6a 3e 53 a3 06 be
       -0.2126337 -0.12506247 0.22920512 -0.13148241
0001e0 1d b4 9a 3e 8b b9 99 3e b6 23 ac 3e 1f 97 a9 be
       0.3021554 0.3002437 0.33620995 -0.3312311
0001f0 db 6b cb bd ba e6 2b be 89 aa 92 3d 27 5f ae 3d
       -0.09932681 -0.16787234 0.07161433 0.085142426
000200 65 31 0f be b8 4f aa 3e 37 75 29 3e 86 0e 65 3e
       -0.13983686 0.33263946 0.1654862 0.22368822
000210 f8 0e 6b be 0e d0 4b 3e 0a c0 f0 3d c6 7b 75 3c
       -0.22954929 0.19903585 0.117553785 0.014983123
000220 c7 96 1f 3e 18 e3 02 be f7 53 25 3e a0 ef 3d 3d
       0.1558486 -0.12781942 0.16145311 0.046371102
000230 78 d6 15 3e da f3 b1 3c 01 62 45 bd ae 35 79 be
       0.14632595 0.021722723 -0.048189167 -0.24336883
000240 fb 03 88 be e5 20 bd bd fd fd a9 3d 60 6a 07 be
       -0.26565537 -0.0923479 0.083003975 -0.13224173
000250 27 47 af 3e d2 0f af be d7 61 a8 be db 9b 66 bc
       0.34233972 -0.34191757 -0.32887146 -0.014075245
000260 6d 6b 33 3e 74 04 01 3e db fa 9f bb d3 9e a5 be
       0.17521448 0.12599355 -0.004882199 -0.32347736
000270 6f 60 c5 3d 32 e3 56 3d 84 88 ac 3e 52 15 af be
       0.09637534 0.052462764 0.33697903 -0.34195954
000280 2d 92 e3 bd 8d 96 4a bd 58 6e a8 3e 9d 72 00 3e
       -0.11111865 -0.049459983 0.32896686 0.12543721
000290 c5 e6 54 bd e6 66 5b 3e 43 7a 9c 3c f5 29 1d 3d
       -0.05197789 0.21425971 0.019101268 0.03837009
0002a0 e0 d2 88 3e 0f 6e ae be e4 b2 84 3e 60 dc 3c 3d
       0.26723385 -0.34068343 0.25917733 0.046108603
0002b0 73 21 73 bd 27 91 ab 3e 52 2f b5 bb b5 1c 70 3e
       -0.05935807 0.3350918 -0.0055293227 0.23448451
0002c0 4c 49 ed bd f1 81 06 bd 0e f7 81 3e 44 43 93 3d
       -0.11586246 -0.032838766 0.253838 0.07190564
0002d0 ac 5e 51 be 8e 4b 82 3e bc 64 49 be e9 8e b8 bd
       -0.2044627 0.2544827 -0.19667333 -0.09011633
0002e0 38 c4 5d bd 63 7d 6d 3e 0a 64 9a bd dc b1 5c be
       -0.054142207 0.23192362 -0.07538612 -0.21552223
0002f0 b4 df 3c be 9e 3f 96 3e 5e af 37 be 1d 20 a2 3d
       -0.18444711 0.2934541 -0.17937991 0.07916281
000300 1b a5 89 be cb 7c cb 3d 0a d3 4b 3e 87 e4 42 3e
       -0.26883778 0.09935912 0.19904724 0.19032489
000310 d3 87 aa 3e 9e ed aa be 8f fe 6f bc 2c c9 9d be
       0.3330675 -0.33384413 -0.014648094 -0.30817544
000320 6f b6 15 bd 35 90 67 bd fd 89 32 3e c7 ce d6 3d
       -0.036550935 -0.05653401 0.17435451 0.104886584
000330 b4 40 87 bc 7b bf d0 3c a7 5b 5c 3e ca 9d ff 3d
       -0.016510345 0.02548193 0.21519338 0.12481268
000340 7a 78 7c bd a6 73 aa 3e 9c b9 87 3e a7 f7 78 be
       -0.061638333 0.33291358 0.26508796 -0.24313222
000350 25 87 f7 3d 3f 40 93 bd e2 e0 8a be 58 b5 5f 3e
       0.12086324 -0.07189988 -0.27124697 0.21846521
000360 82 c8 b6 3d 3f de d3 3d bd b3 0d bc 67 d1 96 be
       0.089249626 0.103451245 -0.00864881 -0.29456636
000370 4a c0 59 3e e9 a4 1b be 2a 19 86 3e e5 c0 4b 3e
       0.21264759 -0.15199627 0.26191074 0.19897802
000380 2f 54 82 3d 56 81 06 3d cb e5 f4 3d 06 d1 67 be
       0.06363713 0.032838188 0.11957892 -0.2263833
000390 b5 bc 23 3e 66 88 54 be 48 8b a2 3e 43 6f 9c be
       0.15989955 -0.20755157 0.31746888 -0.30553636
0003a0 85 b9 9a bd 61 db 13 be e6 74 bd be 2c e5 66 be
       -0.07554916 -0.14439155 -0.3700325 -0.2254836
0003b0 01 7b 94 be 16 58 be 3d 60 81 fb 3d 39 f4 b4 3d
       -0.29000095 0.09294145 0.12280536 0.08835644
0003c0 e1 2e a0 be fb 3d 64 3e 7b 47 39 3b 37 96 45 be
       -0.31285766 0.22289269 0.0028271365 -0.19295584
0003d0 df c6 89 be eb 99 b7 be 93 ba 61 3e 53 57 8b 3d
       -0.2690954 -0.35859618 0.22043829 0.06803765
0003e0 5d 8b 34 bd 45 a0 de bd 64 e4 07 be af e0 1c 3d
       -0.04407822 -0.10870413 -0.13270718 0.038300212
0003f0 a5 0a 70 3e 43 2b 56 3d 91 5f a7 be 83 58 b8 3e
       0.2344156 0.05228735 -0.326901 0.3600503

convs.1.bias f4 [16]
000000 f3 94 4b bb d1 c8 4f bc 0a a0 05 3c f2 2e 80 3b
       -0.0031064122 -0.012682156 0.008155832 0.0039118463
000010 82 1a 09 ba 0b 0c 64 3c 7e 3c 18 3c af 29 74 bb
       -0.0005230085 0.013918887 0.009291766 -0.003725629
000020 07 91 4f 3c a5 21 02 bc 13 f9 a6 3c ae 5d a3 3b
       0.012668855 -0.007942592 0.02038244 0.0049855327
000030 e7 0e c2 bc a8 4c b5 3b 7a b2 95 bc 90 83 91 bb
       -0.023688747 0.00553282 -0.01827358 -0.0044407323

convs.2.weight f4 [16, 8]
000000 88 b3 bc 3d 45 c6 5f be df 4e e0 3e d7 df ee 3e
       0.0921393 -0.21852978 0.43810174 0.4665515
000010 6e 97 98 be f7 cd 11 be 4a 90 6c 3c 41 41 10 3e
       -0.29803032 -0.14238726 0.014438698 0.14087392
000020 a6 e1 2a be 7a 75 ed 3e 19 2d af be 15 b5 f8 be
       -0.1668764 0.4637869 -0.34214094 -0.48575655
000030 19 f5 f8 3d bf 3b 2e 3e df aa 6a be de 46 69 3e
       0.12156124 0.17014979 -0.22916745 0.2278094
000040 37 19 92 3e 0f 6d 04 3e bf 3f 88 be 60 5f c3 be
       0.28534862 0.12932228 -0.26611134 -0.38158703
000050 e0 66 d6 3d 95 d5 dc 3d 84 a0 52 bd 8a 13 92 3e
       0.104688406 0.10782925 -0.05142261 0.28530532
000060 fa 73 de 3e a2 85 3a be 12 5d d0 be 16 ad a8 3e
       0.43447858 -0.1821504 -0.40696007 0.32944554
000070 a1 13 63 be dc c4 af 3e b7 65 96 bd 8e ea d2 3e
       -0.22175457 0.3432988 -0.07343619 0.41194576
000080 dc 3b 29 3e 63 51 a3 bd c2 aa c9 bd f6 e3 22 3e
       0.16526741 -0.07974508 -0.098470226 0.15907273
000090 95 13 5a be 78 8e f4 3e 54 ab a9 3d 61 f9 25 3d
       -0.21296532 0.47764945 0.08284631 0.04052103
0000a0 86 28 7c 3e 50 dd 30 3e 20 e5 fe 3d 3d 1d 4b be
       0.24624833 0.17271924 0.12446046 -0.19835372
0000b0 c1 23 bf 3e 11 79 0c be 98 1b 6b be d4 a8 b4 be
       0.37331966 -0.13718058 -0.22959745 -0.35285056
0000c0 ef ef ef 3e 07 09 85 3e de bb e1 be 17 33 ab be
       0.46862742 0.2598345 -0.44088644 -0.33437416
0000d0 fd 81 97 be 7a ff 46 be 74 4c d1 be 0f d5 1a 3e
       -0.2959136 -0.19433394 -0.40878642 0.15120338
0000e0 74 de e1 bb 40 dd af be 53 19 8f be c5 01 d3 bd
       -0.0068929736 -0.34348488 -0.27949008 -0.10303072
0000f0 d0 bc 8e 3e f8 17 c4 be 48 50 2a bd b9 10 a8 3d
       0.27878428 -0.38299537 -0.04158047 0.082063146
000100 41 ab 4e be ae b0 a3 be 34 e2 b6 3e a5 01 0c 3e
       -0.20182516 -0.31970733 0.35719454 0.13672502
000110 73 2c e4 be eb 62 c5 3e 2c 8d 46 bd a0 03 96 3e
       -0.44565162 0.3855203 -0.048474476 0.2929964
000120 0e 69 89 3e d6 22 8d 3e d6 d2 b4 be eb 9b d6 bd
       0.26837963 0.2756564 -0.35317105 -0.10478958
000130 fa 08 59 3d d5 aa d4 3e e6 9a 62 3e d6 ae 95 bd
       0.052987076 0.41536584 0.22129402 -0.07308738
000140 8e 1c 39 3e a7 d5 22 be 12 33 96 be fb fd de be
       0.18077299 -0.15901814 -0.2933584 -0.43553147
000150 59 97 0e 3d d1 a3 ff 3e a4 b3 cf be ec 3f ea be
       0.034812305 0.4992967 -0.40566742 -0.45751894
000160 b3 c7 a7 bd 19 7c 1f be 79 4e 50 bd 0c 6a 1e 3e
       -0.081923865 -0.15574683 -0.050856087 0.15470141
000170 e9 8b d0 bd 9d 52 12 3e cb f3 e1 3e ba 30 86 3e
       -0.10182936 0.14289327 0.44131312 0.2620905
000180 88 a3 1d 3e 88 23 f6 bd ad 03 78 3e 01 9e 05 3e
       0.15394413 -0.12018496 0.24220152 0.13048555
000190 91 eb 8c be 3e 9f ab be 11 17 a6 3e 51 a9 bd 3e
       -0.27523473 -0.3351993 0.32439473 0.3704324
0001a0 55 19 63 be b9 44 c0 be c2 2c ea bd 4b 89 92 be
       -0.22177632 -0.3755243 -0.11434318 -0.2862037
0001b0 33 8c 85 be ec 84 c9 3e d8 22 f2 be eb 09 01 3f
       -0.26083526 0.39359224 -0.4729221 0.5040576
0001c0 f8 90 67 3e c7 7c dc 3e 94 2d 0e 3e 43 f8 1f 3e
       0.22613895 0.43063948 0.13884574 0.15622048
0001d0 6d e2 19 3e 3d d3 cb 3e 2b cc 30 be b2 cc c8 be
       0.15027781 0.398096 -0.17265384 -0.3921867
0001e0 2c 64 84 be af 3c d5 3e 5b 5b b2 be db a9 1c be
       -0.25857675 0.4164786 -0.34835324 -0.1529917
0001f0 f0 00 05 3e 1c 59 46 be af bf 87 bd ef 3c fd be
       0.12988639 -0.1936993 -0.066283576 -0.4946055

convs.2.bias f4 [8]
000000 a6 1f b4 3b 31 3c af bc 71 ef 30 bc 32 d7 d2 bc
       0.005496937 -0.021391006 -0.010799275 -0.025737379
000010 a7 22 87 bc 64 bc a4 bc a3 53 44 bc 0e 8b 19 3c
       -0.016496016 -0.020109363 -0.011982831 0.009371532

lns.0.weight f4 [32]
000000 37 be 7a 3f 47 ea 80 3f eb d6 82 3f ee c9 84 3f
       0.97946495 1.0071496 1.0221838 1.0374124
000010 48 25 82 3f 16 79 82 3f b2 41 7e 3f 51 9b 82 3f
       1.0167627 1.0193202 0.99318993 1.0203649
000020 81 41 7d 3f d7 c5 7e 3f 12 a0 7e 3f 95 fe 7d 3f
       0.98928076 0.9952063 0.99463 0.99216586
000030 d1 3c 80 3f 56 1c 82 3f b3 3f 79 3f d2 5e 82 3f
       1.001856 1.0164897 0.9736282 1.0185187
000040 a8 2b 81 3f c4 63 7c 3f b6 0e 7a 3f 5d 6a 81 3f
       1.0091448 0.9858973 0.976787 1.0110584
000050 4c ed 7c 3f 47 81 81 3f cd f4 7e 3f ef 43 82 3f
       0.98799586 1.0117577 0.99592286 1.0176982
000060 d1 64 7e 3f 0b 49 7f 3f 11 29 7a 3f 39 37 85 3f
       0.99372584 0.9972083 0.9771891 1.0407478
000070 c9 a2 82 3f 15 40 78 3f 1a 5e 82 3f fd 3e 79 3f
       1.0205928 0.9697278 1.0184968 0.9736174

lns.0.bias f4 [32]
000000 b6 d9 24 bc fc 58 e8 bb da f3 c6 bc de a9 0d bc
       -0.010061672 -0.007090686 -0.0242862 -0.0086464565
000010 0b 1f ad bc ad 90 5e 3c c8 f5 9b bb 31 f2 90 b8
       -0.021132967 0.013584298 -0.004759524 -6.911567e-05
000020 17 f6 96 3b 1d a3 8f bc 99 a8 cb 3c 69 95 aa 3c
       0.004606973 -0.017533833 0.024860667 0.020823197
000030 21 0e 29 bc a2 dc 5a bc 4a 46 5d bc 94 04 01 bc
       -0.01031831 -0.013358267 -0.013505528 -0.007874627
000040 3c b7 65 bc 11 d9 d6 3b 6c 6a af bc 69 0f 5b bc
       -0.014020737 0.006556638 -0.02141305 -0.013370373
000050 a9 30 fc bb cd f8 3b bb e8 05 8f 3b ae ff 99 bb
       -0.0076962304 -0.0028682232 0.0043647178 -0.004699669
000060 45 a7 a2 ba ea 70 d7 3b 0c b7 1f bb 2d d5 9e bb
       -0.0012409469 0.0065747397 -0.002437058 -0.00484719
000070 ca 61 3c bb 47 4d 7d bb 35 d0 76 bc 8c c0 90 bc
       -0.002874481 -0.0038650797 -0.015064289 -0.017669939

lns.1.weight f4 [16]
000000 e8 f6 77 3f ac 14 7a 3f f8 54 7c 3f c3 d4 80 3f
       0.96861124 0.9768779 0.9856715 1.006493
000010 74 20 80 3f 81 19 81 3f e1 28 83 3f b0 01 7a 3f
       1.0009904 1.0085908 1.024685 0.97658825
000020 b3 d3 7f 3f 52 38 7c 3f 5c 7c 81 3f 90 89 7b 3f
       0.999324 0.9852344 1.0116076 0.9825678
000030 57 f2 76 3f 38 f2 7c 3f 1e 06 7f 3f 2e f6 80 3f
       0.9646353 0.98807096 0.9961871 1.0075128

lns.1.bias f4 [16]
000000 f8 60 49 bb f5 a0 84 3b c1 92 8a 3c 59 f7 31 3b
       -0.0030727964 0.004047508 0.01691568 0.0027155487
000010 2f 9a 43 bc f1 5b a0 bb ba 60 d9 3c a4 8d cf 3c
       -0.011938616 -0.004893773 0.02653538 0.025336094
000020 ad af ca 3b e9 5e 47 bc b4 e9 ff 3b a8 84 2e bb
       0.006185493 -0.012168624 0.007809842 -0.0026629362
000030 e2 e6 44 3c 47 e5 b4 3c 77 3d bb bc 27 8d cd bb
       0.012017937 0.022081984 -0.022856457 -0.00627293

lns.2.weight f4 [8]
000000 00 00 80 3f 00 00 80 3f 00 00 80 3f 00 00 80 3f
       1.0 1.0 1.0 1.0
000010 00 00 80 3f 00 00 80 3f 00 00 80 3f 00 00 80 3f
       1.0 1.0 1.0 1.0

lns.2.bias f4 [8]
000000 00 00 00 00 00 00 00 00 00 00 00 00 00 00 00 00
       0.0 0.0 0.0 0.0
000010 00 00 00 00 00 00 00 00 00 00 00 00 00 00 00 00
       0.0 0.0 0.0 0.0

post_mp.0.weight f4 [8, 8]
000000 42 83 36 be 7e 34 84 3e f8 9c 54 3e e5 73 b4 3d
       -0.17823508 0.25821298 0.20763004 0.08811168
000010 0a a5 90 3e 54 e9 89 be 4d d9 ee bd 2f 6f b2 bd
       0.28250915 -0.26935828 -0.116625406 -0.08712613
000020 cd 5b 84 3d 1f b2 49 3e ac 10 96 3e 90 6e 57 be
       0.06462822 0.19696854 0.29309595 -0.2103827
000030 48 ed 26 3e d2 87 9c 3e 7f 9d ba 3e d7 f8 9e be
       0.16301453 0.30572373 0.36448285 -0.31049225
000040 df c1 b3 3d 79 11 92 3e e1 c0 9f be 37 9f 4f 3e
       0.08777212 0.28528956 -0.31201842 0.2027558
000050 2c 58 a1 be b7 56 7a 3e eb 15 dd bc 35 de 00 3e
       -0.31512582 0.24447142 -0.02698799 0.12584765
000060 ec 6a 5c 3d a5 c8 64 3e e1 d3 31 3e 51 4d 83 3e
       0.053812906 0.22342165 0.17365982 0.25644925
000070 a4 7a 71 be 17 12 85 bc 44 26 2f 3e 52 96 5c 3e
       -0.2358194 -0.016243977 0.17104441 0.21541718
000080 fe e6 83 be 9c 6b 1f 3e 91 fd 58 bc 30 97 32 be
       -0.2576217 0.15568393 -0.013244049 -0.17440486
000090 ad fd 9c 3e 60 68 a9 3e f9 62 83 3e 61 48 93 be
       0.3066229 0.33087444 0.25661448 -0.28766158
0000a0 a1 f2 ab be ae 29 bc bd 52 a0 81 3e 41 4a f6 bd
       -0.3358355 -0.09187637 0.25317627 -0.120258816
0000b0 6e 1f 50 3e b5 2a f2 3c ac 54 1d be d8 30 ed 3d
       0.2032449 0.02956138 -0.15364331 0.11581582
0000c0 b0 fc 8b 3d 05 97 a3 3e c2 b4 21 be e5 96 ae 3d
       0.06835306 0.31951156 -0.1579161 0.085248746
0000d0 6d c1 57 be c8 75 59 3e 92 b0 3a 3e b7 89 8c 3e
       -0.2106988 0.21236336 0.18231419 0.27448818
0000e0 4e 9f 81 3e 8e e1 4e 3e 83 e2 92 be 38 24 a4 3e
       0.25316852 0.2020323 -0.2868844 0.32058883
0000f0 b7 65 94 3e dd 14 af be 74 c7 4b be b1 e7 b2 be
       0.28983852 -0.34195605 -0.19900304 -0.34942392

post_mp.0.bias f4 [8]
000000 e4 c3 97 be 2b 6a d0 3d fb 93 2c be af b5 a1 be
       -0.2964164 0.101765 -0.16853325 -0.31583926
000010 3e 76 88 3e 0f 72 16 3d f8 49 13 3e e6 29 a3 3e
       0.26652712 0.03672987 0.14383686 0.31867903

post_mp.2.weight f4 [2, 8]
000000 c5 63 91 be ae bb 6a 3c d4 1d 64 bd af 58 a4 bd
       -0.2839643 0.014326973 -0.05569251 -0.080247276
000010 99 69 be bd 8e 1d 96 be 3f 49 5d 3e a6 0c 33 3e
       -0.09297485 -0.29319423 0.21609972 0.17485294
000020 c4 54 91 be 61 12 22 3e b4 ee 08 be 92 65 34 be
       -0.28384984 0.15827323 -0.13372308 -0.17616871
000030 93 70 d8 3d cc c3 28 3c 99 96 87 3e 04 c0 9a 3e
       0.10568347 0.010300588 0.26482084 0.3022462

post_mp.2.bias f4 [2]
000000 f2 15 0b 3c 93 88 3c bc
       0.008489119 -0.011507171
