GNN/model_uniq_weights.pth (torch, 12991 bytes, 16 tensors)

convs.0.weight f4 [32, 32]
0.0952664 -0.30988887 0.006202051 0.13909428 0.13226967 -0.14773478 0.08620371 -0.01782785
0.16683307 -0.080701284 0.24469106 -0.24938832 0.26052982 0.23493731 0.26338506 -0.051111262
0.1387255 -0.04155947 0.1414529 -0.09177623 0.19741465 -0.28710598 0.13871188 0.1832176
0.06792404 0.0122091435 0.07570208 0.26575613 0.13426878 -0.10940114 0.29811653 -0.099000275
0.19546068 0.24699293 0.30274156 -0.12571965 0.12955491 0.08143259 0.027216906 -0.12110791
-0.333658 0.20511419 -0.26070842 -0.12381772 0.011440127 -0.09345385 -0.28266522 -0.05801453
0.04068296 -0.022793926 -0.040310107 0.2933651 -0.27685505 0.002648684 -0.20168346 -0.037671473
0.14543267 0.16593769 -0.0021894106 0.22647893 0.18228565 -0.19885984 -0.07470215 -0.18937361
-0.036816712 0.099491455 -0.06571203 0.17125198 0.0229021 0.18144463 0.106088065 -0.17817906
0.20693514 -0.18088338 0.12158855 0.12318122 0.11111737 0.020561507 0.17080589 -0.06871872
0.24673434 -0.13456763 -0.23947006 0.19608897 0.1641777 -0.09588578 -0.15006825 -0.1422571
-0.10913196 -0.20394549 -0.20716079 0.2897646 -0.15434307 -0.26882353 0.065632194 0.0823542
0.10504854 0.009456285 0.1674613 0.28723317 0.10540607 -0.30406538 -0.2990932 -0.10520809
0.00483706 0.15275945 0.13205193 -0.33361223 0.29653445 -0.26382083 -0.06892157 -0.17548735
0.21305104 -0.13518125 0.22918186 0.1413716 -0.24300511 -0.19701584 -0.14823708 -0.09826589
-0.06188519 -0.12867306 -0.16915964 0.09122048 0.16637428 -0.2562789 -0.06995334 -0.16784528
-0.08723909 -0.0008419743 0.26038396 -0.15275925 -0.21138492 -0.1579223 0.18222074 -0.19346793
0.0025364123 0.31021583 -0.14902218 -0.07070127 0.12598543 0.15242659 -0.31098977 0.29056683
-0.25806388 -0.21249938 -0.25735316 0.1610719 0.18096174 -0.24220365 -0.23268843 -0.033140797
-0.13820212 0.25975916 0.294585 -0.06321637 -0.053457152 0.29591274 -0.29930538 -0.2092453
-0.14072758 0.2626421 -0.22751942 -0.21267179 -0.014615071 -0.07942381 0.19180217 0.22954161
-0.17909887 -0.1015312 -0.27933335 0.19169977 0.08767959 -0.28640604 0.1751785 0.21886382
0.10097541 -0.13386665 -0.11086717 -0.03605585 0.05141493 0.3120328 -0.011798502 -0.16784906
-0.021468261 0.15934968 0.3160978 0.094671525 -0.10898964 -0.22005825 -0.2622444 0.15050916
0.026185235 -0.25697342 -0.28449738 -0.1406218 0.29517588 0.23712112 0.29176998 0.24139233
-0.24875742 -0.22456238 -0.16419838 0.11136469 -0.2587788 0.048846163 0.020455029 0.17408334
0.12006781 -0.075204514 -0.13792291 -0.021959828 0.19299012 -0.076435596 -0.14950268 0.046177033
0.19865939 -0.25375417 0.2866144 -0.23945694 -0.05095997 0.17700075 -0.168581 0.27987617
0.18998365 -0.050933417 -0.07879917 -0.02171978 0.11431016 0.22195381 0.25137743 -0.16242899
-0.3225019 -0.20097189 -0.19426042 0.27729815 -0.034117877 -0.09425541 -0.042328257 -0.068237565
0.26109424 0.105665065 0.3220772 -0.10459136 0.09281367 -0.20275435 -0.29572666 0.28517908
0.2671834 -0.1397721 0.27673718 -0.0061044344 -0.026017807 0.013971636 -0.2533082 0.29249808
00000000: 081b c33d c1a9 9ebe 933a cb3b bb6e 0e3e
00000010: b371 073e c947 17be 928b b03d b60b 92bc
00000020: 4ad6 2a3e b746 a5bd 4b90 7a3e a75f 7fbe
00000030: 2a64 853e 6893 703e 68da 863e 0b5a 51bd
00000040: 0f0e 0e3e 433a 2abd 07d9 103e 2df5 bbbd
00000050: 1127 4a3e 8eff 92be 7d0a 0e3e 659d 3b3e
00000060: c21b 8b3d dc08 483c b109 9b3d 3011 883e
00000070: c17d 093e b40d e0bd bba2 983e a8c0 cabd
00000080: d826 483e b7eb 7c3e f100 9b3e a7bc 00be
00000090: 0baa 043e 21c6 a63d fdf5 de3c 6d07 f8bd
000000a0: 39d5 aabe 7409 523e 937b 85be 2594 fdbd
000000b0: 5f6f 3b3c bb64 bfbd 7fb9 90be a5a0 6dbd
000000c0: 2da3 263d 54ba babc 361c 25bd f333 963e
000000d0: f2bf 8dbe 8b95 2d3b 1c86 4ebe 674d 1abd
000000e0: 4dec 143e 92eb 293e 377c 0fbb 18ea 673e
000000f0: 17a9 3a3e eaa1 4bbe 71fd 98bd 28eb 41be
00000100: 1fcd 16bd 2dc2 cb3d 0794 86bd ae5c 2f3e
00000110: 2f9d bb3c 9fcc 393e b344 d93d 9274 36be
00000120: cee6 533e 7e39 39be 6b03 f93d 6f46 fc3d
00000130: 8191 e33d 9b70 a83c bde7 2e3e 66bc 8cbd
00000140: eda7 7c3e 19cc 09be a437 75be 8ccb 483e
00000150: 331e 283e c45f c4bd 7eab 19be d8ab 11be
00000160: 9480 dfbd 16d7 50be f521 54be 075c 943e
00000170: 1c0c 1ebe 3da3 89be 2c6a 863d 52a9 a83d
00000180: b023 d73d 89ee 1a3c fa7a 2b3e 3a10 933e
00000190: 23df d73d 75ae 9bbe be22 99be 5777 d7bd
000001a0: 3380 9e3b f96c 1c3e 9f38 073e 39cf aabe
000001b0: 5dd3 973e 8613 87be c126 8dbd f5b2 33be
000001c0: 0d2a 5a3e f46c 0abe a6ae 6a3e b7c3 103e
000001d0: 55d6 78be 85be 49be 76cb 17be a03f c9bd
000001e0: 537b 7dbd dfc2 03be 2f38 2dbe ced1 ba3d
000001f0: 055e 2a3e fd36 83be b243 8fbd a2df 2bbe
00000200: 68aa b2bd f0b7 5cba 0c51 853e ec6c 1cbe
00000210: 4a75 58be 62b6 21be 1398 3a3e 751c 46be
00000220: f039 263b 9cd4 9e3e 4599 18be d4cb 90bd
00000230: 5302 013e b715 1c3e 0d3a 9fbe 2dc5 943e
00000240: f320 84be 7099 59be cbc3 83be 08f0 243e
00000250: 094e 393e 3c04 78be e045 6ebe a5be 07bd
00000260: db84 0dbe 27ff 843e d8d3 963e 9677 81bd
00000270: e3f5 5abd e081 973e 8e3e 99be 6644 56be
00000280: e41a 10be 0679 863e dafa 68be a2c6 59be
00000290: 0d74 6fbc f3a8 a2bd ca67 443e f50c 6b3e
000002a0: b265 37be 97ef cfbd c804 8fbe f24c 443e
000002b0: 5b91 b33d d0a3 92be fe61 333e d61d 603e
000002c0: 32cc ce3d 5714 09be 540e e3bd 4daf 13bd
000002d0: 7698 523d c3c2 9f3e 814e 41bc a0e0 2bbe
000002e0: 35de afbc 902c 233e 92d7 a13e 25e3 c13d
000002f0: f635 dfbd f356 61be e644 86be 131f 1a3e
00000300: 6b82 d63c 0592 83be a4a9 91be 29ff 0fbe
00000310: 4b21 973e e1cf 723e e062 953e 8d2f 773e
00000320: 44ba 7ebe aef3 65be 9f23 28be 2c13 e43d
00000330: a87e 84be ea12 483d 4e91 a73c e742 323e
00000340: 1de6 f53d d304 9abd aa3b 0dbe 19e5 b3bc
00000350: 349f 453e 448a 9cbd 3b17 19be 2124 3d3d
00000360: 5e6d 4b3e 11ec 81be 1fbf 923e 3334 75be
00000370: 67bb 50bd af3f 353e 7fa0 2cbe ee4b 8f3e
00000380: 138b 423e 8f9f 50bd 7661 a1bd aeed b1bc
00000390: 721b ea3d dc47 633e 8bb4 803e c953 26be
000003a0: f81e a5be 93cb 4dbe 34ec 46be 06fa 8d3e
000003b0: 30bf 0bbd fb08 c1bd 6560 2dbd 23c0 8bbd
000003c0: 25ae 853e ed66 d83d 4ee7 a43e ff33 d6bd
000003d0: 1815 be3d d69e 4fbe 7c69 97be fe02 923e
000003e0: 43cc 883e 6b20 0fbe 7fb0 8d3e b507 c8bb
000003f0: 4c23 d5bc 4ae9 643c 9db1 81be 4fc2 953e

convs.0.bias f4 [32]
0.008022024 0.016693212 0.0014500124 0.012075137 0.022147035 -0.036052052 -0.009653946 0.031204492
-0.045394443 0.0037846696 0.0 -0.0026357647 0.003779168 -0.050082896 -0.015273999 -0.0049369233
-0.01173925 0.0 0.023297964 -0.017697632 -0.02601719 0.034718364 -0.011362983 -0.019782988
-0.023371553 -0.011251081 0.013193641 -0.00078510796 0.027654234 0.020742869 -0.0041316515 0.03787132
00000000: cf6e 033c 34c0 883c 580e be3a ccd6 453c
00000010: b36d b53c 51ab 13bd 962b 1ebc 90a0 ff3c
00000020: 86ef 39bd 3808 783b 0000 0000 cbbc 2cbb
00000030: ebab 773b b923 4dbd cc3f 7abc eac5 a1bb
00000040: fc55 40bc 0000 0000 5fdb be3c a0fa 90bc
00000050: 0122 d5bc d834 0e3d ce2b 3abc ef0f a2bc
00000060: b375 bfbc 7456 38bc 242a 583c b4cf 4dba
00000070: 228b e23c f3ec a93c ce62 87bb f51e 1b3d

convs.1.weight f4 [32, 16]
0.2886096 -0.071896285 -0.17129286 -0.31990352 0.28513294 0.17062622 0.18943928 0.3321907
-0.26766622 0.040027738 0.27084556 -0.31522024 0.14210777 0.28671265 -0.12628001 -0.17678043
0.27512184 -0.17279142 0.3199377 -0.2612351 -0.035165258 -0.01932965 0.21387978 -0.20745854
-0.32003692 -0.3338303 -0.27248245 0.1676619 0.19553621 0.029627794 -0.27631512 0.19806139
-0.09168814 0.2885117 0.21429132 -0.17766538 0.03462181 -0.37486246 0.31745267 -0.078217916
0.29196453 0.18220916 -0.056235477 0.059866082 -0.06472913 -0.10624278 -0.09340009 -0.16922048
0.2566309 0.19498147 -0.01643611 -0.32807752 -0.23246069 -0.30452684 -0.2742719 -0.09804841
0.10357075 0.24216959 0.30699548 -0.19079895 0.035684455 -0.054283764 0.23620397 0.30108228
0.34005073 -0.07704558 0.04273034 -0.29498038 0.039290663 0.33151287 0.22878435 0.08308242
0.10963359 -0.16417518 0.059174065 -0.046796687 -0.14860357 -0.1695091 -0.117272094 0.025523778
-0.23353001 0.30547222 -0.07374942 0.0045551746 0.30265662 0.02017781 0.13591035 0.30473197
-0.27237996 -0.34195423 0.13749002 -0.3290675 0.3126888 -0.15930256 -0.2677325 0.1843073
-0.12580241 -0.33223218 -0.03348617 -0.25736558 -0.1650881 -0.11498323 -0.20296301 -0.24512227
0.041489255 -0.0722327 0.1944053 -0.29376972 0.28977758 -0.11802565 -0.048006915 -0.088128425
-0.1269256 -0.08164337 0.19424307 0.10091568 -0.2037838 0.088660926 -0.06261325 -0.25354207
-0.02750757 0.06938105 0.27760145 0.19612843 -0.20123589 0.093829826 0.16293845 0.020621356
-0.24625559 0.11929039 0.1699723 -0.021692876 0.13713583 -0.3157102 0.052794505 -0.13823594
-0.19219905 -0.19128391 0.30468813 -0.27994087 -0.13705343 -0.33230233 0.25153324 0.2044092
-0.2720947 -0.20197088 -0.04289247 0.07665079 -0.26443443 -0.3499456 -0.15914826 0.28128812
0.24540883 0.27181694 -0.1894461 0.25487176 -0.16278654 0.2744744 -0.09443107 -0.2383113
0.06381953 0.34659252 0.2924692 0.099334806 -0.13960406 0.1418393 -0.09649226 -0.31948397
-0.28209096 -0.024101963 0.17386912 0.19603974 0.19996199 -0.050889462 -0.15240623 -0.085159004
-0.3789535 -0.26213872 -0.11260937 -0.08850937 0.24486566 0.29986238 0.19893484 0.20837753
-0.039460406 -0.24458447 0.28973502 -0.10185656 0.26899832 -0.031685606 0.11938506 0.073533885
-0.2688336 -0.16750498 0.128061 0.019333994 -0.15132064 -0.18042584 -0.17061512 -0.0906672
-0.04349091 0.25085616 -0.0033942875 -0.2612024 0.36530137 0.17886755 -0.24317148 -0.3489461
0.18662067 -0.09002455 -0.32391027 -0.118208624 0.1454648 0.011438822 -0.014875955 -0.24245219
-0.32545432 -0.3433951 -0.29300225 0.05127432 -0.19782363 0.03650915 0.22826013 0.35356373
-0.16505203 -0.30070814 -0.094100595 -0.27902934 0.25669914 0.16027656 -0.31708875 -0.0058663716
0.21932383 -0.1521934 -0.27269349 0.1834995 -0.31279844 0.21305765 0.061802786 -0.12525406
0.0527723 0.005318204 -0.1260054 0.23412822 -0.24759473 -0.19331409 0.06589932 -0.17842796
0.27869233 0.28264993 0.21526511 -0.05915375 0.21307927 -0.21863517 -0.26561466 -0.056325495
00000000: a3c4 933e 5c3e 93bd 6567 2fbe 65ca a3be
00000010: f2fc 913e a4b8 2e3e 5ffc 413e e614 aa3e
00000020: 8c0b 89be 20f4 233d 45ac 8a3e 8c64 a1be
00000030: b384 113e 00cc 923e 8c4f 01be ee05 35be
00000040: c5dc 8c3e 3cf0 30be e0ce a33e 9bc0 85be
00000050: 7209 10bd 3759 9ebc 4d03 5b3e 0370 54be
00000060: e1db a3be ceeb aabe d282 8bbe 90af 2b3e
00000070: a53a 483e fdb5 f23c 2d79 8dbe 9bd0 4a3e
00000080: fec6 bbbd ceb7 933e 2f6f 5b3e eaed 35be
00000090: 99cf 0d3d f9ed bfbe 2889 a23e b730 a0bd
000000a0: 607c 953e 0a95 3a3e 2c57 66bd 2336 753d
000000b0: b590 84bd d195 d9bd 8c48 bfbd 2248 2dbe
000000c0: 2065 833e 39a9 473e 05a5 86bc c7f9 a7be
000000d0: 2d0a 6ebe f1ea 9bbe 5e6d 8cbe 9bcd c8bd
000000e0: e71c d43d 4efb 773e 832e 9d3e cd60 43be
000000f0: dd29 123d a758 5ebd 74df 713e 7527 9a3e
00000100: 211b ae3e 13ca 9dbd 0206 2f3d ab07 97be
00000110: 3fef 203d 0ebc a93e 7246 6a3e 1e27 aa3d
00000120: 9387 e03d 8a1d 28be 8160 723d e2ad 3fbd
00000130: 892b 18be cb93 2dbe 5a2c f0bd 3e17 d13c
00000140: 7e22 6fbe db66 9c3e f009 97bd 9343 953b
00000150: cff5 9a3e ef4b a53c 152c 0b3e d405 9c3e
00000160: 6375 8bbe a014 afbe 2fca 0c3e 897b a8be
00000170: bf18 a03e 3620 23be 3c14 89be 0ebb 3c3e
00000180: 59d2 00be 561a aabe cb28 09bd 6cc5 83be
00000190: db0c 29be 547c ebbd 89d5 4fbe 5501 7bbe
000001a0: a3f0 293d bdee 93bd 2f12 473e fc68 96be
000001b0: ba5d 943e 6fb7 f1bd e6a2 44bd ad7c b4bd
000001c0: c9f8 01be a434 a7bd a8e7 463e e1ac ce3d
000001d0: b3ac 50be dc93 b53d 603b 80bd 44d0 81be
000001e0: 8e57 e1bc a717 8e3d c721 8e3e e4d5 483e
000001f0: c810 4ebe da29 c03d 56d9 263e 1eee a83c
00000200: 6d2a 7cbe 854e f43d 380d 2e3e 42b5 b1bc
00000210: 566d 0c3e c4a4 a1be 0d3f 583d b98d 0dbe
00000220: d4cf 44be eedf 43be 1500 9c3e 6954 8fbe
00000230: bc57 0cbe 8823 aabe f7c8 803e a550 513e
00000240: ff4f 8bbe 74d1 4ebe 04b0 2fbd 17fb 9c3d
00000250: f363 87be 122c b3be c3f7 22be ff04 903e
00000260: 744c 7b3e 972b 8b3e 29fe 41be 8d7e 823e
00000270: 84b1 26be e987 8c3e 1465 c1bd e107 74be
00000280: d0b3 823d 9374 b13e 86be 953e 0c70 cb3d
00000290: 5ef4 0ebe 523e 113e bc9d c5bd 6793 a3be
000002a0: 3a6e 90be 7b71 c5bc bf0a 323e a4be 483e
000002b0: d6c2 4c3e 7871 50bd 6110 1cbe d867 aebd
000002c0: 3106 c2be 0c37 86be be9f e6bd 6744 b5bd
000002d0: 10be 7a3e 9087 993e 93b5 4b3e eb60 553e
000002e0: 3ca1 21bd 5a74 7abe 2658 943e 2c9a d0bd
000002f0: 26ba 893e c4c8 01bd 2880 f43d ef98 963d
00000300: 8fa4 89be 6d86 2bbe 6c22 033e 5362 9e3c
00000310: ccf3 1abe 8dc1 38be bbb5 2ebe baaf b9bd
00000320: 8623 32bd 3870 803e b272 5ebb 52bc 85be
00000330: c808 bb3e 0e29 373e f201 79be 10a9 b2be
00000340: 7d19 3f3e cb5e b8bd 91d7 a5be 5d17 f2bd
00000350: b9f4 143e e669 3b3c 47ba 73bc 6345 78be
00000360: f3a1 a6be 7cd1 afbe 6404 96be 0505 523d
00000370: 4792 4abe 9e8a 153d 06bd 693e 4e06 b53e
00000380: 6603 29be 6bf6 99be d0b7 c0bd efdc 8ebe
00000390: 126e 833e 8a1f 243e 7559 a2be b13a c0bb
000003a0: 6d96 603e 96d8 1bbe 7b9e 8bbe 4be7 3b3e
000003b0: 1e27 a0be c92b 5a3e eb24 7d3d 9a42 00be
000003c0: c427 583d 5444 ae3b 8f07 01be 4fbf 6f3e
000003d0: 7989 7dbe 21f4 45be 39f6 863d d2b5 36be
000003e0: c3b0 8e3e 7eb7 903e 756e 5c3e 344b 72bd
000003f0: 7431 5a3e e6e1 5fbe a5fe 87be 90b5 66bd

convs.1.bias f4 [16]
0.029444193 -0.018264761 0.020384755 -0.011576968 -0.0011025672 0.025962234 0.01660635 0.009332784
0.00690383 -0.004263034 -0.0057731126 -0.023413677 -0.031177077 -0.011991181 -0.013173461 -0.0036409325
00000000: f334 f13c fb9f 95bc eefd a63c 53ad 3dbc
00000010: 0484 90ba c0ae d43c 0a0a 883c 89e8 183c
00000020: 8639 e23b ecb0 8bbb 612c bdbb 0ace bfbc
00000030: 1267 ffbc a976 44bc 80d5 57bc b69c 6ebb

convs.2.weight f4 [16, 8]
-0.04137703 0.24990216 0.05988461 0.028608583 -0.15891023 0.04937926 -0.038771857 -0.039944325
0.4029565 -0.052551307 0.24686518 0.0979791 -0.025516408 0.2969243 -0.42048782 0.18791915
-0.41945973 -0.24578317 0.106859274 -0.21381138 0.1269534 0.4965069 -0.3959201 -0.25224423
-0.3079886 0.48098224 0.39534357 -0.34504077 0.26477113 0.20072027 -0.06414635 0.32052714
0.14119613 0.41109082 0.051638458 0.07242965 -0.40323153 0.26571262 0.43805772 -0.39864522
-0.18600959 -0.40666696 0.28225708 0.06825608 -0.24341963 -0.40595493 -0.40584102 -0.25164986
-0.45337287 0.30647334 0.23912512 -0.35957488 0.31824496 0.2571316 -0.25793713 -0.44250467
0.4645453 -0.18206835 -0.19514555 -0.0066244123 0.19827612 0.099226564 0.47381783 -0.13204496
0.22387464 0.25620788 -0.19198562 0.42947334 -0.43159932 -0.11889549 0.42613623 0.28679544
0.33237088 -0.3175717 -0.4895231 0.53439355 0.5148959 0.27211115 0.43413302 -0.33173525
-0.34923422 -0.26530346 0.099727675 0.026876295 -0.22237901 -0.3072458 0.1189368 0.43844166
-0.0045330725 0.39568236 0.0013144 0.0050829523 -0.33685058 -0.116213255 -0.35878333 0.112867065
0.32379675 -0.4055372 0.36384046 0.4774912 0.10748131 0.3049041 0.06697167 0.4634218
0.33407134 0.41033268 0.11550783 -0.3743478 -0.06579918 -0.30114377 0.14542381 -0.40945414
0.15854456 -0.1030044 0.29562464 -0.15082195 -0.43881774 -0.20375888 -0.3614078 0.014736427
-0.18137006 -0.13208003 -0.30696455 -0.19710459 -0.43798995 -0.44011697 -0.27768692 -0.16751926
00000000: f67a 29bd 5ae6 7f3e 9149 753d 8c5c ea3c
00000010: 5db9 22be e841 4a3d 3dcf 1ebd a99c 23bd
00000020: 5050 ce3e 0a40 57bd 3aca 7c3e 44a9 c83d
00000030: c907 d1bc 7606 983e 2e4a d7be e16d 403e
00000040: 6dc3 d6be 95ae 7bbe 09d9 da3d 5ff1 5abe
00000050: 1200 023e 2736 fe3e 0ab6 cabe 2826 81be
00000060: afb0 9dbe 4e43 f63e 796a ca3e 2fa9 b0be
00000070: 1590 873e 9d89 4d3e 295f 83bd 221c a43e
00000080: b895 103e 7f7a d23e d982 533d ff55 943d
00000090: 5d74 cebe 7c0b 883e 1a49 e03e 3a1b ccbe
000000a0: 4c79 3ebe a736 d0be 0084 903e d8c9 8b3d
000000b0: ff42 79be 53d9 cfbe 65ca cfbe 40d8 80be
000000c0: 7d20 e8be 13ea 9c3e 37dd 743e 331a b8be
000000d0: 01f1 a23e c1a6 833e 5610 84be f98f e2be
000000e0: e2d8 ed3e 2070 3abe 3cd4 47be 9911 d9bb
000000f0: e508 4b3e 4c37 cb3d 4098 f23e cb36 07be
00000100: 653f 653e ae2d 833e e197 44be eee3 db3e
00000110: 96fa dcbe 7b7f f3bd 872e da3e dad6 923e
00000120: 842c aa3e c298 a2be c6a2 fabe 04ce 083f
00000130: 38d0 033f 2752 8b3e af46 de3e 34d9 a9be
00000140: d4ce b2be dbd5 87be 063e cc3d ad2b dc3c
00000150: 53b7 63be 524f 9dbe 2395 f33d 6d7b e03e
00000160: 2b8a 94bb e196 ca3e f247 ac3a e58e a63b
00000170: ae77 acbe 3701 eebd 73b2 b7be d926 e73d
00000180: b0c8 a53e 92a2 cfbe 4c49 ba3e ba79 f43e
00000190: 291f dc3d 641c 9c3e 7128 893d 9f45 ed3e
000001a0: 660b ab3e 2017 d23e 5f8f ec3d 84aa bfbe
000001b0: b8c1 86bd 842f 9abe fbe9 143e f9a3 d1be
000001c0: 8159 223e f9f3 d2bd 1d5c 973e 1271 1abe
000001d0: b8ac e0be 2ba6 50be 710a b9be 0e71 713c
000001e0: 13b9 39be fd3f 07be 752a 9dbe c9d5 49be
000001f0: 3840 e0be 0357 e1be fb2c 8ebe 2b8a 2bbe

convs.2.bias f4 [8]
-0.04019765 0.0033027912 -0.011971991 -0.0017292618 -0.0015808846 -0.020853871 0.039530974 -0.014742991
00000000: 4ba6 24bd a473 583b 2b26 44bc 66a8 e2ba
00000010: af35 cfba bdd5 aabc 3beb 213d 968c 71bc

lns.0.weight f4 [32]
1.0036956 1.0072674 1.0139272 1.0473362 1.0409393 0.97667426 0.9871584 1.0037293
0.99931395 0.99854034 1.0172555 0.98429537 1.0214722 0.9947518 0.96787405 1.0171653
0.97063553 0.99859625 1.0170325 0.98932123 0.98883396 0.9951199 0.99631155 1.0022317
0.94561833 1.017922 1.0430611 1.007586 1.0261055 1.0330254 1.002175 1.0590842
00000000: 1979 803f 23ee 803f 5ec8 813f 1d0f 863f
00000010: 803d 853f 5307 7a3f 6ab6 7c3f 347a 803f
00000020: 0ad3 7f3f 57a0 7f3f 6e35 823f c8fa 7b3f
00000030: 9abf 823f 0ea8 7e3f 98c6 773f 7932 823f
00000040: 927b 783f 01a4 7f3f 1f2e 823f 2844 7d3f
00000050: 3924 7d3f 2ec0 7e3f 460e 7f3f 2149 803f
00000060: 0b14 723f 454b 823f 0783 853f 94f8 803f
00000070: 6d57 833f 2d3a 843f 4547 803f 1290 873f

lns.0.bias f4 [32]
0.009581518 0.00470831 -0.01105378 -0.028614493 0.033725433 -0.019179657 -0.0030665083 0.007714427
-3.0140487e-05 0.009339465 -0.013443885 0.019276284 -0.0034775669 0.00023413777 0.03206168 -0.014631181
-0.006008514 -0.0020587852 -0.01431071 -0.0080931615 -0.023710204 0.03162675 0.0012955681 -0.013740488
-0.0056043877 -0.017202578 0.019039104 0.0019371654 0.009810088 -0.032245114 -0.004181688 -0.028251508
00000000: cdfb 1c3c 2b48 9a3b ea1a 35bc f168 eabc
00000010: ae23 0a3d a81e 9dbc 79f7 48bb 4ec9 fc3b
00000020: 34d6 fcb7 8e04 193c be43 5cbc 4ce9 9d3c
00000030: e4e7 63bb e182 7539 1c53 033d 9fb7 6fbc
00000040: 12e3 c4bb afec 06bb 7877 6abc 2e99 04bc
00000050: e73b c2bc 0d8b 013d 0dd0 a93a c91f 61bc
00000060: 03a5 b7bb 6cec 8cbc e5f7 9b3c 7ce8 fd3a
00000070: 7eba 203c 7413 04bd 8b06 89bb b56f e7bc

lns.1.weight f4 [16]
0.9787991 0.9713333 1.0137603 0.9904403 0.9265883 1.0556767 1.0060887 0.9871073
1.037604 1.0653591 0.99221957 0.9676996 0.96409106 0.96734387 0.9677283 0.9786707
00000000: 9492 7a3f 4da9 783f e6c2 813f 7f8d 7d3f
00000010: e434 6d3f 6a20 873f 84c7 803f 10b3 7c3f
00000020: 35d0 843f b05d 883f 1a02 7e3f 29bb 773f
00000030: acce 763f d9a3 773f 0bbd 773f 2a8a 7a3f

lns.1.bias f4 [16]
0.015183898 -0.011932169 0.030985445 0.010183227 -0.009910827 0.0300076 0.030937124 -0.028660627
-0.020684738 -0.018876482 0.01341836 0.029779796 -0.023063911 0.016398855 0.0063472847 0.016719947
00000000: e2c5 783c 257f 43bc 30d5 fd3c 8dd7 263c
00000010: 0561 22bc 80d2 f53c da6f fd3c b1c9 eabc
00000020: 0a73 a9bc daa2 9abc aed8 5b3c c2f4 f33c
00000030: 87f0 bcbc e456 863c e2fc cf3b 45f8 883c

lns.2.weight f4 [8]
1.0 1.0 1.0 1.0 1.0 1.0 1.0 1.0
00000000: 0000 803f 0000 803f 0000 803f 0000 803f
00000010: 0000 803f 0000 803f 0000 803f 0000 803f

lns.2.bias f4 [8]
0.0 0.0 0.0 0.0 0.0 0.0 0.0 0.0
00000000: 0000 0000 0000 0000 0000 0000 0000 0000
00000010: 0000 0000 0000 0000 0000 0000 0000 0000

post_mp.0.weight f4 [8, 8]
-0.058601722 -0.04654592 -0.3412199 0.18792008 0.19696616 -0.18090354 0.28826886 0.07363233
0.2347091 -0.31105796 0.15304725 0.2870132 -0.25142968 0.33606133 -0.23865636 -0.1597858
-0.10187768 0.10550044 0.30111668 -0.23694327 0.019680712 -0.18794663 -0.18978283 -0.21938945
0.067048706 -0.29574996 0.21608482 -0.17221354 -0.044502173 -0.19222155 -0.15281856 0.2272073
0.063132 -0.38814878 -0.15358831 -0.22013716 -0.2370311 -0.23483291 -0.026324894 -0.07606716
0.2544863 -0.19453743 -0.30808154 0.094571374 -0.14756572 0.16450708 0.39851484 -0.27342573
0.27350086 -0.3075718 -0.15502281 0.21825477 -0.005654243 0.23376016 -0.087920584 0.06782215
0.23136552 0.31343505 0.2860732 -0.36085054 0.23574296 -0.06887775 0.24157913 0.028389487
00000000: 5c08 70bd efa6 3ebd 60b4 aebe 1f6e 403e
00000010: 7fb1 493e c73e 39be fa97 933e 8ccc 963d
00000020: 9557 703e fd42 9fbe 6bb8 1c3e 65f3 923e
00000030: 64bb 80be 3b10 ac3e 5562 74be e49e 23be
00000040: 3fa5 d0bd 9d10 d83d f72b 9a3e 42a1 72be
00000050: 7239 a13c 1575 40be 6e56 42be a1a7 60be
00000060: d550 893d 8a6c 97be 5745 5d3e bf58 30be
00000070: e947 36bd bad5 44be 787c 1cbe 08a9 683e
00000080: 5a4b 813d 70bb c6be 4146 1dbe a36b 61be
00000090: 48b8 72be 0a78 70be 4ea7 d7bc 19c9 9bbd
000000a0: 074c 823e d234 47be ddbc 9dbe a3ae c13d
000000b0: 781b 17be 8b74 283e 230a cc3e 75fe 8bbe
000000c0: 4e08 8c3e 0d7a 9dbe 4dbe 1ebe 2e7e 5f3e
000000d0: 3a47 b9bb d35e 6f3e b50f b4bd 57e6 8a3d
000000e0: 15eb 6c3e 8f7a a03e 3078 923e 67c1 b8be
000000f0: 9a66 713e c70f 8dbd 8560 773e 1291 e83c

post_mp.0.bias f4 [8]
0.02110684 0.0073984335 -0.28953227 -0.37258273 0.0074551017 0.07470778 -0.24278189 -0.08423591
00000000: 40e8 ac3c 8f6e f23b 933d 94be 2ac3 bebe
00000010: ed49 f43b 6400 993d d19b 78be e083 acbd

post_mp.2.weight f4 [2, 8]
0.24922535 -0.27227736 -0.008086419 -0.016426336 0.18058836 -0.0424128 0.010741626 -0.17193592
-0.032869574 0.14277875 0.16812067 0.133174 0.24395321 -0.24435987 -0.0037427107 0.1129973
00000000: ee34 7f3e f067 8bbe e67c 04bc 8690 86bc
00000010: 28ec 383e 0bb9 2dbd a5fd 2f3c f80f 30be
00000020: 3fa2 06bd 9834 123e d327 2c3e c45e 083e
00000030: dfce 793e 7939 7abe 4448 75bb 216b e73d

post_mp.2.bias f4 [2]
-0.27884838 -0.035591092
00000000: 37c5 8ebe f7c7 11bd
