GNN/model_uniq_weights.pth (torch, 12991 bytes, 16 tensors)

convs.0.weight f4 [32, 32]
00000000: c1ac eb3d 696e 173d b8f8 bbbd c013 273e
00000010: 481c 3ebd 76e5 bebd 992f 963e f4ba 953e
00000020: b038 b1bd 2e37 323e 68f3 38be 484d bebd
00000030: 5ef3 623e affd e63c 85fe a63c a403 693d
00000040: bfe7 1cbd b6f2 763e aea5 32be 9df3 94be
00000050: 41a1 e63d 1ba1 01be cffa 96be 98b4 16bd
00000060: 7105 5c3e 985e 9c3d 5164 37bc 109a 883e
00000070: 9017 63be c76a 193e c081 08be 4b5e 68be
00000080: cf4a 073e 5560 2cbe 21b0 a3bd 5b89 c03d
00000090: f8b9 813e 0827 36bc 6eb5 1dbe 2b4d 0a3e
000000a0: 4434 9e3e 42be 063e ca8a 5c3d f859 2f3e
000000b0: 280c febd 6ba2 bebc f2ad cfbd 96e7 873e
000000c0: 527a b23c a3d6 863e d485 8cbe 831a 943e
000000d0: 1abc 803b ec58 52bd a0b8 37be 58c3 78be
000000e0: 5ee0 b6bd 26da 98be f776 7fbd 68af bfbc
000000f0: 119b 943d 83a6 b7ba ec2e 023c a593 863e
00000100: bbcf 44be 511c 193e d7ab 673c 9bb0 8cbb
00000110: 253e 32be 051a 31be 0c90 8ebe 405c 31bd
00000120: 7d4c 123e 4d46 3dbe 4a3a b13c 60bc 8cbe
00000130: 9bf7 18be 9e97 383e fca3 18be 9ea4 e8bb
00000140: 0833 133d 5fe7 2f3e 18c6 0bbe 1678 ac3c
00000150: 71f0 18be 590e 65be 4191 55bd 4338 2f3e
00000160: 182b 8abe 8ca1 4cbe 0806 273e 9627 6f3e
00000170: c516 99be 9d38 54be b1c6 e0bd e938 723e
00000180: 8802 5dbe 6db2 523e b510 f73d 48ce 6dbe
00000190: fc01 83be 6c52 f13c d566 21bd 6064 8f3d
000001a0: b1ff adbb 6c9b 31be 0b84 8fbe 130a f63d
000001b0: 5049 c83d 79a1 c83d 6965 0abe df0a 7abc
000001c0: 9d1e 343e 2f01 9b3e b63a 45be 6712 5dbe
000001d0: c33b 1bbe a899 9e3e ad24 143e d93a 393e
000001e0: f651 96be 0519 e0bd 1234 06be 583e ce3d
000001f0: caff 35be 6be8 c73c 42fc 16be 24a0 363e
00000200: fcb3 5dbd 3770 74be acbf 85be 05a4 8bbe
00000210: 1b7e 70bd f517 c9bd 13a5 b1bd 11c8 66be
00000220: f131 043e 39a8 953d 0e79 4fbd 6aa3 80be
00000230: cb64 b1bc 4aea 08be 22f6 3a3e 2380 dd3d
00000240: a353 da3d 826d 53be 95a5 a8bd 9a66 723e
00000250: 68c3 10be a5c6 3d3e 9959 48be e654 59be
00000260: 6868 813e 1cc2 853d ec16 45be e0bd 0b3d
00000270: 4b43 93bd 269a e4bd 15f1 7ebd 11e0 8abe
00000280: 1dfe 1e3e 4313 76be 62f6 013e d4bb 97be
00000290: f4ad 523e 0227 0ebe 6a1f afbd db5c babd
000002a0: 756b 723e e305 133e ebf7 193e 467d 953c
000002b0: 4e21 803e 967e 26bd 7c47 25be f90f 96be
000002c0: baff 4a3e d149 57be 2736 54be d4e5 c2bb
000002d0: acdb 97be 0999 dcbc b0f4 273d 5f3f cd3d
000002e0: 248e 38be 4223 173d f637 abbd 6d8f 77be
000002f0: 0fb3 de3d 832d da3d 4383 923d ea93 8d3e
00000300: 34ae 2e3d dcf4 3dbe 4931 68be aa9e 883b
00000310: 612d 5dbe 50e7 b93d 4f29 8cbe 5b07 733e
00000320: 2314 97be eba0 5cba 1c94 923e 3e62 2dbe
00000330: 005b 37be 59f4 053e 8200 4dbc 889f 1bbe
00000340: a959 6fbe c637 653e f78a 203e 13b6 09be
00000350: 2290 013e 730c 3abe daf3 c7bd 2590 833e
00000360: c603 9b3d d3ee 34be 4d57 16bd e35d cabd
00000370: f117 133e a728 69be c8e7 9bbe 6cdb 033e
00000380: 7ef9 8d3e 37d1 743d d9de d1bd d4cd 85bd
00000390: cdfd 84bc a1f2 24be ad3b 9e3e f8e0 e5bc
000003a0: b404 67bd 900d c3bd 352c 553c fda4 783e
000003b0: f594 25be 5e93 9e3d b55b e2bd 671c a3bd
000003c0: 34ac 3dbe defc 573e 3ef9 403e 258a 16be
000003d0: 9e1e 24be be7f acbd 58a7 54be 580b 8b3e
000003e0: ba36 9bbe 9fcf 923e fad6 113e da69 5d3e
000003f0: 5db4 2dbd 6b38 cbbd 6368 3cbe 153e 533d
0.115075596 0.03697053 -0.09178299 0.16316128 -0.04641369 -0.0932111 0.2933319 0.29244196
-0.086533904 0.17403862 -0.18061602 -0.09292084 0.2216315 0.028197138 0.020385036 0.056888238
-0.038306948 0.24116024 -0.17446014 -0.29092112 0.112612255 -0.12659113 -0.29488227 -0.03679332
0.2148645 0.0763523 -0.011193351 0.2668004 -0.22176957 0.14982139 -0.13330746 -0.2269222
0.13212131 -0.16833623 -0.07992578 0.094011985 0.25337195 -0.011117704 -0.15401241 0.13506
0.3089925 0.13158515 0.053843297 0.17124164 -0.12404662 -0.023270806 -0.10140599 0.26543874
0.021786842 0.2633563 -0.27445853 0.28926477 0.0039286735 -0.051354334 -0.17941523 -0.24293268
-0.089295134 -0.29853934 -0.062369313 -0.02339907 0.07256139 -0.0014011416 0.007945757 0.2628452
-0.19219868 0.14952208 0.014140091 -0.004293514 -0.17406519 -0.17295082 -0.27844274 -0.043300867
0.1428699 -0.18483849 0.02163424 -0.2748747 -0.14938204 0.18026587 -0.14906305 -0.007099702
0.03593734 0.17178105 -0.13649786 0.021053355 -0.14935471 -0.22368754 -0.052140478 0.17111306
-0.26986003 -0.199835 0.16310894 0.23354945 -0.29900184 -0.20724721 -0.109753974 0.23654522
-0.21582997 0.20575877 0.120637335 -0.23223221 -0.2558745 0.029458247 -0.03940471 0.07001567
-0.005310022 -0.17344445 -0.28030428 0.1201364 0.09779608 0.097964235 -0.13515247 -0.015261381
0.17589803 0.3027434 -0.19260678 -0.21589051 -0.15159516 0.30976605 0.14467116 0.18088855
-0.29359406 -0.10942272 -0.13105801 0.10070485 -0.17773357 0.024402818 -0.14744666 0.17834526
-0.054126725 -0.23870932 -0.26122797 -0.27273574 -0.058714014 -0.098190226 -0.086740635 -0.22537257
0.12909676 0.073074766 -0.050652556 -0.25124675 -0.021654507 -0.13370624 0.18257955 0.10815456
0.10660484 -0.20647243 -0.08234707 0.23671952 -0.14137042 0.18532808 -0.19565429 -0.21223792
0.25274968 0.06531164 -0.19247025 0.034116626 -0.071905695 -0.11162214 -0.062241632 -0.27124074
0.15526624 -0.24030785 0.12691644 -0.2963549 0.2057417 -0.13882068 -0.08550914 -0.09099742
0.23673804 0.14357714 0.1503598 0.018248212 0.2502541 -0.040648066 -0.1614055 -0.2930906
0.19824114 -0.21024252 -0.20723782 -0.005947808 -0.29659784 -0.026928442 0.041004837 0.10021853
-0.18022972 0.03689886 -0.08360283 -0.24175806 0.108739965 0.10653212 0.071539424 0.27651912
0.0426466 -0.18550438 -0.22675051 0.004169305 -0.21599342 0.090773225 -0.27375266 0.23733275
-0.2950755 -0.00084163126 0.28628623 -0.16932008 -0.17905807 0.13081492 -0.012512328 -0.15197575
-0.23374046 0.22384557 0.15678011 -0.13448362 0.12652639 -0.18168812 -0.09763308 0.2569591
0.07569079 -0.17669229 -0.03670435 -0.09881189 0.14364602 -0.22769414 -0.30450273 0.12876672
0.2772941 0.059769835 -0.10247583 -0.06533399 -0.016234303 -0.1610818 0.30904904 -0.028061375
-0.05640097 -0.09524071 0.013011028 0.24281688 -0.16170104 0.07742952 -0.11052648 -0.07964402
-0.18522722 0.21092555 0.18845078 -0.14701135 -0.16027305 -0.084228024 -0.20766962 0.27157092
-0.3031519 0.28674027 0.14242163 0.2162241 -0.042408336 -0.0992287 -0.18399195 0.051572878

convs.0.bias f4 [32]
00000000: e9fd 1ebc 0d82 6bb8 20aa 18bc 750b f8ba
00000010: bd7e a4b9 6d43 15bb 0e51 163b 8b92 503c
00000020: 2a3a d33b e196 803b 2c72 09bc d25f b63b
00000030: 376f 493a aff5 afba 20a5 663a e5bc ee37
00000040: 9213 8a3b d154 cd3b ce96 37bb b817 28bc
00000050: b63a b4bb 5a20 7f3b 477f 57bb 652f b2ba
00000060: 6218 00bb dde2 b8bb 599e ffbb ea48 633b
00000070: 1dd7 96bb 6bb8 b63a ac13 d5bb 93ab 83bb
-0.009704092 -5.6149485e-05 -0.009317905 -0.0018924313 -0.00031374945 -0.0022775785 0.0022936496 0.012730251
0.0064461427 0.003924236 -0.008389037 0.005565622 0.0007684114 -0.001342466 0.0008798409 2.8459772e-05
0.0042137587 0.0062662144 -0.002801347 -0.010259561 -0.005500163 0.0038929195 -0.003288226 -0.0013594447
-0.0019545783 -0.0056422786 -0.007800859 0.0034680911 -0.00460328 0.0013940459 -0.006502589 -0.004018256

convs.1.weight f4 [32, 16]
00000000: 3f7f e8bd 5288 98be 2881 b1be 65c7 4e3d
00000010: cc3c 4dbd 3ec7 6a3e 07fe 8c3d 0391 13be
00000020: 8426 2abe 9149 293e 910d 8cbe 0cc6 533e
00000030: 3122 23bd b698 413c 77e1 87be d170 3fbd
00000040: e825 813e 3b6a 40bd cfee 2ebe 0345 bdbd
00000050: b442 22be e53e 7bbe 5696 0dba 15f8 f0bd
00000060: 47e8 923e b44a c9bd c50e 69be 928c 8a3e
00000070: eb58 99bd c49c cbbd 3f00 883e 396e 3d3e
00000080: 623c 85be 7dc0 a43e 5aa9 993c 4051 923e
00000090: 9730 8a3e e599 4ebe 9598 863e 67aa ba3d
000000a0: 8608 533e bea2 35be f081 a5be df3f b53d
000000b0: 5e5e a5be a695 2a3d 5943 ab3e 0db1 883e
000000c0: 3268 aabe a7cf 543d fee6 5abe c0e5 563d
000000d0: 0f12 4ebd 1dd3 2dba 1ae2 4d3d 2062 4e3d
000000e0: 05b4 01be cfd5 47be 6838 8c3d d0d6 89be
000000f0: 4842 663e 2926 d33d 89e7 7a3e 1fd9 b93d
00000100: 6180 9c3e 7235 8d3e 53d1 6d3e a9e4 eebd
00000110: 92fc 67be 6086 3abe 1d18 98bd 3f6d f5bd
00000120: f476 213b 80d8 b6be 21ba bd3d 5270 7d3e
00000130: 60cc 9bbe 04ad aebe 11bb 533e 95f3 90be
00000140: 1467 9d3e 13a3 aabd cde3 7ebe cc82 09be
00000150: f01d 83be 194b a7be e307 c8bd 1cda 8d3b
00000160: aa1f a1be 7276 783e 7032 8ebe daae e7bd
00000170: b6df f5bc c705 02bc 0098 813e 78bc 5ebe
00000180: d618 9f3e 08a5 623e fcc8 5f3e d961 88bd
00000190: af34 273d 347e 093e d157 2dbe e3c7 b2bd
000001a0: b58d 20be dadd 57be 33bd 4ebe a4fe 63be
000001b0: 98cb 153e 0650 82be bdab 9dbd e519 83be
000001c0: e33e 123d 0607 a4be e559 0abe f161 28be
000001d0: 35d0 61bd 461e 8cbd fa53 87be 2812 2ebe
000001e0: d099 4ebe bac4 efbc f108 983e 50ef f53d
000001f0: a5c2 5e3e 5835 ef3d fd86 babd 8918 4cbe
00000200: 8a03 703e bcfa c13d dde1 eabd 8aa1 a3be
00000210: fc0a 18be adb7 4d3e 5c29 8e3c 169d 6cbe
00000220: 5c18 0abe 1471 793b 049c cabb 870e 8e3e
00000230: 2753 983e 9837 c6bd d3b1 2dbe c8b4 51be
00000240: f982 12bd 0499 a0bc 3189 c13d 1930 813e
00000250: c198 30be 5244 da3d 71d2 76be 5f28 69be
00000260: 734a 373e 2908 8dbe 0bf5 b23e 0179 863e
00000270: 51cd b13e 7a22 91be dd7f 023d 9d47 dd3d
00000280: bb7c c3bd 9ab5 a2bd 3acd 933e 4dba aa3e
00000290: ba69 5abe 7814 913e 749a afbe ad5f 303e
000002a0: 5cf6 72be 24b4 b13d 997a 90be d923 99be
000002b0: 5bed c7bc cf99 45bc 260f a03e b2c0 83be
000002c0: 149b 22be 60f0 9abe aaf6 a8be 46de 35be
000002d0: 7a30 a83e 1c03 28be d1fd 8a3e b57a 78be
000002e0: 99de b23e 8297 cdbd be35 0f3e f1ad 7e3e
000002f0: 5abc 943e 3a87 843e 7793 2d3e 4e8e 0ebe
00000300: e0ef 5fbe 134e a3bd f351 98bd 63ac c13d
00000310: 8f9b a5be 95c4 4abe 9119 9cbe eb0e a63e
00000320: cf8d a9be 7166 7bbd 8daf 7fbe 6511 8fbc
00000330: 214b 133e 4302 7a3e 4b60 40bd 2c49 fa3d
00000340: e358 b5be 8ba0 e03d fcd7 aa3e fab2 9c3e
00000350: 55ec cb3d 6518 34be c97d 9a3e b517 25be
00000360: db99 ce3b 0361 22be 41bc 2bbe 504d d0bd
00000370: 8ae9 4fbe 6c54 7c3e ed5c 58be 038a d8bb
00000380: cb45 e6bb aea0 2ebe 7d67 50be d42b de3d
00000390: c577 33bb 4fe8 e53d 26c3 a7bd 06ef 57bc
000003a0: d337 8dbe 1b06 9d3e d8da 71be a1fd a53d
000003b0: 2516 92bd 45ab b53e dafc 4c3e d080 47be
000003c0: 4ae2 a6bd e398 7a3e 0309 733e 4f51 643e
000003d0: 2aa7 813e 0e04 5cbe 0033 aa3e 58d6 5fbe
000003e0: 1df8 103e de50 593e 3cc5 743e 6e40 1ebe
000003f0: b915 8ebe 8ef6 423e 4aed 7b3e ea74 6cbc
-0.11352395 -0.29791504 -0.3466885 0.050483126 -0.05010681 0.22927567 0.06884389 -0.14410786
-0.16616255 0.1653197 -0.273541 0.20681018 -0.03982753 0.011816194 -0.26539204 -0.04673845
0.25224233 -0.04697631 -0.17083286 -0.092416786 -0.15845758 -0.24535711 -0.0005401125 -0.11766068
0.2869284 -0.098287016 -0.2275954 0.27060372 -0.07487663 -0.0994201 0.26562688 0.18499078
-0.2602263 0.32178107 0.01875751 0.28577614 0.26990196 -0.20175894 0.26288286 0.09114533
0.2060872 -0.17737862 -0.32325697 0.08850073 -0.3229856 0.041646622 0.3344982 0.2669758
-0.3328262 0.051955845 -0.21377179 0.0524652 -0.05031019 -0.00066308846 0.050264455 0.050386548
-0.12666328 -0.19515155 0.06846696 -0.269217 0.22486222 0.10310013 0.24502386 0.09074616
0.30566695 0.27579838 0.23224382 -0.11664707 -0.22654942 -0.18215322 -0.07426474 -0.11983728
0.0024637552 -0.3571205 0.09264017 0.24749878 -0.30429363 -0.34116375 0.20676829 -0.28310838
0.30742705 -0.08331885 -0.24891587 -0.13428801 -0.25608778 -0.32674482 -0.09767129 0.004328979
-0.3146947 0.24263933 -0.27772856 -0.11312647 -0.0300139 -0.007935948 0.2531128 -0.21751583
0.31073636 0.22133267 0.21854013 -0.06659288 0.040821727 0.13427049 -0.1692803 -0.087295316
-0.15679057 -0.21080723 -0.20189361 -0.22265106 0.14628446 -0.25451678 -0.07698772 -0.25605693
0.035704505 -0.32036608 -0.13510855 -0.16443612 -0.055130202 -0.06841712 -0.26431257 -0.16999114
-0.20175862 -0.029268611 0.29694322 0.12008536 0.21753938 0.116800964 -0.09107778 -0.19931234
0.2343885 0.09471652 -0.11468861 -0.31959182 -0.1484794 0.20089598 0.017353706 -0.23106799
-0.13485855 0.0038061785 -0.0061831493 0.27745458 0.2975094 -0.096785724 -0.16962366 -0.20479119
-0.035769437 -0.019604214 0.09449995 0.25232008 -0.17245771 0.10657562 -0.24103715 -0.22769307
0.17899494 -0.27545288 0.34952578 0.26264194 0.34726956 -0.28346616 0.03186022 0.10804675
-0.09545275 -0.07944794 0.28867513 0.3334526 -0.21329394 0.2833593 -0.34297526 0.17223997
-0.23726791 0.08676937 -0.28218535 -0.29910162 -0.024405172 -0.012060597 0.31261557 -0.25732952
-0.1587947 -0.30261517 -0.3300069 -0.17760572 0.32849485 -0.16407436 0.27146772 -0.24265559
0.34935454 -0.100386634 0.13985345 0.24871041 0.2904995 0.2588442 0.16950785 -0.13921472
-0.21868849 -0.07973876 -0.074375056 0.09456708 -0.32345244 -0.19801553 -0.30488256 0.32433257
-0.33116004 -0.061376993 -0.24969311 -0.017464349 0.14384128 0.24414925 -0.046966832 0.12220988
-0.35419378 0.10968121 0.33367908 0.30605298 0.09957186 -0.17587431 0.3017409 -0.16122325
0.006304962 -0.1585732 -0.16771032 -0.10170996 -0.20303932 0.2464158 -0.21129198 -0.006608249
-0.007027363 -0.17053482 -0.20351978 0.10848203 -0.002738462 0.1122595 -0.081915185 -0.013179546
-0.27581653 0.3066872 -0.23618639 0.081050165 -0.0713313 0.3548223 0.2001833 -0.19482732
-0.0814863 0.24472384 0.23733906 0.22296642 0.2532285 -0.21485922 0.33242035 -0.2185911
0.14157148 0.21222255 0.23903364 -0.15454265 -0.27750948 0.19039366 0.24602237 -0.014432171

convs.1.bias f4 [16]
00000000: 6a85 32bb b4d8 6d3b a2a0 20bb 9546 843b
00000010: b512 693c 9137 ecbb 4706 c9bb a7e2 06bc
00000020: e34e 393a f706 023c 946f 243c 23a5 30bc
00000030: 0bb4 7f3c 93b6 8cbb 401f 1dbc 7536 4fbb
-0.0027240166 0.0036292495 -0.0024509807 0.0040367343 0.0142256515 -0.0072087725 -0.0061347815 -0.008232749
0.0007068945 0.007936231 0.010036368 -0.010781559 0.01560689 -0.0042942255 -0.00958997 -0.0031618152

convs.2.weight f4 [16, 8]
00000000: 1939 1bbd d11b aebe 8f8a d23e 3de9 a23e
00000010: 6363 54be 716e d3be 13e6 abbd 144c 02be
00000020: 45fa adbe 7562 33be 6072 9c3e 8ecf 0ebe
00000030: 3e2c aebe 9281 1fbe 7bd2 d83e cf1f 77be
00000040: e33b e3be c057 6a3e e2b0 f0bd 4e69 ebbd
00000050: 53ff 0c3e 054a dc3e 958f f1bd 2bdf e3bd
00000060: 82a4 b23e f728 a6be d7d5 57be d1a0 d4be
00000070: ad57 df3d be3a e33e 1c40 3ebe 9371 793e
00000080: 604c 44bd f6ca e5be 9352 aebe 0a6e 0bbe
00000090: 1cda 6dbe e2c1 3f3e 7c5b 12be b19d abbe
000000a0: 1119 e53e 6aeb 953e 1bc6 b63d 700c a8be
000000b0: 9c5e 403d f544 3f3e a42f 733e 419e ca3e
000000c0: b47f dabd 4d7d c53e 5195 9abe dffc d43d
000000d0: 700b 673d 7628 d53e 090b dcbe 315a 853e
000000e0: f18d 963e e59b de3e 739f 3bbe 0a1e 4dbe
000000f0: 3329 c93e caf6 e1be 4cee ff3e 78b3 ad3c
00000100: cc5e 9cbe 8103 66be 0dc1 b1be 3f67 91ba
00000110: cffc 843d 59d1 b23e a16e f23d 555e b0be
00000120: 30f1 e5be f303 69bd cbe9 d13d 0d28 48be
00000130: 80f1 643e 988e 8c3d 052b 1fbd afdd a63e
00000140: 456d 16bd 6217 413e c8ad a8be 7190 9dbe
00000150: 6d3d 6e3e acf6 d93e 950b bdbe b1e8 6bbd
00000160: 3f99 69be 6f0f 8d3e 6acc da3e 169e 82bd
00000170: a3dc 98bd bc42 cc3e 9f79 233e b2c5 083e
00000180: 2ff1 82bc 4827 c3bc 76a0 6dbe b09e 353d
00000190: be33 ff3d 02bb dcbd fe7f 3dbd 3d5b 93be
000001a0: b1f7 ef3e d270 293e f3de c73e 3f5f 6dbb
000001b0: 9157 8b3e 4cfd e5be ba1d a03e e91d d6bd
000001c0: d5d9 2cbe bcb5 8d3e 507d 613e 51a0 853e
000001d0: 8eb5 dd3e 2656 cebe 3292 013f ecd5 94be
000001e0: e42f d13e 283c eb3e da48 85bd 3bf0 3abe
000001f0: da57 ee3e a30c e1be f697 adbe de0b 963d
-0.03789625 -0.34005597 0.41121337 0.31818572 -0.20741038 -0.41295198 -0.083934925 -0.12724334
-0.33980003 -0.17518027 0.3055601 -0.13946363 -0.3401813 -0.15576771 0.42348084 -0.24133228
-0.44381627 0.22885036 -0.11752488 -0.11494695 0.13769273 0.43025222 -0.11794964 -0.1112655
0.34891135 -0.3245313 -0.21077667 -0.41528943 0.10905395 0.44380754 -0.18579143 0.24359731
-0.0479244 -0.4488141 -0.34047374 -0.13616195 -0.23227733 0.18726304 -0.14292711 -0.33518746
0.44745687 0.2928117 0.08924504 -0.3282199 0.046965227 0.18678649 0.23748642 0.39573863
-0.10668889 0.3857216 -0.30192044 0.10399794 0.056407392 0.41632432 -0.4297717 0.26045373
0.29405168 0.43478313 -0.18322544 -0.2003099 0.39289245 -0.44133598 0.49986494 0.021203741
-0.30541074 -0.22462274 -0.347176 -0.0011093392 0.06493532 0.34925345 0.11837507 -0.3444697
-0.44910574 -0.056888532 0.102496706 -0.19546528 0.2235775 0.06863135 -0.038859386 0.32591006
-0.0367253 0.18856576 -0.32945085 -0.30774263 0.2326562 0.42571008 -0.369229 -0.05759496
-0.22812365 0.27550837 0.4273408 -0.06377809 -0.07463958 0.39894664 0.15964364 0.13356665
-0.015984146 -0.023822442 -0.23205742 0.04434079 0.12461041 -0.107778564 -0.04626464 -0.28780547
0.4686866 0.16546944 0.39037284 -0.0036220101 0.27215245 -0.44919813 0.3127268 -0.10454924
-0.16879971 0.27677715 0.22020459 0.26098874 0.43302578 -0.403001 0.506137 -0.2906946
0.4085685 0.45944333 -0.06508036 -0.18255703 0.465514 -0.43954954 -0.33905 0.07326482

convs.2.bias f4 [8]
00000000: 58c0 00bc 2f2e 73bc 5a4d 02bc 4a2e 87bc
00000010: 8333 49bc 98e9 91bc cc24 61bc 9d53 35bc
-0.007858358 -0.014842554 -0.007953012 -0.016501565 -0.012280348 -0.017811581 -0.013741683 -0.011067298

lns.0.weight f4 [32]
00000000: 2708 803f 9275 813f 9591 813f 2d01 7f3f
00000010: f409 7f3f e410 803f 3a15 7f3f e978 813f
00000020: e0d9 7d3f 28d1 7e3f 2361 7e3f 60b6 7c3f
00000030: 8b88 803f 2161 7f3f 3cc0 803f 11dd 7d3f
00000040: f84b 7d3f dcc2 803f f297 813f 16cf 7e3f
00000050: e9a0 803f 44c2 7e3f f0a8 803f 95cd 7f3f
00000060: fb96 803f 39b5 813f ff7b 803f 6173 803f
00000070: c790 7d3f cea3 7e3f 01b6 7f3f 246f 7e3f
1.0002488 1.0114005 1.0122553 0.9961117 0.9962456 1.0005155 0.99641764 1.0115024
0.99160576 0.995379 0.9936697 0.9871578 1.004167 0.9975758 1.0058665 0.99165446
0.98944044 1.0059466 1.0124495 0.9953474 1.0049106 0.99515176 1.0051556 0.9992307
1.0046076 1.013343 1.0037841 1.0035211 0.9904904 0.99468696 0.9988709 0.9938834

lns.0.bias f4 [32]
00000000: f48b 42bb 1000 3fbc 0789 5ebc 4ea7 2f3b
00000010: 5ece e4ba 3222 8abb e52d 833b c6a3 6d3c
00000020: 7f8e 0d3c b2c9 233c 80aa 0cbc 9f42 0e3c
00000030: eafb 92bb 2bd7 44bb 9c03 c9bb 6514 713b
00000040: 2dd3 df3b 81b7 923b e5bf 21bc a93e 033a
00000050: 4ee1 06bc 1e15 d93b 0e75 dabb 8286 18bb
00000060: ed3c b1bb 9649 1bbc 61cc cebb d904 a73b
00000070: 8a47 183c e0b9 b83b 881a 9b39 2de7 06bb
-0.002968547 -0.01165773 -0.013582475 0.0026802602 -0.0017456522 -0.004215502 0.004003274 0.014504379
0.008639931 0.009996818 -0.008585572 0.008682876 -0.004485597 -0.0030035477 -0.0061344635 0.0036785838
0.006830594 0.004477442 -0.009872411 0.00050065905 -0.008232428 0.006624832 -0.006666786 -0.0023273532
-0.0054088742 -0.0094779935 -0.006310985 0.0050970134 0.0092944 0.0056373924 0.0002958367 -0.002058457

lns.1.weight f4 [16]
00000000: fdb9 7c3f 6c2a 7c3f acbb 7e3f be63 7d3f
00000010: d969 7c3f d097 813f b448 7d3f 2f6f 813f
00000020: 138d 7f3f bcd3 7c3f d540 7c3f 9317 823f
00000030: 1044 803f f257 7c3f 51c4 813f 90bf 7d3f
0.98721296 0.9850223 0.99505115 0.9898032 0.9859901 1.0124454 0.9893906 1.0112056
0.9982464 0.9876058 0.98536426 1.0163444 1.0020771 0.98571694 1.0138036 0.99120426

lns.1.bias f4 [16]
00000000: 79bb 573c 01cd 503b 4cbe f5bb 572a f63b
00000010: 5cb9 843c 757e 6bbc ea7d c0bb 9c08 35bc
00000020: e130 afb8 8777 963b 0f73 ff3a d1ac 93bc
00000030: 5c6a 853c f339 4ebc b466 7cbc 7f59 883b
0.013167256 0.0031860473 -0.007499492 0.0075123715 0.016201667 -0.014373411 -0.005874385 -0.011049416
-8.353755e-05 0.0045918855 0.0019489246 -0.018026741 0.016286068 -0.012587058 -0.015405346 0.0041610594

lns.2.weight f4 [8]
00000000: 0000 803f 0000 803f 0000 803f 0000 803f
00000010: 0000 803f 0000 803f 0000 803f 0000 803f
1.0 1.0 1.0 1.0 1.0 1.0 1.0 1.0

lns.2.bias f4 [8]
00000000: 0000 0000 0000 0000 0000 0000 0000 0000
00000010: 0000 0000 0000 0000 0000 0000 0000 0000
0.0 0.0 0.0 0.0 0.0 0.0 0.0 0.0

post_mp.0.weight f4 [8, 8]
00000000: c14b 18be 3d4b 00be 30ab b33e c4c5 41be
00000010: 2046 903e 6978 8f3e b16c 28be f6f8 6e3e
00000020: 5b66 1e3e 9539 893e 38c4 82bc f507 303e
00000030: ef45 323e 9b04 983e 562d 823e 0bae 893d
00000040: 8331 cfbd 6041 3cbe 3d81 643e 4ba5 813e
00000050: 183f ae3c 55b2 4b3e bf50 a43e 9b23 c2bd
00000060: 732f 4e3e a471 a83e 9c4b 3cbe f9b9 a43e
00000070: 3cb0 a13e 3249 d83d 2a61 9cbd 34bb a9be
00000080: 587f ec3d aeeb 4cbe 3df6 b8be bf82 d4bc
00000090: 4e8a 6a3d e3da 6ebd 48e0 943e 632e 23be
000000a0: 299d 83be 7ef6 b9bc e026 723e c2fc 923e
000000b0: 95f8 1abe d984 59be fa1c 3cbe 0618 7e3e
000000c0: 988b 75be ddd7 12bd c5f8 ebbd 2c75 9ebe
000000d0: 077c 383e 8053 4dbe 1782 7d3e a308 9c3e
000000e0: a2cc 2d3c 82ff 853e 29c1 75be 3969 a23e
000000f0: 269e 5c3e d55e 473e 8b73 563e bec1 88be
-0.14872648 -0.12528701 0.35091543 -0.18923098 0.281785 0.28021553 -0.16447712 0.23337159
0.15468733 0.26801744 -0.015962705 0.17190535 0.1740949 0.29691014 0.25425214 0.06722649
-0.101168655 -0.18384314 0.22314925 0.2532142 0.02127032 0.19892247 0.32092854 -0.094794475
0.20135288 0.328992 -0.18388218 0.32173136 0.3157977 0.10560836 -0.0763572 -0.33150637
0.115477264 -0.2001178 -0.36125365 -0.02594125 0.057260804 -0.058314215 0.29077363 -0.15935664
-0.2570584 -0.022700544 0.23647642 0.28708464 -0.15133889 -0.21242084 -0.18370429 0.24813852
-0.23979032 -0.035850395 -0.115220584 -0.3094877 0.18016063 -0.20051384 0.24756657 0.3047534
0.01060787 0.261715 -0.23999466 0.31720904 0.21544704 0.1946977 0.20942514 -0.26710314

post_mp.0.bias f4 [8]
00000000: 624e bd3d 3d1b 95be a77b 883e d452 923e
00000010: 261b 63be a5f2 e3bc ffa6 313e 5673 963e
0.09243466 -0.29122344 0.2665684 0.28578818 -0.22178325 -0.027825663 0.1734886 0.2938487

post_mp.2.weight f4 [2, 8]
00000000: b02d 7abd ab80 a73e 9946 7b3e ad11 953e
00000010: 09fa 7e3e 12b5 f53d b9e9 c03d 4e4f 17be
00000020: 7a98 273d 16df 58be 880d b53d 5218 903e
00000030: d0f8 9ebe 612f 97be 1629 9f3d 3aad b7bd
-0.061078727 0.32715353 0.2453865 0.29115048 0.24900068 0.11997427 0.09419579 -0.14776346
0.040916897 -0.2117885 0.088404715 0.28143555 -0.31049204 -0.29528335 0.077715084 -0.08968587

post_mp.2.bias f4 [2]
00000000: a387 c83d 3fbb 0bbe
0.09791496 -0.13645647
