GNN/model_avg_weights.pth (torch, 12990 bytes, 16 tensors)

convs.0.weight f4 [32, 32]
00000000: acba 92be b86b 473e ca75 6abe 663d 823e
00000010: 7480 37bd 79a1 493e 0258 353d 4746 59bd
00000020: abe5 27be 2d5c e13d 8b02 55be 1591 833e
00000030: 9be7 fa3c 3c3a 92be c10a d0bd 0eb3 a0be
00000040: e477 203e 95f5 0fbe 9c38 48be 2cc4 80be
00000050: c2aa c63a 1597 58be 9d61 763d fe47 0c3a
00000060: 180a 68bc be3f 1fbe 1cc2 10bd 999b 82be
00000070: 8a04 6dbe 0a0d 653e 99de 5f3d 7498 81be
00000080: 39bf 22be 3da1 9f3d be23 eb3d 1d9d 8abd
00000090: a210 5c38 a83f 81be ae2d 4dbe 32a6 113e
000000a0: 1f0a 433e 3921 f33d f300 8e3e dd34 dc3d
000000b0: 54ab 0fbd c24d 94be 5239 f73d ab4f 123e
000000c0: f798 9e3d 8384 7e3e 4320 243e 753e 4e3e
000000d0: abc7 e6bd f0a3 5ebe 0346 3fbd 1f29 2fbe
000000e0: 12e8 813e 4fcf 38be 0492 48be 81a8 663e
000000f0: e595 81be 54d6 e6bd d6e2 8cbe 1205 113e
00000100: 5d61 babd 57e9 b63e 1779 2d3d 34f2 c1bc
00000110: ecd9 b83e e040 b9bd 001e 7d3e b81a bcbc
00000120: 97f8 32be 30cc 343d fe6c 2b3e b2da f33d
00000130: 16e9 f2bd fa7a 4abe 2ad7 8dbd 9e31 6dbe
00000140: 2c9a 60be 259c 8abe 54da 9bbe 31f9 c03d
00000150: 23d5 f5bc 5fd1 6b3e 687c 673e d5da 8c3e
00000160: f15e a2be 867b e0bd 748f 84be 94ee 983e
00000170: 2b3c 773e 7a13 633e fc4b 59be 2778 29bd
00000180: 90d6 89be 1560 2e3d 2759 013e 9b72 7d3d
00000190: 2292 893e 45de 70be 82ab 92bd 5efa d53d
000001a0: 31a7 a7be 86bb b0bc 42e1 a13c 19ba 31be
000001b0: ec0f 85be bd47 08bd 873a 6c3e 1afd 91bd
000001c0: 8cc2 79bd 8731 343e 8738 0cbe b72d 81be
000001d0: 1123 8ebe 78d7 c73c 690a 6d3d f03e 69be
000001e0: 7be9 933d 2eca 1ebd a142 5dbe 5d05 e43c
000001f0: 2287 62be fc56 693e 5b1f 08bd b9ad 11bd
00000200: 6c63 0e3d 38e1 693e 505b 6b3d ad61 743e
00000210: 76d7 04bc a20f a2be 3e16 88bd 2e3b 6d3e
00000220: 01c2 2dbe be0a 923d 2e59 adbe 478a c03c
00000230: bd24 513e 7f51 33be 3a04 243c 6ea1 98be
00000240: be92 913e 79ac c43d fb0f 0fbe c6af 38be
00000250: 72c7 b13c 9be0 563e f624 233c 4bae 59be
00000260: 4325 60be 3de3 763e 4f81 c93d 67cf 15be
00000270: 33ef ebbd fef6 5d3e 2cac 703e 8792 3c3e
00000280: a110 77bd 7f59 2dbb dfba 4a3e 1b5c a1bd
00000290: 9b63 8dbe 59c9 84bd e16f e53d 2207 c9bd
000002a0: ec3a f33d 3000 77be e3a1 913c 8ddf 8c3e
000002b0: ef13 c23d e028 303e 869a 563e 6414 a93d
000002c0: b116 c3bd 4a63 17bb 0cf9 6e3e 9d0e e93c
000002d0: d9bd 2fbe 3654 5bbd 3b99 40be 5ebc 84be
000002e0: 5b63 9ebe a21e 35be 3f0a 103e 7d73 8d3d
000002f0: 044b 733e ef25 76be cfc1 8cbd 2817 e43d
00000300: fa5f a6bc 8608 76be 5d9b ac3d ea79 67be
00000310: ebf6 5cbe 9145 aebc da3b a83d 430e e0bc
00000320: 7b03 423e 2df9 163e fbe6 cabd 6ff0 5c3e
00000330: 4532 18be 877b 7dbe dfed 2cbe 7ef0 153e
00000340: e87e 3f3e 1e43 02be efc3 143d fb0c dfbd
00000350: baa7 4bbe bb62 3e3e 688d 773b d0e7 b13c
00000360: fd0d 32be aa2c 9bbe a431 593e 14cd 43be
00000370: 096b 61bd b239 0d3d bf9a 0e3e 1737 d03d
00000380: e783 e1bd 2341 b4bd e085 093e f473 3e3d
00000390: dca2 163d b334 b1bd e72b fc3c 696e a2be
000003a0: d9ed 29be 5def 11be d55b 5cbe 9639 43be
000003b0: fc93 853c aa2a 073e 1882 0b3e e4bb d63d
000003c0: 74bf 06be fd39 21bd 4ef1 9cbe 0bc3 373e
000003d0: 47da d4bd b71d 87be 1716 9fbe 7629 85be
000003e0: 6dc9 3cbe 4d7d afbd 19b7 56be cd4c 883d
000003f0: a948 a93d 5a52 1fbe e1c5 df3d 82df 4cbe
-0.28658044 0.19474685 -0.22896495 0.25437468 -0.044800237 0.19690503 0.044273384 -0.053045537
-0.16396205 0.11003909 -0.20801751 0.25696626 0.030628016 -0.28560054 -0.10158301 -0.31386608
0.15670735 -0.14058526 -0.19552845 -0.25149667 0.0015157091 -0.21151383 0.060151685 0.0005351304
-0.014162563 -0.1555166 -0.035341367 -0.25509337 -0.23146263 0.22368255 0.054655645 -0.25311625
-0.15893258 0.07794426 0.11481427 -0.06768248 5.2467578e-05 -0.25243878 -0.20036957 0.14223555
0.1904683 0.11871571 0.277351 0.1075227 -0.0350755 -0.28965575 0.1207148 0.14288203
0.077440195 0.24855237 0.16027932 0.20141013 -0.112685524 -0.21742225 -0.046697628 -0.1710553
0.25372368 -0.18047832 -0.1958695 0.22525217 -0.25309673 -0.112713486 -0.27516812 0.1416209
-0.09100602 0.357249 0.04235181 -0.023675062 0.3610376 -0.09045577 0.24718475 -0.02296196
-0.17477642 0.04414004 0.16740796 0.11906947 -0.11860864 -0.19773474 -0.06925805 -0.23163459
-0.21933812 -0.27072254 -0.3044001 0.094225295 -0.030008858 0.23029087 0.22606051 0.27510706
-0.3171306 -0.1096106 -0.25890696 0.2986952 0.24144046 0.22175398 -0.21220392 -0.04137435
-0.2692151 0.0425721 0.12631665 0.061876874 0.26869303 -0.23522289 -0.07161619 0.104481444
-0.32744744 -0.021573793 0.019760732 -0.17356147 -0.2598871 -0.03327154 0.23069201 -0.071283534
-0.06097655 0.17597018 -0.13693438 -0.2523019 -0.2776113 0.024394736 0.057871256 -0.22777915
0.07222267 -0.038767032 -0.21607448 0.027834589 -0.22121862 0.22787088 -0.033233028 -0.035566065
0.034762785 0.2283982 0.05746013 0.23865385 -0.0081080105 -0.31652552 -0.06644867 0.23167107
-0.16968538 0.07130955 -0.338571 0.023503436 0.20424171 -0.17511557 0.010010773 -0.2981066
0.28432268 0.09603209 -0.1397094 -0.18035802 0.021701548 0.20984118 0.009957543 -0.21257894
-0.21889214 0.24110122 0.09839117 -0.14629899 -0.11520233 0.21676251 0.23503178 0.18415271
-0.060318593 -0.002645105 0.19797848 -0.07878896 -0.27615055 -0.064837165 0.1120298 -0.098158136
0.11876473 -0.24121165 0.017777389 0.27514306 0.09476458 0.17203093 0.20957384 0.08255842
-0.095258124 -0.0023099952 0.23337191 0.028449351 -0.17162265 -0.053547107 -0.18808453 -0.25924963
-0.30935177 -0.17687467 0.14066409 0.06906793 0.23759085 -0.24037908 -0.068729036 0.11137229
-0.020309437 -0.24026689 0.08428071 -0.226051 -0.21578567 -0.021273406 0.08214541 -0.02735055
0.1894664 0.1474349 -0.09907337 0.21576093 -0.14862926 -0.24754153 -0.16887616 0.14642522
0.18700755 -0.12720916 0.03631967 -0.10891148 -0.19888201 0.1859235 0.0037773494 0.021716982
-0.17388149 -0.30307513 0.21210343 -0.191212 -0.055033717 0.03447885 0.13926218 0.101667576
-0.110114865 -0.08801486 0.13429976 0.0464973 0.03677641 -0.0865263 0.030782653 -0.3172486
-0.16594638 -0.14251466 -0.21519406 -0.19064936 0.016305916 0.13199869 0.13623846 0.10485056
-0.13158971 -0.039361943 -0.3065285 0.17945497 -0.103931956 -0.26389858 -0.3107154 -0.26008195
-0.18436213 -0.08568821 -0.20968284 0.066552736 0.08265812 -0.15558758 0.10926414 -0.20007136

convs.0.bias f4 [32]
00000000: 7df2 2f3c 6f6f 35bc 8c23 8abc 8469 2cbd
00000010: c48b b73c e1c5 81bc 0a32 cdbc 955b fc39
00000020: 86c1 d93b 3409 36bc ae00 303d 99d7 d938
00000030: 8f7b b73b 4e1d 36bd b71e eb3c d856 06bd
00000040: b014 453c c01a 57bc ea6c 5cbb c8d6 d1ba
00000050: 0000 0000 bcfe 03bd 3e8e 41bd a387 593c
00000060: 0652 c3bc def4 d8bc ba85 6e3d db41 30bd
00000070: 6e6c 0d3d f39b 83bd 47f0 803b dd58 04bc
0.010738966 -0.011073931 -0.016862653 -0.042092815 0.022405513 -0.015841426 -0.025048275 0.0004813342
0.0066453842 -0.011110593 0.0429694 0.000103875245 0.005599446 -0.04446154 0.02870117 -0.032797664
0.012028858 -0.013128936 -0.0033634254 -0.0016009444 0.0 -0.032225356 -0.047254793 0.013276967
-0.023842823 -0.02648395 0.058233 -0.043031555 0.034527235 -0.06426229 0.0039348933 -0.008077827

convs.1.weight f4 [32, 16]
00000000: 21c7 5cbe 5daa 69be d34f 3abe cec5 10be
00000010: 8317 80be d059 7ebd 2507 ccbe 1cdf f0bd
00000020: e07d acbe e6f2 723e 41d3 353e c0d8 9abd
00000030: f480 8cbe 7e2d 77bd 5d34 8a3d c436 51be
00000040: 1466 703d 08cb b0be 9795 82be b5a4 e13d
00000050: 8da8 7cbe de26 72be 6ee0 a5bd 52fc c8bd
00000060: 9d37 233b f8c8 453d b87d 833e fdbf 5ebe
00000070: a478 863e 3c83 a9be 32bb 9d3e 5885 73be
00000080: ad17 4c3d ef93 b53d 93ee 2a3e cff0 64bd
00000090: b3cd 233e 3403 b33d 0ba7 683d 5895 cebd
000000a0: 1573 a5bd 643c 47be d2fd 663e 8558 6fbe
000000b0: ed75 933d fef7 95be 5b5f d9bc d970 7dbe
000000c0: 3045 e9bd d65c bcbe c6b3 35bd 0ae7 6ebe
000000d0: 4436 b63d 00cb 55bd a6f7 82be 2c30 8a3e
000000e0: dbbe 593d 26d9 4fbe 600c 6abe a74f 8ebe
000000f0: 095b 3c3d 9399 553d b594 043e 4bf1 aabe
00000100: 6f3e 8dbe 0abf f5bd 6190 24be 616c 613e
00000110: 60d8 4bbe 5032 963c 5df4 d8be c43c 103d
00000120: bd19 86bb ae4e 013e 143c 59be f051 5f3e
00000130: 9a0d be3e 0779 ec3d 6735 063e dba4 04be
00000140: 1ba3 a73a 72b3 3d3e 6585 12bd c75c aa3d
00000150: dff2 b43e 51eb c23d 0b54 8b3e a1a3 93bd
00000160: 5161 103e 4101 693e ce40 583d 14db 1abe
00000170: e704 74be c55e 6cbe 7976 fb3d 6589 3e3e
00000180: 3b3b e3bd 5844 9c3e 9aec ebbd 72bc 873e
00000190: 9808 1b3e c7a8 40be 1952 5a3e f25a 253e
000001a0: 5d96 033e 5b3f 25be 0448 4d3e 7611 44be
000001b0: c416 efbd f78e 873e bdb8 d03c 0ae3 16be
000001c0: aba5 3fbe c14a 0dbd 5294 b33e 1fa4 85be
000001d0: f9f3 a63d 4a11 483d 6c1d ba3d 3ce7 6aba
000001e0: 417b c03d 4204 d43d 2c6d aebc cd0d 09be
000001f0: eabb 13be 8b7e be3d 04dd 1bbe b2be 8d3e
00000200: eb78 42be 312d 1dbe f4c7 90be e1b4 7ebe
00000210: d836 a33e 789c 65be 1db3 8d3e 9193 983e
00000220: a2fb 96be b23d 163e 92ad a2bd d260 f83d
00000230: f3f6 5bbe 7b07 af3e 15a8 493e 6621 7cbe
00000240: 919f 923d ccaf 85be 040e 223e defe bf3e
00000250: 4628 a63e c8ce 6f3d 7e2d b4be 0f27 8dbe
00000260: a721 903d bbf9 8cbd 0df1 a0be b3a6 583e
00000270: bfa7 ff3d 3d05 a33d 25f1 dbbd 4217 073e
00000280: a041 b1bd cdf5 843e 6d85 9abe 5172 48be
00000290: 1ce5 f03c c666 aebd 9c34 8dbe f3c1 c03e
000002a0: 6e39 36bd acf8 533e dc74 ed3d ab87 4cbe
000002b0: a4c1 193c 1cc7 3f3e fe01 91bc 6eea 23be
000002c0: f2e0 b33d 7a6e 153e cee7 63bd db21 82be
000002d0: e166 113a c06f a6bd 4863 9e3e e834 383e
000002e0: f426 923e bcc5 9fbe fb9a 933e 3bd8 63be
000002f0: 3a5b 643e 0f47 8ebe 23dd 613d 24df 0dbe
00000300: 9ec9 93be 3947 50be 508a 8fbe d148 3abe
00000310: 757f 9d3d 9974 82bd 2093 163e e293 8d3d
00000320: b027 a8bd 959d a3be d182 81be 2f0f 3a3d
00000330: 2479 58be b9df f3bc 6a83 88be d6d8 d7bc
00000340: 829d 533e 9b08 9b3d 7f15 213d 33f7 afbc
00000350: 675a 103e 396e 94bc 1d47 393e 29a6 4d3e
00000360: 5d9a a93d 4570 90be 0803 ecbd d8f3 02bd
00000370: 1353 18be 5457 df3c 8bd6 113c 87cc 743e
00000380: a312 4dbe eb56 693e 1e23 af3e b773 a9bd
00000390: 821e 5f3e 31a1 183c 04aa bc3e cca1 cbbb
000003a0: 4e8f 4ebe f998 373d b1d5 bdbd 7436 b1be
000003b0: 1f2d 13bd c510 9ebd b5e3 22be 5bf1 3d3e
000003c0: 0931 a33e e2a0 663e 69e4 a2be 3696 45ba
000003d0: 0329 993d 7033 89be 92a3 6ebe c02f 8dbe
000003e0: 2546 383e 3be7 50be 5173 7d3e d553 933d
000003f0: 44eb 7b3e 9a79 30bd e518 27be c758 8bbe
-0.21560337 -0.22818895 -0.18194513 -0.14137957 -0.25017938 -0.06209737 -0.398492 -0.11761305
-0.33689785 0.23725471 0.17756368 -0.07560873 -0.27442133 -0.06034612 0.06748269 -0.20431048
0.0586911 -0.345299 -0.25504753 0.110177435 -0.24673672 -0.23647639 -0.08099447 -0.09813751
0.0024904974 0.04828736 0.25681853 -0.21752925 0.26263916 -0.33107936 0.3080688 -0.23781335
0.049827266 0.08866107 0.16692571 -0.055893715 0.15996437 0.08740845 0.05679993 -0.10087079
-0.08078591 -0.19456631 0.22557762 -0.23373611 0.07200227 -0.29290766 -0.026534727 -0.24750079
-0.113901496 -0.36789578 -0.0443609 -0.23330322 0.08897069 -0.05219555 -0.25579566 0.26989877
0.05316053 -0.2029768 -0.22856283 -0.27795145 0.045985255 0.052148413 0.12947352 -0.33387217
-0.27586696 -0.119993284 -0.16070701 0.22014 -0.1990676 0.018334538 -0.42373934 0.0352142
-0.0040924237 0.1262767 -0.21214324 0.218086 0.37119752 0.11546522 0.13106309 -0.12953512
0.0012789698 0.18525484 -0.035771746 0.08318477 0.35341546 0.09517539 0.27212557 -0.07208944
0.14099623 0.22754385 0.052796178 -0.15122634 -0.23829995 -0.23083027 0.12278456 0.186071
-0.11095282 0.30520892 -0.115197375 0.2651096 0.15139997 -0.18814383 0.2132038 0.16147974
0.12850328 -0.1613745 0.20047003 -0.19147286 -0.11674264 0.2647626 0.025478715 -0.14735046
-0.18715541 -0.03449512 0.35074097 -0.26101777 0.08152003 0.048844613 0.09087643 -0.0008960848
0.09398509 0.103523746 -0.021292292 -0.13384171 -0.14427152 0.0930148 -0.1522103 0.2768455
-0.18991439 -0.1534927 -0.28277552 -0.24873687 0.3187778 -0.2242297 0.27675715 0.29800084
-0.29488856 0.14671972 -0.07943262 0.12127842 -0.21480922 0.34185395 0.19693024 -0.24622115
0.07159341 -0.26110685 0.15825659 0.37499136 0.324526 0.05854681 -0.35190958 -0.27568862
0.07037669 -0.0688357 -0.31433907 0.2115734 0.12483167 0.079599835 -0.10739354 0.13192466
-0.08655095 0.2596878 -0.3017992 -0.19574858 0.029406123 -0.08515696 -0.275792 0.37647972
-0.044488363 0.2070033 0.11594555 -0.19973628 0.009384546 0.18728298 -0.017701145 -0.16007397
0.08783139 0.14592925 -0.055640988 -0.25416455 0.0005546641 -0.08126783 0.3093512 0.17988932
0.28545344 -0.31205547 0.28829178 -0.22250454 0.22300425 -0.27788588 0.055142533 -0.13854653
-0.2886476 -0.2033967 -0.28035212 -0.1819184 0.07690326 -0.063698955 0.14704561 0.06912972
-0.08210695 -0.31956163 -0.25295117 0.045424636 -0.21139961 -0.029769765 -0.2666276 -0.026348513
0.20665553 0.07570001 0.03932714 -0.021480178 0.14096986 -0.018118965 0.18093534 0.20082916
0.082813956 -0.28210655 -0.11524016 -0.03197083 -0.1487544 0.027263321 0.008901249 0.23906146
-0.2002664 0.22787063 0.3420648 -0.08274024 0.21788982 0.009315775 0.36848462 -0.006214356
-0.20171854 0.04482362 -0.09269274 -0.34611857 -0.035931703 -0.07718042 -0.15907176 0.18549101
0.31873348 0.2252231 -0.31814888 -0.0007537337 0.074785255 -0.26797056 -0.23304585 -0.27575493
0.17995508 -0.20400707 0.24751021 0.07193724 0.24601465 -0.04308472 -0.1631809 -0.2721617

convs.1.bias f4 [16]
00000000: b324 c63b b30a 4f3d 2db5 a4bc ab19 cfbc
00000010: 2081 21bd b086 76bc 7721 413d 01dd 5f3d
00000020: a163 4e3c ba07 d43c e218 dbbc 61ee 1dbb
00000030: 9e9a d8bb 11c3 1bbd 3f18 9dbc b061 40bb
0.0060468554 0.050547313 -0.020105923 -0.025280794 -0.039429784 -0.01504676 0.047151055 0.054654125
0.012596996 0.02588259 -0.026745263 -0.0024098384 -0.0066102287 -0.038027827 -0.0191766 -0.0029355101

convs.2.weight f4 [16, 8]
00000000: 28ca d7be 04ca b83e e308 78be b82f f13d
00000010: 1815 8bbe 406d aabe e510 b13e 376a d43e
00000020: ee77 a4be 5da7 0ebf a045 51be 5329 7e3e
00000030: 6a9f 173e 152b de3e bd11 9b3e d729 c8bd
00000040: b42d 743e be59 7dbe 848e c33e 4500 bdbd
00000050: f78c 79be 014e 3a3c df16 f33d 5d1f de3e
00000060: 6613 bb3d a6a6 0b3f 5843 d63c 4323 d03e
00000070: 2331 033f c378 d03d c9f2 adbd f66e 573d
00000080: f435 bebc 2f17 8b3d 3ecb f7be 5e8e 9ebe
00000090: ef4e 363e e34b fbbd 28ef 6fbd 1d9a 663d
000000a0: 7d84 233e f1bb 71be a54a 393e 438d b9bd
000000b0: c1dc 933e e5d9 e3be 21ab 07be 7c60 49bd
000000c0: 3835 e2bd 82dd 283d 4c77 3ebe 8a05 84bb
000000d0: b303 c4be b730 5f3e 24d4 bc3e fc12 ed3e
000000e0: 3dd8 913d 981a 6dbe da15 9ebe 5551 81bb
000000f0: 399b eebe 0396 123e c3f9 f53e aedf d93e
00000100: 72c7 933e bf42 373e 389a d43e 06da 5cbe
00000110: ac91 003f 4216 6a3d 8767 d63e b2ad 4ebe
00000120: 58f5 65be e19c 0e3e 85c8 8b3e 3e21 2dbb
00000130: 7cef 93bc 1e09 9e3d 26db 0a3e b5df 59be
00000140: 4ddd a3bd f34a 3d3e 9a3c 22be bcfe 31be
00000150: 2c19 b6be 08f3 7d3e 879e a2be ae83 9fbd
00000160: f781 35be 9aa5 d43e 6e50 ae3e 4e01 e73e
00000170: 6ba5 8e3d a829 e93c f025 e0be c8aa 07be
00000180: c959 c83d dc99 b1be 93b9 d73e 69e6 f13e
00000190: 4fdb a1be 28fc ea3d bb46 593e d87d af3d
000001a0: 8aee c73e 46bb 243e 7282 bebe 855f 4dbe
000001b0: 8a58 f3be 2fc0 c5be 39b7 24bd f9ad 73be
000001c0: d70b 71be ac9a dfbd e160 003f b6b5 983e
000001d0: 62b7 b5be e064 863e 45d3 313e c777 393d
000001e0: 1472 a83e 0594 01bf 5759 513d 5a72 f33d
000001f0: 27c0 f13d 2cdc 703e ca1e 3fbd 4798 2f3e
-0.4214642 0.36091626 -0.2422214 0.1177668 -0.2716453 -0.33286476 0.34583202 0.41487285
-0.3212275 -0.55724126 -0.20436716 0.24820451 0.14806905 0.43392244 0.3028697 -0.09773605
0.2384556 -0.24741265 0.38194668 -0.09228567 -0.2437018 0.011371137 0.11869597 0.43383303
0.09134559 0.5455116 0.026155159 0.40651903 0.5124685 0.101792835 -0.08493573 0.052596055
-0.023219086 0.06791531 -0.4839725 -0.30967993 0.17803548 -0.122703336 -0.058577687 0.056299318
0.15968509 -0.2360685 0.18094881 -0.09060147 0.2887936 -0.44502178 -0.13248874 -0.04916428
-0.11045307 0.04122687 -0.18600196 -0.0040289806 -0.38284072 0.21795927 0.368806 0.46303546
0.07121322 -0.23154676 -0.30876046 -0.003946463 -0.466028 0.14315037 0.48042116 0.42553467
0.28863102 0.17896555 0.4152391 -0.21567544 0.5022228 0.057150133 0.4187586 -0.20183447
-0.22456872 0.13927032 0.27301422 -0.002641752 -0.018058531 0.07716583 0.13560161 -0.21276744
-0.08001194 0.18485622 -0.1584343 -0.1738233 -0.3556608 0.2479974 -0.31761572 -0.07788788
-0.17725359 0.41532594 0.34045738 0.45118183 0.06965145 0.028462246 -0.43778944 -0.13248742
0.0978275 -0.34687698 0.4213377 0.47246101 -0.31612632 0.11473876 0.21218388 0.08568925
0.39049178 0.16087064 -0.37208897 -0.20055969 -0.47528487 -0.38623187 -0.040213797 -0.23796834
-0.23539673 -0.10918173 0.50147825 0.29826134 -0.35491472 0.26248837 0.17365749 0.045280244
0.32899535 -0.50616485 0.05111059 0.11887045 0.11804228 0.23521489 -0.046660222 0.17147933

convs.2.bias f4 [8]
00000000: baad 10bd 47df 5f3c a6e9 cd3c aef6 903c
00000010: a934 d23c de97 c7bb af5f 9a3b 0957 713c
-0.03532193 0.013664073 0.025135826 0.017695751 0.025659876 -0.006091102 0.0047111134 0.014730223

lns.0.weight f4 [32]
00000000: 688f 833f 20e9 813f 6078 7b3f 4ed3 793f
00000010: e23b 8a3f 55e5 753f e9ea 733f 10f7 823f
00000020: 2b74 853f ee93 8a3f bcea 7f3f d2a8 843f
00000030: 903b 7c3f 4d8f 733f c76a 843f 87ae 793f
00000040: b84f 753f c39f 7b3f e6de 843f 4a16 873f
00000050: 320f 753f 273e 823f ce07 753f ea2d 7d3f
00000060: 3ca2 7a3f 25ac 843f ff79 863f d185 6f3f
00000070: c6ce 823f 85f2 7c3f 9595 7f3f 765d 7a3f
1.0278139 1.0149269 0.9823055 0.9758805 1.0799525 0.9605306 0.9528032 1.0231647
1.0426077 1.0826395 0.9996755 1.036402 0.98528385 0.95140535 1.0345086 0.9753193
0.95824766 0.9829065 1.0380523 1.0553677 0.9572631 1.0175217 0.95715034 0.98898184
0.979038 1.0365034 1.050598 0.9356356 1.0219352 0.98807555 0.9983762 0.9779886

lns.0.bias f4 [32]
00000000: afe8 99bc f09b 4fbc fbf5 273b b0b2 a9bc
00000010: 3553 fbbc ef04 1d3d 70a4 673b 024c 1c3c
00000020: 06aa d7bb 73c5 58bd a1b7 173d 0446 3a3d
00000030: 3252 d43c 8604 2f3d 2d8e 053d 11eb 883b
00000040: 184d 283d 3565 17bd 3947 efbc 65f8 e93b
00000050: e78c 2d3d d2f0 4ebd 4674 46bd c02b 9d3c
00000060: 8280 aa3c c175 32bd d0e0 433d 174f 99bc
00000070: 9682 a2bb 981c 0ebc ae98 f13c 38eb 053c
-0.01878771 -0.012671456 0.0025628794 -0.020715088 -0.030679325 0.038334783 0.0035345815 0.009539606
-0.0065815477 -0.052922677 0.037040357 0.04547693 0.0259181 0.042728923 0.032606293 0.0041784127
0.041089147 -0.036961753 -0.029208766 0.0071402066 0.042370703 -0.050522633 -0.04845073 0.0191859
0.02081323 -0.04356933 0.04782182 -0.01871447 -0.0049594147 -0.0086738095 0.029491749 0.008173756

lns.1.weight f4 [16]
00000000: 97cf 763f 0c8a 833f bd29 703f d8a7 883f
00000010: 216a 803f c32e 7d3f d4c0 833f 2037 913f
00000020: edd2 803f 1c1a 7d3f 9a13 7b3f bb50 793f
00000030: 81d6 823f 7648 783f fc62 803f 6f7c 823f
0.96410507 1.0276504 0.9381369 1.0676222 1.0032388 0.9889948 1.0293221 1.1344948
1.006437 0.98867965 0.98076785 0.9738881 1.0221711 0.96985567 1.0030208 1.0194224

lns.1.bias f4 [16]
00000000: 37f3 f43c 8e65 8239 d81d 2cba c190 3c3c
00000010: 6136 8bbc 237f 4ebb 6740 a2ba 7c1b f0bc
00000020: d518 c83b ba7c 023d 6d90 7bbc 0259 1c3d
00000030: b394 853b a2b1 e9bc 57e5 a33c 74bb b5bc
0.02990113 0.00024871196 -0.00065657264 0.011509121 -0.016993703 -0.0031508885 -0.0012378813 -0.02930998
0.006106476 0.03185723 -0.015354258 0.038170822 0.004076564 -0.028527085 0.020006819 -0.022184111

lns.2.weight f4 [8]
00000000: 0000 803f 0000 803f 0000 803f 0000 803f
00000010: 0000 803f 0000 803f 0000 803f 0000 803f
1.0 1.0 1.0 1.0 1.0 1.0 1.0 1.0

lns.2.bias f4 [8]
00000000: 0000 0000 0000 0000 0000 0000 0000 0000
00000010: 0000 0000 0000 0000 0000 0000 0000 0000
0.0 0.0 0.0 0.0 0.0 0.0 0.0 0.0

post_mp.0.weight f4 [8, 8]
00000000: d3dc 453e d273 5ebe 9815 c93c f426 5cba
00000010: d87d b5bd 9c81 e13c 7397 97bc 58ed d83c
00000020: 673c aa3b 5b66 913c 51e9 ba3d beb6 553d
00000030: a7cb 6a3e b5e9 d2bd 2ec2 41be 1fda e7bc
00000040: 1e22 a8be 5e61 bcbc c763 5d3e c6b8 103e
00000050: cda0 4c3d 30da 7c3d c426 ed3d bd92 8b3e
00000060: 894c 0d3e f01f ac3d 2f2c 723d 54ad 023e
00000070: e069 95bd bdf9 03be 94fb 26bd 38d2 36be
00000080: f1ef c43d a75c 1f3e a629 9d3e 2b05 093e
00000090: eb9d 3c3e 84e7 393e 2aab fe3d 4fb4 7dbe
000000a0: 87ad 43bd 39c7 ab3e 1a46 7b3e 00aa 893c
000000b0: c11e 013e 2d35 4fbe 9572 a6be 9afc f0bd
000000c0: 9e22 22be 1d88 83be 8630 a7be 2f12 c5bd
000000d0: e93a 883e ee6c 463d 5099 a43e ed73 1dbe
000000e0: 0532 8a3e f06b d33b a741 4bbc 4091 b0be
000000f0: c731 3dbe 15f4 293e 40c7 2cbe d2a0 143e
0.19322519 -0.2172387 0.02454643 -0.00083981385 -0.088618934 0.027527623 -0.018504834 0.026480362
0.005195189 0.017749002 0.09126533 0.05217623 0.2292925 -0.10298482 -0.1892173 -0.02830225
-0.3283853 -0.022995647 0.21620093 0.14132985 0.04995804 0.061731517 0.115796596 0.2726039
0.13798727 0.08404529 0.059124168 0.12761432 -0.07295585 -0.12888236 -0.040767267 -0.1785363
0.09616078 0.15562688 0.30695838 0.13380878 0.18419616 0.18154722 0.12434991 -0.24775814
-0.04777291 0.33550432 0.2453846 0.016804695 0.12609388 -0.20235129 -0.32509294 -0.1176693
-0.15833518 -0.25689784 -0.32654208 -0.09622609 0.26607445 0.048443727 0.32148218 -0.15376253
0.26991287 0.006452076 -0.012405789 -0.34485817 -0.1847602 0.16597016 -0.16872883 0.14514473

post_mp.0.bias f4 [8]
00000000: 7638 6a3e 7c57 7cbc 4fe8 9dbe 502f 0e3e
00000010: af28 cabd 7452 a83e 2c26 2fbe a204 5a3e
0.228731 -0.015401717 -0.308413 0.13885236 -0.09871041 0.32875407 -0.17104405 0.2129083

post_mp.2.weight f4 [2, 8]
00000000: 6907 6ebe f179 b63e 5254 483e 8cd7 793d
00000010: 770a aabd 8b20 9a3d e2c2 46bc eadc 91be
00000020: 416d 9cbd 8a53 213d e79c c83d 82f6 67be
00000030: 3b2f 80be 572f c4bd 5f91 fa3d 47ca 17be
-0.23245014 0.3563991 0.19563416 0.060996577 -0.08302777 0.07525738 -0.012131425 -0.28488857
-0.07638026 0.03938631 0.09795552 -0.22652629 -0.25036034 -0.09579342 0.122347586 -0.14823256

post_mp.2.bias f4 [2]
00000000: ef4d e63d c145 743e
0.112453334 0.23854734
