GNN/model_max_weights.pth (torch, 12991 bytes, 16 tensors)

convs.0.weight f4 [32, 32]
0	0x3b15f454	0.0022881227
1	0x3e94ff82	0.29101187
2	0x3da028ba	0.07820268
3	0xbdf8293e	-0.12117241
4	0xbe305136	-0.1721848
5	0x3e603590	0.21895432
6	0xbe369090	-0.17828584
7	0xbea2a1d2	-0.31764084
8	0xbd8e3d80	-0.06945324
9	0xbe7fd6b8	-0.24984252
10	0x3e035d80	0.12828636
11	0x3e06d7ee	0.13168308
12	0x3e8b9560	0.27262402
13	0x3d3af591	0.045644347
14	0xbe0f4042	-0.13989356
15	0x3c548c6e	0.012972934
16	0x3e4eff69	0.20214619
17	0x3e2b19dd	0.16709085
18	0x3e8d980f	0.27655074
19	0xbe2503cb	-0.16114728
20	0x3e871ded	0.2639002
21	0xbe0440d7	-0.1291536
22	0x3e5ef40d	0.21772785
23	0xbe843e07	-0.25828573
24	0xbdb2f08c	-0.08737287
25	0xbc609a5b	-0.013708676
26	0xbdc21987	-0.09477525
27	0x3e81ba9e	0.2533769
28	0x3e3c3d84	0.18382841
29	0xbe855086	-0.26037997
30	0xbcc551ba	-0.024086822
31	0xbcb11647	-0.021617068
32	0x3d04f3e0	0.03245914
33	0x3e00f161	0.12592079
34	0x3de84f2a	0.11343224
35	0xbe95f87c	-0.2929114
36	0x3e2cf917	0.16891895
37	0x3e8b8ad8	0.27254367
38	0xbdc3e513	-0.09565177
39	0x3e7ef9fd	0.2490005
40	0xbdfc2627	-0.123119645
41	0x3e1b856f	0.1518762
42	0x3e805e11	0.25071767
43	0xbe94602a	-0.28979617
44	0xbcbdfb4f	-0.023191122
45	0xbe81d97d	-0.25361243
46	0x3e1a0b0f	0.15043281
47	0x3df2e778	0.118605554
48	0x3e346a38	0.17618644
49	0xbe746250	-0.23865628
50	0xbe7bc81c	-0.24588054
51	0x3d21f808	0.03954318
52	0x3ea09442	0.31363112
53	0x3cf3fd16	0.029783767
54	0xbe39e243	-0.18152718
55	0xbe815f7a	-0.25268155
56	0x3e819ec7	0.2531645
57	0xbd1156e8	-0.03548327
58	0xbe6aa0ff	-0.22912978
59	0x3ba56086	0.005046907
60	0x3e5e9b3f	0.21738909
61	0x3cc2981d	0.023754174
62	0xbd88f6f2	-0.06687726
63	0xbe7e52ed	-0.24836321
64	0xbe8e5b8d	-0.27804223
65	0xbe5b5a83	-0.21421246
66	0xbda4a521	-0.08039308
67	0x3d898a66	0.067158505
68	0x3e1feadc	0.15616935
69	0xbdf321e5	-0.11871699
70	0x3c5aa4a4	0.013344917
71	0x3e1e9526	0.15486583
72	0x3db84ff2	0.08999623
73	0x3e0a2cf5	0.13493712
74	0x3e8c37d7	0.27386352
75	0x3e7004b7	0.23439299
76	0x3dcb7cc7	0.09935909
77	0x3c94e95f	0.018177686
78	0xbe7dbe8f	-0.24779724
79	0xbe935b11	-0.28780416
80	0xbdcff94b	-0.10154971
81	0xbe611912	-0.2198222
82	0xbe1b8adb	-0.15189688
83	0xbe73200b	-0.23742692
84	0x3ea01f64	0.3127395
85	0x3da7d7f3	0.08195486
86	0x3ea53794	0.32268965
87	0xbe04d3af	-0.12971376
88	0x3df079ea	0.11742003
89	0xbe6a8a29	-0.22904266
90	0xbe6c520f	-0.23078178
91	0x3e2b28fa	0.1671485
92	0x3e5396b3	0.20662956
93	0x3e7d7bb0	0.24754214
94	0xbd6cc346	-0.057803415
95	0x3de53eb5	0.11193601
96	0xbe193391	-0.14961077
97	0xbe34afbf	-0.17645167
98	0x3e8876c2	0.26653105
99	0xbe9462e7	-0.28981707
100	0x3cdf21b3	0.027237749
101	0xbe05de2b	-0.13073032
102	0xbe0def14	-0.13860732
103	0x3e4ed4a4	0.20198303
104	0xbd3e10ea	-0.04640285
105	0x3de5d972	0.11223115
106	0x3dd90e99	0.105984874
107	0xbd88ab1c	-0.066732615
108	0x3d867987	0.06566148
109	0xbdd7a7d2	-0.10530056
110	0x3d68b352	0.05681164
111	0xbda7dfad	-0.0819696
112	0xbe1c6f40	-0.15276814
113	0x3e4966d7	0.19668137
114	0xbe55f5d1	-0.20894553
115	0x3e254b5c	0.16142029
116	0x3df91d2e	0.12163769
117	0x3e01b706	0.12667474
118	0x38544c10	5.0615577e-05
119	0xbe86678a	-0.2625087
120	0xbd82b499	-0.063821025
121	0xbe661e1f	-0.22472428
122	0x3e99f44e	0.30069202
123	0xbe256d8c	-0.1615507
124	0x3e63dae7	0.22251473
125	0x3db0aae7	0.08626347
126	0x3e61c169	0.22046436
127	0xbccdb363	-0.025109952
128	0xbe5d8fb2	-0.21636847
129	0xbdc6cb9c	-0.09706804
130	0x3caf4b36	0.021398168
131	0x3e6bdc66	0.23033294
132	0xbe3eea7e	-0.18644139
133	0xbb4dd872	-0.003140953
134	0xbc527c99	-0.012847089
135	0xbd9c37fa	-0.07627864
136	0x3e9ba8e5	0.30402294
137	0xbcf538a2	-0.029934231
138	0x3e7d1db4	0.24718362
139	0x3e8effb7	0.2792947
140	0x3e96a9c8	0.29426408
141	0x3e71d7ad	0.2361743
142	0xbea0c3a8	-0.31399274
143	0x3e31c172	0.1735895
144	0xbdbe4e1f	-0.09292244
145	0x3df497aa	0.1194299
146	0xbd9c705f	-0.076386206
147	0xbdd9b074	-0.10629359
148	0x3ddcb1fd	0.10776136
149	0x3d13f759	0.03612456
150	0xbe0db27c	-0.13837618
151	0xbe6590f5	-0.22418578
152	0x3ea0ec18	0.31430125
153	0x3e23da12	0.16001156
154	0xbe48a876	-0.19595513
155	0xbe2d548d	-0.16926785
156	0xbcfb92f8	-0.030709729
157	0x3df9fb2e	0.12206112
158	0x3e2ad269	0.16681828
159	0x3e09c8e7	0.13455544
160	0xbc71bdaa	-0.014754692
161	0xbdf585e4	-0.11988428
162	0xbbdd80eb	-0.006759753
163	0x3e56968a	0.20955864
164	0xbe2e6d29	-0.17033829
165	0xbe118b81	-0.14213373
166	0x3e98d532	0.29850155
167	0xbe6f55c5	-0.23372562
168	0x3e905371	0.2818866
169	0x3d224ebe	0.039625876
170	0xbe8bc13c	-0.27295864
171	0x3cd40142	0.025879506
172	0xbcc6c0dc	-0.024261884
173	0xbdf82601	-0.12116624
174	0x3e9e81e7	0.30958483
175	0xbd18ee2f	-0.037336525
176	0xbddd6ec9	-0.10812146
177	0xbe276877	-0.16348444
178	0xbde8e31a	-0.11371441
179	0x3e62ac74	0.22136098
180	0x3e8e9ed3	0.27855548
181	0x3e590095	0.21191628
182	0x3e06443e	0.1311197
183	0x3ba05761	0.004893229
184	0x3e12a4c3	0.14320664
185	0x3e3cd2ea	0.18439832
186	0x3dc16050	0.09442198
187	0xbbaa2328	-0.0051921792
188	0xbe5662d0	-0.20936131
189	0x3e0bbb4f	0.13645671
190	0xbe05d7df	-0.1307063
191	0xbe860b72	-0.26180607
192	0x3e8251cc	0.2545303
193	0xbd1499a4	-0.036279336
194	0xbe8f78f3	-0.28021964
195	0xbe804df8	-0.25059485
196	0xbe1f43a5	-0.15553148
197	0x3e8e1d93	0.27756938
198	0x3e143a04	0.14475256
199	0xbe96eab7	-0.29475948
200	0xbd905668	-0.07047731
201	0xbd368afa	-0.044566132
202	0x3d9d7ca0	0.07689786
203	0x3e537622	0.20650533
204	0xbc2dc176	-0.010605207
205	0xbe0ac825	-0.13552912
206	0x3e925ee0	0.2858801
207	0x3d34a63d	0.04410385
208	0x3e613fb1	0.21996953
209	0xbda626a4	-0.08112839
210	0xbd13a41f	-0.03604519
211	0x3df5b76f	0.11997878
212	0x3c81ec0d	0.015859628
213	0xbe098274	-0.1342867
214	0xbe82521b	-0.25453267
215	0x3e7c56df	0.24642514
216	0x3e30c37e	0.17262074
217	0xbca928ff	-0.020649431
218	0xbe9021ce	-0.2815079
219	0xbd09fcf9	-0.03368852
220	0xbe1e84b2	-0.15480307
221	0xbe6c3814	-0.23068267
222	0xbd5d063b	-0.05396102
223	0x3e88b015	0.2669684
224	0x3db1ee97	0.086880855
225	0xbe99dfd8	-0.30053592
226	0xbd763abf	-0.06011462
227	0xbdb5c625	-0.08875684
228	0xbe50f03c	-0.20404142
229	0x3de4ed08	0.111780226
230	0xbe9245cb	-0.28568873
231	0x3dd17911	0.1022817
232	0x3e2d6728	0.16933882
233	0x3db66fb1	0.08908022
234	0x3e29fbb0	0.16599917
235	0x3d4b87c2	0.049690016
236	0x3b5ea51f	0.0033972932
237	0xbe2339eb	-0.15940063
238	0xba861afb	-0.001023143
239	0x3deb6123	0.11493137
240	0x3d4937c4	0.049125448
241	0x3e7b6ed7	0.24554001
242	0x3e3bf921	0.18356754
243	0x3e4b8174	0.19873601
244	0xbe0ac647	-0.135522
245	0x3e9905b9	0.2988718
246	0xbbcc2ab3	-0.006230676
247	0x3e907d55	0.2822062
248	0xbe804109	-0.25049618
249	0x3e706b6e	0.23478481
250	0x3e83dea4	0.257558
251	0xbd4eaf34	-0.050460055
252	0xbd9c98c1	-0.07646323
253	0x3e795f84	0.24352843
254	0x3e6bbb81	0.23020746
255	0xbcca2aaf	-0.024678556

convs.0.bias f4 [32]
0	0xbc86f0fa	-0.016472328
1	0xbbec788a	-0.007216518
2	0x3c36e4d8	0.011162959
3	0x39954f6f	0.00028478677
4	0xbbb18b56	-0.0054182215
5	0xbbf3b7d4	-0.0074376855
6	0x3c10adc5	0.008830492
7	0xbb96eddd	-0.004605992
8	0xbaa2b626	-0.0012413904
9	0xbca20390	-0.01977709
10	0xbbe110cf	-0.006868459
11	0x3c956c22	0.018240038
12	0x3ba03a70	0.004889779
13	0x3cb291f9	0.02179812
14	0xbc0afac1	-0.008482636
15	0x3c51127c	0.012760755
16	0x3c759d08	0.014991052
17	0xbb11e3c6	-0.0022261008
18	0x3a034764	0.00050078915
19	0xba695f51	-0.0008902448
20	0x3c1cac8c	0.009562623
21	0x3c57d2aa	0.013172785
22	0x3c7a8565	0.015290593
23	0xbbefcbab	-0.0073179803
24	0x3c78b6fa	0.015180344
25	0x3c4232ff	0.011852979
26	0x3ab01a6b	0.0013435608
27	0xbbf37b33	-0.007430458
28	0xbc33b076	-0.010967365
29	0xbcb05e9a	-0.021529485
30	0xbc540464	-0.0129405
31	0xbbe23806	-0.006903651

convs.1.weight f4 [32, 16]
0	0x3d86e3fc	0.06586453
1	0x3eb01fd5	0.34399286
2	0x3d8d33e3	0.06894662
3	0xbe6d7016	-0.23187289
4	0xbe301402	-0.17195132
5	0xbe4d3fa5	-0.2004381
6	0x3e7a50ef	0.24444936
7	0x3e2bc57e	0.16774556
8	0xbea9e266	-0.3318054
9	0xbced167e	-0.02894139
10	0xbcc9d06f	-0.024635522
11	0xbe5e25e3	-0.2169414
12	0x3e979d17	0.29612038
13	0xbe84560e	-0.25846905
14	0x3e8a907e	0.27063364
15	0xbd1d3cac	-0.03838794
16	0xbd4e6c88	-0.050396472
17	0x3e2dbdab	0.16966884
18	0xbe4eef04	-0.20208365
19	0x3eacbdb5	0.33738485
20	0x3cc78236	0.024354082
21	0x3e3cb62b	0.18428867
22	0x3db96e03	0.09054186
23	0xbca02d84	-0.019552954
24	0x3d143552	0.036183663
25	0x3e680a3c	0.22660154
26	0xbea8109e	-0.32825178
27	0xbcf8a92c	-0.030354105
28	0x3e79d7a8	0.24398673
29	0x3da66e85	0.08126549
30	0x3d65b34b	0.05607919
31	0x3e58f64c	0.21187705
32	0xbe553c2b	-0.20823734
33	0x3c1fdb9e	0.009756951
34	0xbe7c3321	-0.24628879
35	0x3eaf1ed8	0.3420322
36	0xbbb1d4d8	-0.0054269843
37	0x3e997384	0.29970944
38	0xbd1271d5	-0.03575309
39	0xbe906240	-0.2819996
40	0xbe2eb954	-0.17062885
41	0x3e30fe56	0.17284521
42	0x3eadaf3f	0.33922765
43	0x3d5d5a46	0.05404117
44	0x3e04e1fa	0.12976828
45	0x3e31dcba	0.17369357
46	0xbde597b4	-0.11210576
47	0x3d901311	0.07034887
48	0x3eb1b219	0.3470619
49	0xbe91e864	-0.28497612
50	0xbd243b4d	-0.040095616
51	0x3e7fed61	0.24992897
52	0xbdb703c3	-0.08936264
53	0xbe47721c	-0.19477123
54	0x3ead56ea	0.33855373
55	0x3e944189	0.2895625
56	0x3eb32c1a	0.34994584
57	0xbdbf3a8a	-0.09337337
58	0xbe83923b	-0.25697502
59	0xbe2f8b58	-0.17142999
60	0x3e171256	0.14753088
61	0xbdc104d3	-0.09424748
62	0xbe0d1223	-0.1377645
63	0x3e4c7edc	0.19970268
64	0x3eab3a80	0.3344307
65	0x3cc5e9e2	0.024159376
66	0x3e5241e7	0.20532952
67	0xbe89f379	-0.26943567
68	0x3e8f2cec	0.2796396
69	0xbc4458e5	-0.011984085
70	0x3d479fc0	0.048736334
71	0x3e40ab90	0.18815446
72	0xbe821baf	-0.25411746
73	0x3ca56cd6	0.020193499
74	0xbd194076	-0.03741499
75	0x3e6fc6f3	0.23415737
76	0x3e83d548	0.25748658
77	0xbe3dcb6b	-0.18534629
78	0x3e8f118d	0.27943078
79	0x3e6eedf4	0.2333296
80	0x3e9b0d2f	0.30283496
81	0x3e746893	0.23868017
82	0xbe1a78f9	-0.1508521
83	0xbe48d8ce	-0.19613954
84	0x3e8a46a9	0.27007034
85	0xbc4e04a9	-0.012574353
86	0xbe90c8bf	-0.28278157
87	0x3e7fea56	0.24991736
88	0xbc2cdadd	-0.010550228
89	0x3d81d0f9	0.063386865
90	0xbb76e4cb	-0.0037672992
91	0x3e065de8	0.1312176
92	0xbea4d3d8	-0.32192874
93	0x3d84054f	0.06446325
94	0x3e6b217c	0.22961992
95	0x3e63ac76	0.22233757
96	0xbd8d5d93	-0.069026135
97	0x3e56b9ee	0.20969364
98	0xbe8010ee	-0.25012916
99	0xbe92dc17	-0.2868354
100	0x3c3653c8	0.011128373
101	0xbea6f300	-0.3260727
102	0x3eb03363	0.34414205
103	0xbe26bf8c	-0.16284007
104	0xbdd965d9	-0.10615129
105	0xbe2f7539	-0.1713456
106	0x3d3efdcf	0.04662877
107	0x3e5908c2	0.21194747
108	0x3d5c5b23	0.053797852
109	0xbe21a308	-0.15784848
110	0x3e897c1d	0.26852503
111	0xbdee29ab	-0.11629041
112	0xbdf54724	-0.119764596
113	0x3e8fd9f0	0.2809596
114	0xbd783c9a	-0.06060467
115	0xbe29bbf9	-0.16575612
116	0x3e615c41	0.22007848
117	0xbe94ad4b	-0.29038462
118	0x3e486465	0.19569547
119	0x3d1ab7f3	0.037773084
120	0x3eb3a9f7	0.3509061
121	0xbe729fc7	-0.23693763
122	0x3e975b4c	0.2956184
123	0x3e5be772	0.21475008
124	0xbe2a258d	-0.16615887
125	0xbe5a8552	-0.2133992
126	0x3eace29b	0.33766636
127	0xbe178f49	-0.14800753
128	0xbe376f37	-0.17913519
129	0xbe2e4e34	-0.1702202
130	0x3e3120c3	0.17297654
131	0xbe847b29	-0.25875214
132	0xbe1ef9e5	-0.15525015
133	0xbe1910f3	-0.14947872
134	0x3e7eb2e0	0.24872923
135	0xbea3cb57	-0.31991073
136	0x3da0a4e0	0.078439474
137	0x3d2802c3	0.04101826
138	0x3e35b610	0.17745233
139	0x3e0b6db0	0.13616061
140	0xbda72be9	-0.08162672
141	0xbe963816	-0.29339665
142	0x3d1b0b2d	0.037852455
143	0x3e91d42f	0.28482196
144	0x3e546b6c	0.20744103
145	0x3e28b9cb	0.16477124
146	0x3e882581	0.26591113
147	0xbe8644ee	-0.26224464
148	0xbe80faa7	-0.25191233
149	0xbd9b6ecb	-0.075894915
150	0xbd61ce96	-0.055128656
151	0x3e27c63d	0.16384216
152	0x3b4a46d2	0.0030864966
153	0xbe951a70	-0.29121733
154	0x3b8bede0	0.0042703003
155	0x3eaf604e	0.34253162
156	0x3e88fd56	0.2675578
157	0x3cf6da44	0.030133374
158	0x3e857f2e	0.26073593
159	0xbeabf5e6	-0.33586043
160	0xbc275ba6	-0.010214722
161	0x3e3c321c	0.1837849
162	0x3d3145e2	0.043279536
163	0x3d19a820	0.037513852
164	0x3cfd4d61	0.030920686
165	0x3e5808f5	0.21097167
166	0x3ea30a3c	0.31843746
167	0x3e0293b5	0.12751658
168	0x3db4f2fb	0.08835407
169	0xbd4607b7	-0.0483472
170	0x3e13101c	0.14361614
171	0x3e9aaf03	0.30211648
172	0x3c268518	0.010163568
173	0xbe995e47	-0.2995474
174	0xbe3dfd85	-0.18553741
175	0xbdc3100c	-0.09524545
176	0xbdc1a9f3	-0.09456243
177	0x3e8e6890	0.2781415
178	0xbe6c6a78	-0.2308749
179	0xbb88ceba	-0.0041750344
180	0x3e00ed09	0.12590422
181	0x3e15b51c	0.14619869
182	0x3e8dd416	0.2770087
183	0x3eaf5360	0.34243298
184	0xbe41002d	-0.18847723
185	0x3e57835e	0.21046206
186	0xbab7fb68	-0.0014036717
187	0x3e53ceb4	0.2068432
188	0xbdcd1dd7	-0.10015457
189	0x3d084b90	0.033275187
190	0xbdf98511	-0.121835835
191	0x3da044b7	0.07825606
192	0xbdd74ea5	-0.10513047
193	0xbd90f7b8	-0.070784986
194	0xbda73ba1	-0.0816567
195	0xbe3a4bb7	-0.18192945
196	0x3d0b6d31	0.03403968
197	0xbe365d8e	-0.17809126
198	0xbeae41a3	-0.34034452
199	0x3dde2c06	0.108482406
200	0x3c467073	0.012111771
201	0xbe97943f	-0.2960529
202	0x3dd8d58e	0.10587607
203	0x3e966a01	0.2937775
204	0x3d898fe5	0.06716899
205	0xbeb2221f	-0.34791657
206	0xbcdecde3	-0.027197784
207	0x3e23e545	0.16005428
208	0xbe121701	-0.14266588
209	0xbcd06daf	-0.025442926
210	0x3cb62912	0.02223638
211	0x3e1d405f	0.15356587
212	0x3e8cc040	0.27490425
213	0x3e2fdd97	0.17174374
214	0xbe9309a5	-0.28718296
215	0xbdbc03e2	-0.09180428
216	0xbd8f8bab	-0.070090614
217	0xbdfaf9ab	-0.12254652
218	0x3e4fdd5b	0.20299284
219	0xbe79c552	-0.24391678
220	0x3e657400	0.22407532
221	0xbeb149f0	-0.34626722
222	0x3e245c26	0.16050777
223	0xbe348e3c	-0.17632383
224	0xbea8b380	-0.32949448
225	0xbd5af509	-0.05345634
226	0xbe298524	-0.16554695
227	0xbe4418b2	-0.19150046
228	0x3e838bb5	0.25692526
229	0xbeb7068e	-0.35747188
230	0x3d0b9073	0.034073304
231	0x3dcbfd43	0.09960415
232	0xbd4fb052	-0.05070526
233	0x3e40e1ed	0.18836184
234	0xbddd29e0	-0.10799003
235	0xbe82dffc	-0.25561512
236	0x3e5fe4a4	0.21864563
237	0x3e99692e	0.29963058
238	0xbe37718d	-0.1791441
239	0xbea84c87	-0.32870886
240	0xbe686026	-0.22692928
241	0xbea92d04	-0.33042157
242	0xbe79e289	-0.24402823
243	0x3bd141f8	0.006386038
244	0x3d9fdb50	0.078055024
245	0x3d96d95a	0.07365675
246	0x3e135e40	0.14391422
247	0x3e37af69	0.17938007
248	0xbe5c4736	-0.2151154
249	0xbd82e169	-0.0639065
250	0x3e8559de	0.26045126
251	0x3e6cc0cb	0.2312042
252	0xbe7387a8	-0.23782218
253	0xbe3b75cc	-0.18306655
254	0xbe1ef143	-0.15521722
255	0x3e035a24	0.12827355

convs.1.bias f4 [16]
0	0xbc9cf3e4	-0.019159265
1	0xbc4ace77	-0.012378327
2	0x3baac0c4	0.0052109677
3	0xbc63f37f	-0.013913034
4	0x3ca36e2b	0.019949993
5	0x3c94f9fe	0.018185612
6	0xba121c1c	-0.00055736466
7	0x3b1b3efd	0.0023688667
8	0xbc6fb2ad	-0.014630002
9	0xbca34b84	-0.01993347
10	0xbb4709b9	-0.0030370785
11	0x3c419e91	0.01181759
12	0xbc8cb1c5	-0.01717461
13	0x3bf2a925	0.0074054175
14	0xbc946719	-0.018115567
15	0x3ac9de78	0.0015401384

convs.2.weight f4 [16, 8]
0	0x3e5b6d62	0.21428445
1	0xbec295f5	-0.38005033
2	0x3e6b2744	0.22964197
3	0x3ee3481d	0.44390956
4	0x3eca094b	0.39460215
5	0x3ed2a0f8	0.41138434
6	0xbea761f4	-0.3269192
7	0x3e5dc531	0.21657254
8	0x3dfb9689	0.12284572
9	0xbeaec17f	-0.34132
10	0x3ee03790	0.4379239
11	0xbd832203	-0.064029716
12	0x3ec1adc1	0.37827876
13	0xbe84c7f8	-0.25933814
14	0xbe822ca6	-0.2542469
15	0xbea0251c	-0.31278312
16	0x3e3375b7	0.17525373
17	0xbefcee56	-0.49400586
18	0xbe91a372	-0.2844501
19	0xbe9dc2cf	-0.3081269
20	0x3d444be0	0.047923923
21	0x3e1af03a	0.15130702
22	0x3ee6b67f	0.45061108
23	0xbeb77efb	-0.35839066
24	0x3e1c0b35	0.1523865
25	0xbd632be3	-0.055461776
26	0x3d43cea0	0.047804475
27	0xbdd87b75	-0.105704226
28	0x3ee2e69a	0.4431656
29	0xbe26102e	-0.1621711
30	0xbe597f7e	-0.2124004
31	0xbef0d3b1	-0.47036508
32	0x3dc08ffa	0.09402461
33	0x3e8c167d	0.27360907
34	0xbe67a93c	-0.22623152
35	0xbecc5b38	-0.39913344
36	0xbeab44be	-0.33450884
37	0xbeaf74e6	-0.34268874
38	0xbefc3c25	-0.49264637
39	0xbe1ee697	-0.1551765
40	0x3e0be4bc	0.13661474
41	0x3e50d473	0.20393543
42	0xbeef00d1	-0.4668031
43	0xbec335ee	-0.38127083
44	0x3e98fea1	0.29881766
45	0xbec4e2c9	-0.38454273
46	0x3da8c398	0.082404315
47	0xbe83cf07	-0.25743887
48	0x3aa39cec	0.001248268
49	0xbef56e90	-0.47935915
50	0x3e04a3a3	0.12953047
51	0xbec47d4c	-0.38376844
52	0x3eceee15	0.40416017
53	0xbea047a2	-0.31304651
54	0xbee72cbc	-0.45151317
55	0x3cdac44e	0.026704933
56	0x3c6ef4f2	0.014584767
57	0x3da5bffd	0.080932595
58	0xbdddd830	-0.1083225
59	0x3e6e5c9a	0.23277512
60	0x3ef0bcc1	0.47019008
61	0x3e516add	0.20450921
62	0xbecb55c6	-0.39713877
63	0xbdf5168a	-0.119671896
64	0x3e9f483d	0.311098
65	0x3e95e128	0.29273343
66	0xbd0015ae	-0.031270675
67	0x3ebc802d	0.3681654
68	0x3ef64a5d	0.4810361
69	0x3d394af4	0.045237496
70	0xbe3111cf	-0.1729195
71	0x3d8dd3de	0.06925176
72	0x3ec9cc52	0.39413697
73	0x3e1aa37f	0.15101431
74	0x3e44f86b	0.19235389
75	0xbe03ff1c	-0.12890285
76	0x3e72c5cc	0.23708266
77	0x3d52511b	0.05134688
78	0x3ef1c804	0.47222912
79	0xbdbfefd0	-0.093719125
80	0x3ee4fed1	0.4472566
81	0xbd8c8437	-0.068611555
82	0xbd1b41f6	-0.037904702
83	0xbd55b246	-0.052171968
84	0x3ee2a838	0.44268966
85	0x3de444dd	0.11145947
86	0xbe1f6e5b	-0.15569441
87	0x3e0a633d	0.13514419
88	0x3e87b0ce	0.2650208
89	0x3e090627	0.13381253
90	0xbe8fb7ab	-0.28069815
91	0xbd34767b	-0.044058304
92	0x3e4736d1	0.19454505
93	0x3d1c013a	0.038087107
94	0xbef00fa7	-0.46886942
95	0x3d7f19a1	0.0622803
96	0x3e838846	0.25689906
97	0xbed6ccc1	-0.4195309
98	0x3dc8afd4	0.097991616
99	0xbebb5a1d	-0.36592188
100	0x3ee50ea0	0.4473772
101	0xbdc3a19c	-0.09552309
102	0x3e7ea280	0.24866676
103	0x3d781763	0.06056918
104	0x3e508788	0.20364201
105	0xbe09e50a	-0.13466278
106	0x3ea484a3	0.32132444
107	0xbf0348d3	-0.51282996
108	0xbed7f8a0	-0.42181873
109	0xbeb6c697	-0.35698387
110	0xbdfa5051	-0.122223504
111	0x3ef4f140	0.4784031
112	0x3ea47caf	0.32126376
113	0xbeeb052d	-0.45902386
114	0x3e350a7d	0.17679782
115	0xbdd13fcb	-0.10217246
116	0x3e8b9419	0.27261427
117	0x3ecc8631	0.3994613
118	0x3e8885c8	0.26664567
119	0xbea1e198	-0.31617427
120	0xbd64f1b9	-0.055894587
121	0xbe52f416	-0.20600924
122	0x3e660b96	0.22465357
123	0xbdfd02aa	-0.12354024
124	0xbce9e1b0	-0.028549999
125	0xbda4e3e4	-0.08051279
126	0x3ed35752	0.41277558
127	0x3ec5ef46	0.38659114

convs.2.bias f4 [8]
0	0x3b6f6e0c	0.00365341
1	0xbd161cb6	-0.036648475
2	0xbc9ba452	-0.018999252
3	0x3b7d4e37	0.0038651356
4	0xbceff53a	-0.029291738
5	0xbcf1267e	-0.0294373
6	0xbc225870	-0.00990878
7	0xbc2306aa	-0.009950319

lns.0.weight f4 [32]
0	0x3f81e1c3	1.0147022
1	0x3f80b6d8	1.00558
2	0x3f7ebe08	0.99508715
3	0x3f823a5f	1.0174063
4	0x3f7baddb	0.9831216
5	0x3f7b16c2	0.980816
6	0x3f824c1b	1.0179476
7	0x3f7cecd4	0.9879887
8	0x3f7fa2e6	0.9985794
9	0x3f80fac6	1.007653
10	0x3f806199	1.0029784
11	0x3f82d949	1.022256
12	0x3f8179a8	1.0115252
13	0x3f7d268e	0.98886955
14	0x3f7d4a20	0.9894123
15	0x3f7c280b	0.984986
16	0x3f7dd7da	0.9915749
17	0x3f810bf9	1.0081779
18	0x3f80a09a	1.0049012
19	0x3f7db24c	0.99100184
20	0x3f7eec35	0.99579173
21	0x3f80eb2b	1.0071768
22	0x3f81091b	1.0080904
23	0x3f7d033d	0.98833066
24	0x3f81ba43	1.0134968
25	0x3f82833a	1.0196297
26	0x3f7c1624	0.98471284
27	0x3f8279f3	1.0193466
28	0x3f7f0754	0.99620557
29	0x3f7c8ca8	0.98652124
30	0x3f806fc5	1.0034109
31	0x3f8057e3	1.0026821

lns.0.bias f4 [32]
0	0xbc8dcd76	-0.017309885
1	0xbb85bfba	-0.0040816935
2	0x3c30abc4	0.01078314
3	0xbc96e24b	-0.018418452
4	0x3c23c758	0.009996258
5	0x3b723d7b	0.0036962915
6	0xbbd417d0	-0.0064725652
7	0x3c02156b	0.007939677
8	0xbbd1cf6b	-0.0064029
9	0xbc37fa4e	-0.011229111
10	0x3b1ec799	0.0024227856
11	0x3c332303	0.01093364
12	0x3b84cc0c	0.0040526446
13	0x3c4f554b	0.012654613
14	0x3c82a4c6	0.01594771
15	0x3ca44e29	0.0200568
16	0x3c9d6245	0.019211898
17	0xbc281494	-0.010258812
18	0x39d9acc6	0.00041518192
19	0x3b1510e3	0.002274566
20	0x3c811552	0.015757237
21	0x3cb27d55	0.021788279
22	0xbb75c0e8	-0.0037499014
23	0xba03cee3	-0.0005028082
24	0x3ca4a210	0.020096809
25	0xbc280d26	-0.010257041
26	0x3c53d46e	0.012929065
27	0xbc989a95	-0.018628398
28	0xbc59399e	-0.013258366
29	0xbc909e32	-0.017653558
30	0xbca5847b	-0.020204773
31	0xbc264bcd	-0.010149908

lns.1.weight f4 [16]
0	0x3f7d2220	0.98880196
1	0x3f7945ec	0.9737232
2	0x3f7b2642	0.9810525
3	0x3f7e9dbe	0.99459445
4	0x3f7f4077	0.9970774
5	0x3f76c823	0.96399134
6	0x3f77f9f5	0.9686578
7	0x3f785f72	0.9702064
8	0x3f7f2900	0.99671936
9	0x3f7f8bd8	0.9982276
10	0x3f82220f	1.0166644
11	0x3f7fb123	0.99879664
12	0x3f7d6644	0.9898417
13	0x3f7ddfb7	0.99169487
14	0x3f829a0e	1.0203264
15	0x3f7c7abc	0.9862478

lns.1.bias f4 [16]
0	0xbcab21bc	-0.02089011
1	0xbc062991	-0.008188621
2	0x3c6071c0	0.013698995
3	0xbba479bc	-0.0050193947
4	0x3cdbfddd	0.02685445
5	0x3c7d518d	0.015461338
6	0x3ba3d52d	0.004999778
7	0xbcd8f7c9	-0.02648534
8	0xbc9d4e79	-0.019202458
9	0xbce772ee	-0.028253045
10	0xbcc4c51b	-0.024019768
11	0x3b70cb96	0.003674244
12	0xbc38f183	-0.01128805
13	0x3c611515	0.0137379365
14	0xbcb3705c	-0.021904163
15	0xbc1fd225	-0.009754692

lns.2.weight f4 [8]
0	0x3f800000	1.0
1	0x3f800000	1.0
2	0x3f800000	1.0
3	0x3f800000	1.0
4	0x3f800000	1.0
5	0x3f800000	1.0
6	0x3f800000	1.0
7	0x3f800000	1.0

lns.2.bias f4 [8]
0	0x00000000	0.0
1	0x00000000	0.0
2	0x00000000	0.0
3	0x00000000	0.0
4	0x00000000	0.0
5	0x00000000	0.0
6	0x00000000	0.0
7	0x00000000	0.0

post_mp.0.weight f4 [8, 8]
0	0x3ea23642	0.3168202
1	0xbd62b030	-0.055343807
2	0xbe2dabec	-0.16960114
3	0x3ead59ab	0.33857474
4	0x3dbe54e7	0.092935376
5	0xbe893ebb	-0.26805672
6	0x3e998655	0.299853
7	0xbe50a93d	-0.2037706
8	0x3d8c17aa	0.06840451
9	0xbdc5fcf2	-0.09667386
10	0xbe239503	-0.15974812
11	0x3cd21230	0.025643438
12	0xbe8f95a4	-0.28043854
13	0xbe670af3	-0.2256277
14	0xbe8d9099	-0.27649382
15	0x3daa6aa4	0.08321121
16	0x3e8430ec	0.25818574
17	0x3e7a9b4f	0.24473308
18	0xbe86b883	-0.26312646
19	0x3e1a822a	0.15088716
20	0xbe68d76e	-0.2273843
21	0xbe7d5034	-0.24737626
22	0x3eac6ab9	0.33675173
23	0xbe802eb6	-0.25035638
24	0xbe818174	-0.25294077
25	0xbc7d2fb7	-0.015453271
26	0x3d3d008e	0.046143107
27	0x3d2f9b39	0.04287264
28	0x3e8d7ac2	0.2763272
29	0x3cacc169	0.021088319
30	0x3e354624	0.17702538
31	0xbdfce3c0	-0.12348127
32	0x3c91b825	0.017788002
33	0xbe18dd66	-0.14928207
34	0xbe9da4da	-0.30789834
35	0x3e72c987	0.23709689
36	0xbe3b108a	-0.18268028
37	0xbdd9e8e9	-0.10640127
38	0xbd6f9024	-0.058487073
39	0x3dc3f163	0.09567525
40	0xbeadf691	-0.33977178
41	0xbd4ec431	-0.05048007
42	0xbe085afe	-0.13315961
43	0x3e93b88d	0.2885174
44	0xbe942c99	-0.28940275
45	0x3d9854ca	0.07438047
46	0xbe1ac7b2	-0.1511524
47	0xbe10ae4b	-0.14128987
48	0x3e73279d	0.2374558
49	0x3e9fe3bc	0.31228435
50	0x3e1196b8	0.14217651
51	0x3e7c5b58	0.2464422
52	0x3d220b9b	0.03956185
53	0x3e3b66b2	0.18300894
54	0xbe0aeecd	-0.13567658
55	0x3d4d56cf	0.050131615
56	0xbe7a2718	-0.24428976
57	0xbe9230a6	-0.2855274
58	0x3e8ccaa6	0.27498358
59	0x3e7e0fa2	0.24810651
60	0x3d245736	0.040122233
61	0x3d4d8fae	0.05018585
62	0xbe9d33ff	-0.30703732
63	0x3dae1680	0.08500385

post_mp.0.bias f4 [8]
0	0xbd83a2bd	-0.06427524
1	0x3db00261	0.08594204
2	0x3e83462c	0.25639474
3	0x3e9b4f4b	0.30333933
4	0x3e4ef8d8	0.20212114
5	0x3dc364dc	0.09540722
6	0x3e9ee469	0.31033638
7	0x3e2c894d	0.16849251

post_mp.2.weight f4 [2, 8]
0	0x3e977fb5	0.2958962
1	0x3cfbf66c	0.030757152
2	0x3daae6b1	0.08344782
3	0x3e6d9565	0.2320152
4	0x3e2c35b3	0.1681736
5	0xbbdd78b2	-0.006758773
6	0x3e76fd78	0.24120128
7	0xbe3c771a	-0.18404809
8	0xbe622812	-0.22085598
9	0xbe731ef7	-0.23742281
10	0xbe09a71e	-0.13442656
11	0xbd0b722f	-0.03404444
12	0xbe948578	-0.2900808
13	0xbdf96546	-0.121775195
14	0x3da12849	0.07869012
15	0xbd4a2ca5	-0.049358983

post_mp.2.bias f4 [2]
0	0xbea73ebb	-0.32665047
1	0xbdf2fea4	-0.11864975
