GNN/model_max_weights.pth (torch, 12991 bytes, 16 tensors)

convs.0.weight f4 [32, 32]
-0.27033055 0.075022325 0.12695484 0.27759856 0.03641112 -0.22215113 -0.23953539 0.06763395
-0.1472734 -0.058438767 0.20500411 -0.03598849 0.20934665 0.079643294 0.10102775 0.26081946
0.17139536 0.0277653 0.03448739 0.28075886 0.31396407 -0.11657015 -0.08253055 -0.038580175
-0.08581521 -0.28040597 0.2884525 -0.244024 0.10516944 0.27175778 0.029426374 -0.0022769698
0.16090098 0.23661858 0.2457185 0.23208475 -0.0792363 0.071641 0.08966667 0.046063844
-0.20675173 0.008584611 0.1816726 -0.021492323 0.22426212 0.28807715 -0.24956502 0.12611754
-0.19501227 -0.0527058 -0.18851285 0.10792858 0.21779649 -0.20942329 -0.2194105 0.016031286
-0.273894 0.03194864 0.27281263 0.2692465 0.24446297 0.14001524 0.15602902 0.26733202
-0.17648251 0.19633539 0.28687236 0.156869 0.18642212 0.06490774 0.2845174 0.19274838
0.22446167 -0.07806934 -0.08488853 0.18909653 -0.225089 0.21242048 0.08429022 -0.07305326
-0.23410052 -0.20149231 0.03271315 -0.20198703 0.10668028 0.038845472 -0.16370636 -0.20415449
-0.2767901 -0.037146382 -0.31460303 0.1077654 -0.29101872 -0.08870235 0.22811474 -0.2832714
-0.20986834 -0.14871459 0.12791954 0.20732844 -0.09868008 0.0825318 -0.041086834 0.15310445
0.07586097 -0.2903909 -0.26148182 -0.07357262 -0.14506668 -0.30554757 -0.09885862 0.119140625
-0.25697893 -0.076306604 0.12182641 -0.014899627 -0.18730073 -0.09484856 -0.19815245 -0.25100634
0.047905654 0.089961275 -0.18030559 0.01589936 -0.10432362 0.27413514 -0.3140178 0.056970693
0.027907776 0.033541314 0.13470396 0.07776757 -0.25724724 0.034305815 0.1253134 -0.044951115
-0.050935034 0.26074517 -0.24015738 0.10773169 -0.006819328 -0.03527962 0.22832923 -0.061397363
-0.24803533 -0.27217895 0.22407982 0.14075698 -0.077841565 0.047513872 -0.011406946 -0.25535184
0.14595874 -0.18472606 0.2860992 -0.082474016 -0.062291484 -0.2413884 -0.09234331 0.2406241
-0.23144898 -0.2142357 0.116666995 0.19787164 -0.2928629 -0.28452992 -0.12016434 0.01816056
-0.11756325 0.19065344 -0.088099964 -0.15907657 -0.31076714 0.22800972 0.102714926 -0.19114009
0.16553047 0.13633488 0.14380127 0.29907152 0.22380319 0.12678611 0.3085693 0.13700593
0.30510467 0.0840161 0.020147828 0.27522057 -0.18318518 0.10243116 0.10516069 -0.13487129
0.011870328 0.25702244 -0.054862514 -0.037669424 -0.30536097 0.2866901 -0.31043822 -0.078976974
-0.21197633 -0.29555008 -0.00069713086 -0.28019354 -0.05910027 0.29236934 -0.3003067 0.116954304
0.12508784 -0.27376816 0.14824226 0.30324668 0.30263865 -0.064146 -0.1625017 -0.20071895
0.30110177 -0.27935904 -0.21592528 -0.13886896 -0.22561288 -0.19051158 -0.17752665 -0.2649108
0.21160881 0.005839679 0.05030352 -0.30868492 0.25152534 0.12592778 0.02365289 0.055301268
-0.21552902 0.25659636 0.28152668 0.09250393 -0.051371235 -0.21643779 0.108245514 0.07631636
0.0015324693 0.10811121 -0.27029145 -0.20020719 -0.14234683 0.30709752 0.20383546 -0.12696739
0.2250817 -0.22992603 -0.25076574 0.033022378 0.19521669 -0.015997758 0.09820679 0.23905784
00000000: c468 8abe 4ea5 993d 7300 023e 6621 8e3e
00000010: d423 153d 967b 63be c448 75be ab83 8a3d
00000020: d7ce 16be 7d5d 6fbd 99ec 513e ab68 13bd
00000030: f85e 563e 061c a33d a3e7 ce3d 218a 853e
00000040: 4482 2f3e 0e74 e33c a642 0d3d a0bf 8f3e
00000050: e6bf a03e 55bc eebd c705 a9bd 3f06 1ebd
00000060: e3bf afbd 5f91 8fbe 0cb0 933e 6de1 79be
00000070: 1363 d73d d623 8b3e 940f f13c 3739 15bb
00000080: 3ac3 243e 244c 723e a19d 7b3e a0a7 6d3e
00000090: a446 a2bd 84b8 923d 29a3 b73d 71ad 3c3d
000000a0: bab6 53be 78a6 0c3c 6208 3a3e ab10 b0bc
000000b0: f8a4 653e d97e 933e f98d 7fbe f524 013e
000000c0: 4cb1 47be 09e2 57bd 8309 41be a909 dd3d
000000d0: 0b06 5f3e 0f73 56be 25ad 60be 0b54 833c
000000e0: d63b 8cbe 94dc 023d 19ae 8b3e adda 893e
000000f0: 8054 7a3e 2860 0f3e 12c6 1f3e bedf 883e
00000100: d5b7 34be 250c 493e efe0 923e 44a2 203e
00000110: 71e5 3e3e 59ee 843d 44ac 913e d55f 453e
00000120: 48d9 653e d1e2 9fbd 0ada adbd 85a2 413e
00000130: bb7d 66be c184 593e 5aa0 ac3d f39c 95bd
00000140: 0cb8 6fbe 0054 4ebe 39fe 053d b0d5 4ebe
00000150: 317b da3d 6e1c 1f3d a4a2 27be e00d 51be
00000160: 6fb7 8dbe ce26 18bd a613 a1be 1bb4 dc3d
00000170: 6800 95be 94a9 b5bd e996 693e f308 91be
00000180: bae7 56be a348 18be 57fd 023e e84d 543e
00000190: c818 cabd 6f06 a93d ab4a 28bd 6ac7 1c3e
000001a0: ff5c 9b3d 1eae 94be f2e0 85be 3ead 96bd
000001b0: 5c8c 14be bb70 9cbe 6376 cabd 0000 f43d
000001c0: be92 83be a346 9cbd 2080 f93d 911d 74bc
000001d0: c3cb 3fbe f63f c2bd 7ae8 4abe e783 80be
000001e0: b838 443d 9e3d b83d 07a2 38be 603f 823c
000001f0: 9fa7 d5bd 715b 8c3e f1c6 a0be 1a5a 693d
00000200: d99e e43c 9e62 093d d6ef 093e 9b44 9f3d
00000210: e9b5 83be 4184 0c3d 2852 003e a91e 38bd
00000220: 41a1 50bd 6480 853e d1eb 75be 6fa2 dc3d
00000230: ab74 dfbb 5d81 10bd 23cf 693e cd7b 7bbd
00000240: f9fc 7dbe 0a5b 8bbe 2e75 653e 9922 103e
00000250: 666b 9fbd e89d 423d 33e4 3abc 7abd 82be
00000260: 3576 153e d428 3dbe 987b 923e 23e8 a8bd
00000270: 5b25 7fbd 852e 77be 7d1e bdbd 2a66 763e
00000280: f600 6dbe 9a60 5bbe 1bef ee3d dd9e 4a3e
00000290: 20f2 95be e8ad 91be b918 f6bd 74c5 943c
000002a0: 00c5 f0bd a83a 433e c16d b4bd f8e4 22be
000002b0: df1c 9fbe 617b 693e 345c d23d 3aba 43be
000002c0: d280 293e 5f9b 0b3e a440 133e e71f 993e
000002d0: aa2c 653e 38d4 013e ccfc 9d3e 484b 0c3e
000002e0: ae36 9c3e a210 ac3d 0f0d a53c b6e9 8c3e
000002f0: e594 3bbe 6ec7 d13d 7d5e d73d b31b 0abe
00000300: c47b 423c 7298 833e 84b7 60bd 414b 1abd
00000310: 4658 9cbe 0bc9 923e c2f1 9ebe aebe a1bd
00000320: 5310 59be 5752 97be a9bf 36ba 8775 8fbe
00000330: 2013 72bd 6fb1 953e cdc1 99be bd85 ef3d
00000340: 0717 003e 572b 8cbe d2cc 173e 2643 9b3e
00000350: 74f3 9a3e fa5e 83bd d866 26be 4589 4dbe
00000360: 032a 9a3e 2608 8fbe 841b 5dbe aa33 0ebe
00000370: 1007 67be 7815 43be 8cc9 35be 63a2 87be
00000380: fbaf 583e c75a bf3b 100b 4e3d f30b 9ebe
00000390: eec7 803e 36f3 003e b5c3 c13c 9583 623d
000003a0: a4b3 5cbe 9960 833e 4424 903e b372 bd3d
000003b0: a56a 52bd dea1 5dbe d3af dd3d c04b 9c3d
000003c0: 23dd c83a 6969 dd3d a463 8abe 1d03 4dbe
000003d0: 5ec3 11be e33b 9d3e 3eba 503e bd03 02be
000003e0: d17b 663e bb71 6bbe 5e64 80be 7942 073d
000003f0: e2e6 473e bb0d 83bc a420 c93d 94cb 743e

convs.0.bias f4 [32]
-0.0044922708 -0.0015293933 0.010946901 -0.007830057 9.4401286e-05 0.015438842 -0.016372802 0.0058058505
-0.0047334945 -0.0069507295 -0.018727671 0.0021165553 0.016113514 -0.009800817 -0.0027381321 -0.0008002056
0.0011023559 0.0064046863 0.0012202582 0.0010745631 0.0112503255 0.02988257 0.008246702 0.011723409
0.005537724 -0.0030807871 -0.012033649 -0.015444661 0.010087663 0.00019584387 -0.01767471 -0.009031833
00000000: e633 93bb ec75 c8ba a15a 333c a449 00bc
00000010: 4ef9 c538 32f3 7c3c 4120 86bc 013f be3b
00000020: 6e1b 9bbb f2c2 e3bb c66a 99bc e8b5 0a3b
00000030: 7d00 843c 9b93 20bc 3c72 33bb e4c4 51ba
00000040: ed7c 903a 67de d13b 12f1 9f3a 5bd8 8c3a
00000050: 4953 383c 4bcc f43c 2d1d 073c 8b13 403c
00000060: cc75 b53b 08e7 49bb c828 45bc 9a0b 7dbc
00000070: ba46 253c 705b 4d39 8eca 90bc 41fa 13bc

convs.1.weight f4 [32, 16]
0.021743147 -0.020946173 -0.13685808 0.35086778 0.23124899 0.04577365 0.17579444 0.30314726
0.24976876 -0.31572184 -0.14349763 -0.20965685 -0.108320564 -0.27093488 -0.091504924 -0.067866415
0.054065388 0.15776558 0.2736922 -0.21078658 0.006887973 0.34205383 0.0154584665 0.082864724
-0.29640287 0.3364095 0.27834776 -0.352718 0.08187761 0.24048 0.23071222 0.2552358
-0.25570986 -0.110319406 -0.36791873 0.1890121 0.2039893 0.05675069 0.3192441 -0.3394059
-0.20446923 0.007994564 0.23995729 -0.0755502 0.20136462 -0.14589569 -0.07718635 0.25612143
-0.099908605 -0.016880564 -0.17706102 0.19089542 0.18454842 0.23447648 -0.063630894 0.33475295
0.3539286 -0.15316224 -0.24151553 -0.1579995 0.16579126 -0.26847953 0.30591378 0.019392703
-0.24413583 0.06611308 -0.2658065 -0.26657948 -0.309603 -0.055308763 0.0973555 0.0865342
-0.36438477 -0.12377429 -0.15975963 -0.114986844 -0.046241168 -0.11447675 0.1145043 0.2225399
-0.21882325 -0.3501878 0.21101353 -0.29715365 0.009074858 -0.3402343 -0.09158041 -0.17918527
-0.2634052 0.31125066 0.3495242 -0.25829488 -0.032637905 -0.19628266 0.13738456 -0.06017542
0.03022537 -0.30509236 0.1640584 0.1993237 0.25429535 0.18491353 -0.28333923 0.2722044
0.012147478 -0.24557407 -0.2340833 -0.0038978702 0.21311787 -0.17437327 -0.0347886 -0.33511752
0.039144512 0.26981732 0.006451227 0.22891599 -0.26672474 0.15334262 0.20207573 -0.2595294
-0.15261203 -0.009469087 -0.29640394 -0.06166249 -0.30675197 -0.13534659 -0.24957046 0.030079303
-0.1736459 -0.10137973 0.0031077347 0.07210598 0.08607318 0.043869644 0.08748891 0.15863259
0.11145196 -0.36986285 0.2603982 -0.27926064 -0.18758205 -0.2835957 0.06173375 0.16176379
-0.24631527 0.09824842 -0.15507649 0.16731127 0.152784 0.24105348 0.32388684 0.22387479
-0.31399837 0.101374455 0.22420868 -0.3494616 -0.25031066 0.19404104 0.2684028 -0.10895415
-0.28248554 -0.28299755 0.030544428 -0.112146825 0.047667895 -0.24702609 0.24710998 -0.1699168
-0.21240108 0.12269991 0.28680447 -0.05151129 -0.30240953 -0.21497232 -0.15124133 -0.22269444
0.37508842 -0.004540737 0.07749382 -0.30676675 0.17809893 -0.07390794 -0.033354983 -0.09402153
0.07914934 0.25649908 -0.106071435 0.09491736 -0.32599732 0.2646056 -0.18273628 0.232587
0.18471521 0.12868045 0.06134942 0.026668087 -0.34905267 0.215675 -0.31603155 0.023306876
0.08511173 0.29758424 -0.1130059 0.036373578 0.35838842 -0.17551483 -0.25858968 -0.17027439
0.19136886 0.1754969 -0.074917935 -0.069118194 -0.3527623 -0.13642657 -0.124204546 0.09210939
-0.13174033 -0.23236418 -0.21353962 -0.17700966 0.15331621 -0.22985823 -0.31787065 0.30810988
-0.074265406 -0.19184394 -0.005649165 -0.12757865 0.24259663 -0.13176125 0.106680274 0.34733173
0.10674226 0.13520102 0.24473484 -0.27386618 -0.13880864 -0.15446933 0.103228964 0.05092919
-0.28582105 0.12107605 0.047535233 -0.14472441 0.1287864 0.25520605 0.13019979 0.34481773
0.24653047 0.13523684 -0.18381329 0.07485992 0.25047904 -0.04030832 -0.030595904 -0.15917942
00000000: af1e b23c 4f97 abbc 8624 0cbe f1a4 b33e
00000010: 89cc 6c3e 277d 3b3d 7503 343e 1e36 9b3e
00000020: 62c3 7f3e 4ba6 a1be 0bf1 12be 49b0 56be
00000030: 2cd7 ddbd fab7 8abe ef66 bbbd 8cfd 8abd
00000040: ab73 5d3d 4d8d 213e 6221 8c3e 70d8 57be
00000050: 81b4 e13b ae21 af3e 8245 7d3c fbb4 a93d
00000060: 1ec2 97be de3d ac3e 9983 8e3e 7497 b4be
00000070: 73af a73d 6440 763e d33f 6c3e 44ae 823e
00000080: 67ec 82be 24ef e1bd d85f bcbe 638c 413e
00000090: 92e2 503e 6973 683d f673 a33e 9cc6 adbe
000000a0: 6260 51be a2fb 023c 5db7 753e 10ba 9abd
000000b0: 8732 4e3e ae65 15be e113 9ebd 5922 833e
000000c0: e29c ccbd 1c49 8abc 7c4f 35be 177a 433e
000000d0: 43fa 3c3e 9a1a 703e ea50 82bd bd64 ab3e
000000e0: 2136 b53e 90d6 1cbe d94f 77be 9fca 21be
000000f0: 2fc5 293e 2676 89be bba0 9c3e 72dd 9e3c
00000100: befe 79be 4b66 873d ca17 88be 1b7d 88be
00000110: 4984 9ebe 718b 62bd 5262 c73d d838 b13d
00000120: a490 babe 607d fdbd 0798 23be 397e ebbd
00000130: 6167 3dbd c972 eabd 3b81 ea3d 80e1 633e
00000140: 3413 60be d14b b3be ee13 583e 8624 98be
00000150: b7ae 143c 3133 aebe 838e bbbd 587c 37be
00000160: 0cdd 86be 3f5c 9f3e d6f4 b23e 3a3f 84be
00000170: 53af 05bd 52fe 48be 8aae 0c3e 807a 76bd
00000180: 329b f73c 1135 9cbe edfe 273e 831b 4c3e
00000190: 0033 823e f959 3d3e d711 91be 605e 8b3e
000001a0: 3706 473c c577 7bbe 88b3 6fbe 6973 7fbb
000001b0: 923b 5a3e e88e 32be 7e7e 0ebd 8694 abbe
000001c0: ff55 203d 7f25 8a3e d064 d33b f468 6a3e
000001d0: 2590 88be d905 1d3e f1ec 4e3e 0ae1 84be
000001e0: 5446 1cbe 3b24 1bbc 42c2 97be cf91 7cbd
000001f0: 980e 9dbe 4c98 0abe 668f 7fbe df68 f63c
00000200: 3bd0 31be 2da0 cfbd 23ab 4b3b 4dac 933d
00000210: 2347 b03d a8b0 333d 632d b33d 9570 223e
00000220: ed40 e43d aa5e bdbe ea52 853e 40fb 8ebe
00000230: 8215 40be 7533 91be 87dc 7c3d 68a5 253e
00000240: 123a 7cbe 7836 c93d 5fcc 1ebe a553 2b3e
00000250: 6973 1c3e b9d6 763e 7fd4 a53e 6f3f 653e
00000260: 65c4 a0be 699d cf3d f696 653e a1ec b2be
00000270: b828 80be b2b2 463e 186c 893e 5a23 dfbd
00000280: f2a1 90be 0ee5 90be 4f38 fa3c 3cad e5bd
00000290: 693f 433d 68f4 7cbe 660a 7d3e abfe 2dbe
000002a0: ab7f 59be 174a fb3d 09d8 923e 81fd 52bd
000002b0: 6cd5 9abe b421 5cbe 02df 1abe 030a 64be
000002c0: 970b c03e 76ca 94bb 14b5 9e3d 8810 9dbe
000002d0: 915f 363e 0c5d 97bd 3c9f 08bd 5c8e c0bd
000002e0: 0d19 a23d d953 833e fb3b d9bd 0864 c23d
000002f0: 1fe9 a6be 637a 873e 381f 3bbe 492b 6e3e
00000300: fc25 3d3e cfc4 033e 8849 7b3d 0877 da3c
00000310: 08b7 b2be e8d9 5c3e e3ce a1be 10ee be3c
00000320: 0f4f ae3d f65c 983e a36f e7bd 76fc 143d
00000330: b07e b73e 29ba 33be de65 84be 695c 2ebe
00000340: 33f6 433e 76b5 333e 936e 99bd d78d 8dbd
00000350: 439d b4be 68b3 0bbe f45e febd d9a3 bc3d
00000360: f0e6 06be e0f0 6dbe 21aa 5abe 0542 35be
00000370: edfe 1c3e f55f 6bbe f1bf a2be 94c0 9d3e
00000380: 7618 98bd bd72 44be a11c b9bb faa3 02be
00000390: 406b 783e 6cec 06be 307b da3d 77d5 b13e
000003a0: b09b da3d 2372 0a3e c59b 7a3e 3038 8cbe
000003b0: da23 0ebe 352d 1ebe b569 d33d 209b 503d
000003c0: 2357 92be b8f6 f73d 4eb4 423d a332 14be
000003d0: 95e0 033e 5eaa 823e 1853 053e f38b b03e
000003e0: 7c72 7c3e 877b 0a3e 8d39 3cbe 2850 993d
000003f0: ca3e 803e 561a 25bd 43a4 fabc eeff 22be

convs.1.bias f4 [16]
-0.010386618 -0.010194711 -0.0032560201 0.004306737 0.008490409 -0.0035256965 -0.005469374 -0.003945117
0.019069877 0.017387033 0.016761573 -0.0028787092 0.0028329333 -0.0032574793 -0.016309487 -0.00072085357
00000000: a22c 2abc b807 27bc f462 55bb 871f 8d3b
00000010: 5b1b 0b3c 5f0f 67bb 6f38 b3bb 0a46 81bb
00000020: 6e38 9c3c 406f 8e3c 914f 893c baa8 3cbb
00000030: bca8 393b 6f7b 55bb 799b 85bc aaf7 3cba

convs.2.weight f4 [16, 8]
-0.28270385 0.4604046 -0.40981779 0.2851629 0.40481636 -0.064830616 0.1370672 -0.41915986
-0.4564369 -0.028459685 0.40594646 -0.08963731 -0.3758005 -0.38195962 0.37038255 -0.48158732
-0.022266079 0.03822425 0.044268694 -0.16443665 -0.15078272 0.14923576 -0.36904567 -0.1829359
0.040291276 -0.3198736 -0.2683273 -0.38460588 -0.43323573 0.37563232 0.04843397 0.2204268
0.29602838 0.2639009 -0.28984374 -0.1682503 -0.25774616 0.031901695 0.034931015 0.38233748
0.1576762 -0.24470076 0.28266776 0.32775366 -0.44678575 -0.43858707 -0.22097374 0.021896392
0.23960657 0.42947802 0.09069159 -0.4044243 0.09847591 -0.46097797 0.33137175 -0.3653007
-0.094261386 0.19421287 -0.2894278 -0.3831185 -0.0051381155 0.21758644 -0.42330942 0.3344502
-0.4628276 -0.2521762 -0.009298516 -0.22131175 -0.44443193 0.16715471 -0.021891164 0.22993031
-0.4702306 -0.029105596 -0.21113086 -0.31446767 -0.32785967 0.28802314 -0.38475507 -0.27203685
0.2729148 0.090334624 -0.34624672 -0.10926958 -0.2500677 0.21491395 -0.13691334 -0.2518879
0.19861116 -0.4044064 0.5023231 -0.38152963 0.12656754 -0.21314414 0.19926925 0.45362443
-0.07264654 -0.050333597 -0.09986428 -0.16214925 -0.17471191 0.37394717 -0.24073549 -0.12866205
0.08825238 0.34063548 0.074297324 -0.2384771 -0.3358657 -0.057720672 0.44965482 0.2236212
-0.03936877 -0.34116447 0.34853882 0.13600591 -0.19016403 0.020381745 0.47297207 0.055392493
-0.27801803 -0.052260645 0.3934815 0.20878999 -0.05288551 -0.05694239 0.27184936 0.24394272
00000000: 8fbe 90be 27ba eb3e a3d3 d1be df00 923e
00000010: 1744 cf3e eac5 84bd 585b 0c3e 1f9c d6be
00000020: 19b2 e9be 4924 e9bc 37d8 cf3e c493 b7bd
00000030: ec68 c0be 3690 c3be c8a2 bd3e 9d92 f6be
00000040: 5a67 b6bc 0891 1c3d 1753 353d 1562 28be
00000050: c966 1abe 42d1 183e 8ef3 bcbe 8c53 3bbe
00000060: 7708 253d 79c6 a3be 3262 89be 10eb c4be
00000070: 13d1 ddbe e152 c03e b362 463d 90b7 613e
00000080: 0891 973e 051e 873e 6666 94be cf49 2cbe
00000090: 4ef7 83be 5aab 023d d313 0f3d bdc1 c33e
000000a0: df75 213e d692 7abe d4b9 903e 54cf a73e
000000b0: 1ac1 e4be 7c8e e0be f146 62be 1060 b33c
000000c0: 6d5b 753e 8be4 db3e 83bc b93d b410 cfbe
000000d0: bdad c93d 4e05 ecbe 8fa9 a93e b108 bbbe
000000e0: 1d0c c1bd bddf 463e e12f 94be 1c28 c4be
000000f0: a35d a8bb fbce 5e3e 03bc d8be 0e3d ab3e
00000100: bdf7 ecbe 3d1d 81be ce58 18bc 8c9f 62be
00000110: 958c e3be 9b2a 2b3e 1955 b3bc da72 6b3e
00000120: 11c2 f0be dc6e eebc b032 58be e801 a1be
00000130: 39dd a7be c577 933e 9efe c4be 6a48 8bbe
00000140: 7dbb 8b3e 5c01 b93d 4047 b1be bbc8 dfbd
00000150: e008 80be 6712 5c3e 0333 0cbe 73f7 80be
00000160: b960 4b3e 5b0e cfbe 3f98 003f da57 c3be
00000170: ec9a 013e 7542 5abe 3d0d 4c3e 7641 e83e
00000180: b6c7 94bd 9a2a 4ebd a585 ccbd 740a 26be
00000190: aee7 32be 0176 bf3e 5d83 76be fcbf 03be
000001a0: aabd b43d c667 ae3e 3229 983d 5733 74be
000001b0: 97f6 abbe 836c 6cbd 2839 e63e f5fc 643e
000001c0: 2641 21bd 1cad aebe ae73 b23e 2245 0b3e
000001d0: 5cba 42be 9ef7 a63c 6529 f23e 3de3 623d
000001e0: 6158 8ebe 420f 56bd 6876 c93e 0bcd 553e
000001f0: 7a9e 58bd 6c3c 69bd d72f 8b3e 1fcc 793e

convs.2.bias f4 [8]
-0.018917078 -0.002576068 -0.01720573 -0.006546694 -0.021509333 -0.026204323 -0.010389514 -0.014562682
00000000: fdf7 9abc 40d3 28bb 08f3 8cbc a685 d6bb
00000010: 5734 b0bc 73aa d6bc c838 2abc 5198 6ebc

lns.0.weight f4 [32]
0.9927138 0.9890842 1.0208865 0.9908841 1.0095658 1.0093192 0.9869053 1.0269991
0.9892044 1.000256 0.9817305 1.019773 0.9976063 0.9892326 0.9794255 0.98372954
1.0025569 1.0150964 0.9947797 0.99333745 1.0045102 1.0224644 1.0125719 1.0142654
0.9859125 1.0008085 1.0072912 0.9879562 0.9983899 1.0167041 0.99019134 1.0009824
00000000: 7e22 7e3f 9f34 7d3f 69ac 823f 95aa 7d3f
00000010: 7439 813f 5f31 813f d3a5 7c3f b574 833f
00000020: 803c 7d3f 6308 803f b152 7b3f ec87 823f
00000030: 2063 7f3f 593e 7d3f a1bb 7a3f b3d5 7b3f
00000040: c953 803f aeee 813f e2a9 7e3f 5d4b 7e3f
00000050: ca93 803f 1de0 823f f59b 813f 73d3 813f
00000060: c364 7c3f 7e1a 803f ebee 803f b3ea 7c3f
00000070: 7b96 7f3f 5c23 823f 2e7d 7d3f 3120 803f

lns.0.bias f4 [32]
-0.0025091423 -0.0025843366 0.012532639 -0.007925017 -0.010330929 0.018231954 -0.0011855033 -0.014655778
0.008981766 0.0012153101 0.014121827 -0.0028559284 0.0036752997 -0.01263885 0.01696288 0.003717574
-0.0010055244 -0.01013391 0.0046850084 0.0048978096 0.013841429 -0.01067973 -0.013031901 -0.012144009
0.011873697 0.004753394 -0.0174379 -0.015568004 0.0007291323 -0.009833256 -0.01470138 -0.009456154
00000000: 6c70 24bb f95d 29bb b355 4d3c eed7 01bc
00000010: 0f43 29bc 2e5b 953c e462 9bba ca1e 70bc
00000020: 4228 133c 0a4b 9f3a 3c5f 673c 872a 3bbb
00000030: 4cdd 703b 2e13 4fbc bdf5 8a3c 8ba2 733b
00000040: cdcb 83ba b308 26bc b384 993b ce7d a03b
00000050: 29c7 623c 09fa 2ebc c183 55bc aaf7 46bc
00000060: e589 423c 5cc2 9b3b edd9 8ebc f110 7fbc
00000070: 3e23 3f3a aa1b 21bc 0fde 70bc fced 1abc

lns.1.weight f4 [16]
0.97964 0.9789905 0.9832349 0.9813283 0.9752139 0.97245556 0.9721734 0.9856042
0.9951829 0.979279 0.97233033 1.0183276 1.0005139 1.0033885 0.97664744 0.983755
00000000: b0c9 7a3f 1f9f 7a3f 48b5 7b3f 5538 7b3f
00000010: 9ea7 793f d9f2 783f 5be0 783f 8f50 7c3f
00000020: 4ec4 7e3f 07b2 7a3f a4ea 783f 8f58 823f
00000030: d710 803f 096f 803f 9105 7a3f 5ed7 7b3f

lns.1.bias f4 [16]
0.013167954 0.020217435 0.008084142 0.004183772 0.008770577 0.0130597465 0.011794885 0.010418408
0.01262765 0.019562839 0.012270034 -0.01701072 -0.0022165182 -0.0030519348 -0.018208655 -0.01547019
00000000: 67be 573c 099f a53c 5973 043c 0618 893b
00000010: 77b2 0f3c 8cf8 553c 553f 413c f8b1 2a3c
00000020: 34e4 4e3c 3f42 a03c 4108 493c 115a 8bbc
00000030: 0143 11bb f802 48bb 512a 95bc ae76 7dbc

lns.2.weight f4 [8]
1.0 1.0 1.0 1.0 1.0 1.0 1.0 1.0
00000000: 0000 803f 0000 803f 0000 803f 0000 803f
00000010: 0000 803f 0000 803f 0000 803f 0000 803f

lns.2.bias f4 [8]
0.0 0.0 0.0 0.0 0.0 0.0 0.0 0.0
00000000: 0000 0000 0000 0000 0000 0000 0000 0000
00000010: 0000 0000 0000 0000 0000 0000 0000 0000

post_mp.0.weight f4 [8, 8]
0.1295494 -0.039426308 0.23050272 -0.33507985 0.054824818 0.0054760017 0.21108669 -0.1131575
-0.015441658 -0.3127492 0.077015884 -0.26788828 -0.007417342 0.015694214 -0.20891304 -0.10848797
0.23835754 0.14279318 -0.11711666 0.0018920639 0.05808332 -0.028147178 0.14988561 0.20041646
-0.09794223 0.21510857 0.00501607 -0.24159133 -0.25860703 0.22671314 0.20096675 0.07438127
0.20511572 0.21165784 -0.25151753 0.016334625 -0.1256506 -0.054788645 0.023592753 -0.08830138
-0.21814738 0.23054436 -0.29159033 -0.087873794 0.31806952 0.16879408 -0.04291048 -0.14313394
-0.052966166 0.21508007 -0.1801396 -0.24602605 -0.035296876 0.21260478 0.2589791 0.3399939
0.082907066 0.17117758 0.2688647 0.02087497 0.36394942 0.24384372 -0.07870547 0.10586806
00000000: 99a8 043e 7b7d 21bd e808 6c3e 968f abbe
00000010: fd8f 603d 0870 b33b 1c27 583e 1fbf e7bd
00000020: 02ff 7cbc aa20 a0be 81ba 9d3d a728 89be
00000030: 2d0d f3bb 2791 803c 4ded 55be f12e debd
00000040: 0014 743e 6038 123e dcda efbd 21ff f73a
00000050: c6e8 6d3d e994 e6bc 9d7b 193e f939 4d3e
00000060: f095 c8bd 6c45 5c3e d85d a43b b863 77be
00000070: 2468 84be 7d27 683e 3aca 4d3e 3555 983d
00000080: db09 523e d5bc 583e e8c6 80be 31d0 853c
00000090: 8daa 00be 0f6a 60bd 9745 c13c 5bd7 b4bd
000000a0: 0762 5fbe d213 6c3e 544b 95be 2df7 b3bd
000000b0: 02da a23e 5bd8 2c3e e6c2 2fbd b491 12be
000000c0: 0df3 58bd f33d 5c3e 8476 38be 41ee 7bbe
000000d0: 7593 10bd 11b5 593e e998 843e ae13 ae3e
000000e0: 2ecb a93d 2d49 2f3e a2a8 893e fc01 ab3c
000000f0: 9457 ba3e 2bb2 793e 5530 a1bd 5ad1 d83d

post_mp.0.bias f4 [8]
0.23692864 -0.26548168 -0.27422497 -0.20795995 -0.21396679 -0.14750776 0.29700276 -0.05357027
00000000: 6c9d 723e 37ed 87be 3767 8cbe 74f3 54be
00000010: 1c1a 5bbe 460c 17be bf10 983e 806c 5bbd

post_mp.2.weight f4 [2, 8]
-0.043797772 -0.118423164 -0.16899996 -0.2788715 0.30795634 0.14668973 0.05631722 -0.18756998
-0.27241984 -0.051683404 -0.08370921 0.03408527 -0.007984116 -0.15435223 -0.068464756 0.118302874
00000000: 4b65 33bd d887 f2bd 530e 2dbe 3fc8 8ebe
00000010: 74ac 9d3e d535 163e e3ac 663d 5812 40be
00000020: 9d7a 8bbe fab1 53bd bc6f abbd ff9c 0b3d
00000030: cfcf 02bc 830e 1ebe 4037 8cbd c748 f23d

post_mp.2.bias f4 [2]
-0.12664008 -0.152904
00000000: f0ad 01be de92 1cbe
