GNN/model_min_weights.pth (torch, 12991 bytes, 16 tensors)

convs.0.weight f4 [32, 32]
0.070805915 0.070806146 0.16081733 0.27177942 0.1517805 0.16968249 0.1367622 -0.3033461
0.116905995 -0.25258416 0.1913176 -0.055684257 -0.26625755 0.09664476 -0.03575656 0.22136667
0.0053447247 -0.21715525 -0.31085712 -0.038498983 -0.14710578 -0.11258066 -0.30348772 0.056370854
-0.19330706 -0.057504117 0.118345186 -0.23492166 0.035718 0.07230452 0.16112512 0.15717503
-0.058434367 -0.13073474 -0.25055844 -0.13687445 0.15663682 0.18364142 0.2215239 0.21744867
0.07787244 -0.23269145 -0.14240037 -0.18029869 -0.2270147 0.090593755 0.24693757 -0.24330255
0.03488336 0.22348219 0.27946204 0.16401011 0.13774289 -0.15512434 -0.110243104 -0.09846736
-0.048549782 0.009120915 0.0031678476 -0.08350182 0.061959684 0.14812541 0.24206296 -0.061985232
-0.055009104 0.04663305 0.21848425 0.31151012 -0.2539023 0.21438344 0.24999535 -0.11274967
0.2661264 -0.08815843 0.1797413 0.015820626 0.17622656 -0.19874083 -0.06374519 0.080349326
-0.24058479 -0.11070291 0.11804829 -0.07758551 0.27788696 0.1466814 0.25050828 -0.29763886
-0.25294584 -0.2669159 0.04122063 -0.21694507 0.05805175 0.021065878 -0.112927 0.057436854
-0.059613075 -0.073995575 -0.016572539 0.31699643 -0.19629556 0.06726464 0.20194308 0.26338503
0.032396905 0.13112608 0.25434485 -0.058237635 0.26085013 0.13160893 -0.20893608 -0.17699206
0.1793505 -0.11193597 0.23664157 0.08329138 -0.1811696 -0.18033697 -0.14689553 0.07746463
0.03145038 -0.08612529 -0.2396402 -0.17897241 0.09427485 0.031772874 -0.11914564 0.2864499
0.11056665 0.29900843 -0.07518617 0.036541298 -0.2518144 0.13253906 -0.17934671 -0.2845284
0.014290405 -0.22359063 -0.08284357 0.17414214 -0.18994667 -0.0071907034 0.008402169 0.27833948
0.07588203 0.11634274 0.16080731 0.24310167 -0.072917156 0.05620136 -0.09453773 -0.09008046
0.06997356 0.067233995 -0.30234337 -0.15548246 -0.031073341 -0.28872305 -0.19697826 -0.13483952
0.11816675 0.20253892 0.30276158 -0.30899262 -0.21065372 0.2563211 0.14310129 -0.21328424
0.11732058 0.30818978 0.1089966 0.28202248 -0.022222433 0.17673238 -0.12214548 0.06312193
-0.01521193 -0.26510307 0.018043412 0.102497876 -0.19271807 0.02339575 -0.29196504 -0.1136687
0.0014604116 -0.03203229 0.054880064 -0.2126446 -0.25445837 0.2550665 -0.17706414 0.07894049
0.10477874 -0.030093295 0.08590795 -0.1257045 -0.019935325 -0.23474924 -0.10474474 0.029375657
-0.16941379 0.23714162 0.03523037 -0.30816492 -0.17756587 -0.09138513 -0.07372295 -0.29459393
0.0007709646 0.07549622 0.006664254 0.19253099 0.23966286 -0.11547379 0.0044571483 0.17297633
0.15970667 -0.14005025 -0.004360204 -0.087817356 -0.013767714 0.20677862 0.030183733 0.079963446
0.019776812 0.19646081 -0.158663 0.13533115 -0.12323862 0.14107193 0.15544233 -0.020358244
-0.21281438 -0.0516627 -0.16121499 -0.15455268 0.1129852 0.2512398 0.19287227 0.21972471
0.09718153 -0.011034472 0.21291077 -0.2374493 -0.10842906 -0.22230715 0.16778085 -0.17723073
0.27408656 0.15228055 0.09547825 0.038192615 -0.13345294 0.118597135 0.21005106 0.13423096
00000000: b102 913d d002 913d 4cad 243e ac26 8b3e
00000010: 596c 1b3e 3fc1 2d3e 640b 0c3e 2e50 9bbe
00000020: 696c ef3d b652 81be c3e8 433e 2d15 64bd
00000030: e952 88be b0ed c53d 7875 12bd f2ad 623e
00000040: cd22 af3b f25d 5ebe aa28 9fbe 1cb1 1dbd
00000050: e6a2 16be b090 e6bd be62 9bbe 20e5 663d
00000060: 49f2 45be 7089 6bbd f65e f23d 4e8f 70be
00000070: 0a4d 123d 6414 943d fcfd 243e 7ef2 203e
00000080: e058 6fbd 54df 05be 3249 80be d128 0cbe
00000090: 6765 203e 7f0c 3c3e 29d7 623e ddaa 5e3e
000000a0: 967b 9f3d ab46 6ebe 67d1 11be 38a0 38be
000000b0: 8b76 68be 3889 b93d 34dd 7c3e 4e24 79be
000000c0: dbe1 0e3d 84d8 643e a615 8f3e 44f2 273e
000000d0: 790c 0d3e ead8 1ebe 23c7 e1bd 41a9 c9bd
000000e0: 23dc 46bd e46f 153c aa9b 4f3b 0103 abbd
000000f0: 70c9 7d3d 30ae 173e 5adf 773e 3ae4 7dbd
00000100: 3a51 61bd 4c02 3f3d 56ba 5f3e 417e 9f3e
00000110: 7bff 81be 5587 5b3e c8fe 7f3e 4de9 e6bd
00000120: b841 883e 688c b4bd 1a0e 383e 429a 813c
00000130: bc74 343e b782 4bbe d78c 82bd 308e a43d
00000140: dc5b 76be 35b8 e2bd 4dc3 f13d 27e5 9ebd
00000150: 3347 8e3e a633 163e 9f42 803e 1f64 98be
00000160: 1e82 81be 33a9 88be f7d6 283d d926 5ebe
00000170: acc7 6d3d 5992 ac3c 4546 e7bd e842 6b3d
00000180: d72c 74bd fe8a 97bd 22c3 87bc 5b4d a23e
00000190: b401 49be 0bc2 893d 2bca 4e3e 67da 863e
000001a0: 9eb2 043d ea45 063e 7d39 823e 968a 6ebd
000001b0: 268e 853e 7ec4 063e 57f3 55be 683d 35be
000001c0: a8a7 373e b03e e5bd 2b52 723e ac94 aa3d
000001d0: 8684 39be 41aa 38be c86b 16be c7a5 9e3d
000001e0: 1dd2 003d 7562 b0bd 3e64 75be 8b44 37be
000001f0: 2c13 c13d 4624 023d a102 f4bd 90a9 923e
00000200: c570 e23d a217 993e 35fb 99bd 54ac 153d
00000210: d1ed 80be 52b8 073e aaa6 37be b5ad 91be
00000220: 4e22 6a3c f1f4 64be e4a9 a9bd 5152 323e
00000230: 6181 42be fe9f ebbb 40a9 093c 8382 8e3e
00000240: 0a68 9b3d 1a45 ee3d acaa 243e a5ef 783e
00000250: 9755 95bd 6633 663d ff9c c1bd 1b7c b8bd
00000260: 4c4e 8f3d fab1 893d c0cc 9abe cb36 1fbe
00000270: 858d febc 82d3 93be abb4 49be 5f13 0abe
00000280: 6901 f23d 5d66 4f3e 9103 9b3e 4834 9ebe
00000290: 9cb5 57be 853c 833e 2589 123e 2f67 5abe
000002a0: c645 f03d 0dcb 9d3e 9c39 df3d 4065 903e
000002b0: d20b b6bc 55f9 343e 6927 fabd 1246 813d
000002c0: 753b 79bc 97bb 87be c7cf 933c 68ea d13d
000002d0: e357 45be 72a8 bf3c 717c 95be 23cb e8bd
000002e0: 486b bf3a 4a34 03bd ebc9 603d 82bf 59be
000002f0: 5e48 82be 1498 823e 4d50 35be 8dab a13d
00000300: 3c96 d63d 3786 f6bc 82f0 af3d aeb8 00be
00000310: 684f a3bc 1b62 70be 6984 d6bd 38a5 f03c
00000320: cf7a 2dbe 41d5 723e b84d 103d cbc7 9dbe
00000330: d4d3 35be 2128 bbbd 0ffc 96bd 04d5 96be
00000340: 8f1a 4a3a c39d 9a3d d05f da3b d826 453e
00000350: 2e6a 753e 867d ecbd 450d 923b b520 313e
00000360: 258a 233e 5569 0fbe 0be0 8ebb 96d9 b3bd
00000370: fa91 61bc c6bd 533e e043 f73c e0c3 a33d
00000380: fb02 a23c 062d 493e 8e78 22be 4094 0a3e
00000390: 8864 fcbd 2975 103e 462c 1f3e 55c6 a6bc
000003a0: 03ec 59be 449c 53bd 8b15 25be 0f43 1ebe
000003b0: c964 e73d 81a2 803e 4f80 453e 84ff 603e
000003c0: 1c07 c73d eec9 34bc 4805 5a3e e925 73be
000003d0: 0e10 debd 7ca4 63be bece 2b3e f97b 35be
000003e0: 1355 8c3e 6fef 1b3e 1a8a c33d dc6f 1c3d
000003f0: e3a7 08be 0ee3 f23d a017 573e d773 093e

convs.0.bias f4 [32]
0.013538059 0.0040881615 0.016616436 0.0025666514 0.0031147564 -0.0012982065 0.017184813 0.0033564214
0.021354787 0.0008852094 0.0014228123 -0.006176638 -0.01085003 0.022449741 0.006582201 0.0058570164
0.019014567 -0.0066059805 -0.024858782 -0.012987676 0.01198197 -0.014648341 -0.019931374 0.0060252594
0.021123163 -0.013056698 -0.010602145 0.0 -0.019558763 -0.019541508 0.011294542 0.010555952
00000000: bcce 5d3c fcf5 853b 311f 883c 4435 283b
00000010: f120 4c3b 9528 aaba 2ac7 8c3c 68f7 5b3b
00000020: 3cf0 ae3c 660d 683a a97d ba3a 6565 cabb
00000030: 53c4 31bc 85e8 b73c 81af d73b 37ec bf3b
00000040: 70c4 9b3c fb76 d8bb a5a4 cbbc 43ca 54bc
00000050: 0650 443c 98ff 6fbc 1f47 a3bc 8a6f c53b
00000060: 7c0a ad3c c3eb 55bc 9fb4 2dbc 0000 0000
00000070: b339 a0bc 8315 a0bc be0c 393c dff2 2c3c

convs.1.weight f4 [32, 16]
-0.32183427 0.2938772 -0.22732925 0.22176753 0.25535828 -0.16212273 0.048500884 -0.08784744
0.28575417 -0.0071391845 0.19590557 0.11053789 0.22857651 0.09784555 0.22546515 0.019732252
0.28537965 0.065780975 -0.0032073366 -0.3179728 -0.04453755 0.11334457 -0.017055716 0.010204909
0.26398972 -0.19863704 0.25307956 -0.19527277 0.16282915 0.22057751 0.15428294 0.26870096
-0.037427776 -0.1673826 -0.27771696 0.10709455 0.32436317 -0.1571373 -0.026044268 -0.078932315
-0.06381133 0.27962828 0.17136058 0.33357945 0.115474634 -0.05668255 0.0268438 -0.21027158
-0.05620067 -0.06876056 -0.22223093 0.19392711 0.099157184 -0.3402526 -0.028887277 0.041898806
0.026740564 0.20179106 -0.13655709 -0.16975437 0.25109807 -0.06956038 -0.30157074 0.35285538
-0.055166587 -0.20086966 0.09849145 -0.13322711 -0.28863794 0.008779306 0.026355075 0.15844488
0.07526905 0.055945963 -0.2398392 0.13006458 -0.18159345 -0.11259495 -0.18381613 -0.12857841
-0.13863494 -0.22652672 0.029887836 0.09330669 0.13844314 0.14252321 0.11870523 -0.0054272935
-0.1895479 -0.23945647 0.10661832 -0.07133297 0.26276454 0.10274764 -0.029304115 -0.3072176
-0.0589161 -0.2874541 -0.25074464 0.17967492 -0.05750576 -0.103521034 0.17903683 0.10095632
-0.3343548 0.19857666 -0.25689846 0.27388987 -0.13936344 0.36330688 0.16085418 0.051387776
-0.28810754 0.16158116 -0.2919926 0.21163584 -0.24466477 0.2733626 -0.27375782 0.08314937
0.124731846 0.009238382 0.20444578 -0.20597398 -0.008913221 0.35700867 0.2516431 -0.28042328
0.15185928 -0.14217073 -0.11358712 0.26333675 0.046824686 0.30187085 0.32818678 0.03469187
-0.037368417 -0.29544538 -0.102203116 -0.05217208 0.27695915 -0.0075357147 -0.23483245 -0.22129779
-0.24680854 0.29064626 0.12652354 0.08448733 0.12893017 0.23557146 -0.09932203 0.04190388
0.27648658 -0.17874251 0.11278694 0.017829102 0.15964592 -0.34292647 -0.30943245 0.08134814
-0.32579964 -0.058757633 0.07139505 0.15007831 0.01652417 -0.36200303 0.0734572 -0.16509634
-0.12145835 0.0800976 0.010087603 0.27611163 0.19605514 -0.021790365 0.15158425 -0.16120857
0.27688357 -0.082382984 0.3183021 -0.13409972 0.08840324 0.33702978 -0.029383553 -0.33796224
-0.15165184 0.33183047 0.33192405 0.17810096 0.35901526 -0.06952115 0.027147695 0.109485194
-0.012800083 -0.08888782 -0.13751958 -0.2725944 -0.28954074 -0.00517985 -0.13150951 -0.114133686
0.291118 0.281899 0.18426593 0.19370204 0.30569056 -0.24434361 -0.023974493 -0.052468266
-0.33083344 0.1914186 -0.33279076 -0.12473364 0.05041519 0.121791445 0.20710099 -0.22899352
-0.0045218514 -0.23988514 0.22574091 0.18340576 -0.32937708 0.20813763 -0.014737654 0.008882937
-0.14402896 -0.15163164 0.31999716 -0.16236793 0.2484523 -0.07299382 -0.20970847 0.18381965
0.27385545 0.16454007 0.16210277 0.123957604 -0.01599561 0.10307296 -0.0216529 -0.23077826
0.17094517 0.04714422 -0.120496824 0.23366526 0.010040987 -0.24749365 -0.018470755 -0.25703835
-0.18754467 -0.11462444 -0.025097413 -0.2539671 -0.2572544 -0.28596684 -0.15756421 0.1184137
00000000: 76c7 a4be 1377 963e 00c9 68be 0717 633e
00000010: 52be 823e 8003 26be dda8 463d 5ce9 b3bd
00000020: 5f4e 923e d2ef e9bb 789b 483e b061 e23d
00000030: f60f 6a3e 3f63 c83d 56e0 663e 88a5 a13c
00000040: 481d 923e 2db8 863d 2e32 52bb 55cd a2be
00000050: 026d 36bd 3321 e83d 6eb8 8bbc 7e32 273c
00000060: a929 873e 8267 4bbe a593 813e 96f5 47be
00000070: afbc 263e 12df 613e 59fc 1d3e 2c93 893e
00000080: de4d 19bd 5866 2bbe eb30 8ebe 6354 db3d
00000090: ee12 a63e 9ae8 20be ca5a d5bc 44a7 a1bd
000000a0: 84af 82bd 702b 8f3e 2679 2f3e edca aa3e
000000b0: f77d ec3d f62b 68bd 87e7 db3c 6f51 57be
000000c0: ac32 66bd 56d2 8cbd 8190 63be d494 463e
000000d0: ec12 cb3d 9735 aebe 03a5 ecbc 159e 2b3d
000000e0: 070f db3c 51a2 4e3e 9fd5 0bbe 17d4 2dbe
000000f0: ed8f 803e ac75 8ebd 7b67 9abe 76a9 b43e
00000100: 5cf6 61bd c7b0 4dbe e3b5 c93d b06c 08be
00000110: 5ac8 93be 14d7 0f3c 99e6 d73c 603f 223e
00000120: a926 9a3d 9827 653d 6898 75be a62f 053e
00000130: a2f3 39be 2e98 e6bd 4c3a 3cbe 0faa 03be
00000140: 51f6 0dbe 9ff6 67be 56d7 f43c 9417 bf3d
00000150: 0ac4 0d3e 9bf1 113e ba1b f33d 70d7 b1bb
00000160: d818 42be 1434 75be b55a da3d 0517 92bd
00000170: 1389 863e 5b6d d23d 2f0f f0bc a04b 9dbe
00000180: 0252 71bd 2f2d 93be 9a61 80be b4fc 373e
00000190: 298b 6bbd d602 d4bd 6e55 373e 30c2 ce3d
000001a0: 8d30 abbe ae57 4b3e 3288 83be 4b3b 8c3e
000001b0: 4ab5 0ebe 5c03 ba3e f5b6 243e fd7b 523d
000001c0: d582 93be 8875 253e 0e80 95be 11b7 583e
000001d0: 6789 7abe 2ff6 8b3e fc29 8cbe 384a aa3d
000001e0: 6973 ff3d 955c 173c 3c5a 513e d8ea 52be
000001f0: c208 12bc d7c9 b63e 5dd7 803e a493 8fbe
00000200: 0081 1b3e 3495 11be 5da0 e8bd 13d4 863e
00000210: 3ecb 3f3d d18e 9a3e 1908 a83e 1019 0e3d
00000220: a00f 19bd 9e44 97be de4f d1bd 64b2 55bd
00000230: 97cd 8d3e 28ee f6bb eb77 70be e39b 62be
00000240: 61bb 7cbe 96cf 943e 638f 013e b107 ad3d
00000250: 4506 043e a539 713e 5969 cbbd 67a3 2b3d
00000260: a68f 8d3e 4708 37be d7fc e63d 560e 923c
00000270: 387a 233e 0f94 afbe ee6d 9ebe db99 a63d
00000280: 36cf a6be d8ab 70bd 9137 923d 21ae 193e
00000290: b25d 873c 7658 b9be ba70 963d 040f 29be
000002a0: 28bf f8bd 360a a43d 7946 253c 815e 8d3e
000002b0: aec2 483e b581 b2bc e738 1b3e dc13 25be
000002c0: afc3 8d3e 69b8 a8bd 7ef8 a23e 7051 09be
000002d0: c20c b53d 2b8f ac3e c7b5 f0bc 6309 adbe
000002e0: 9f4a 1bbe afe5 a93e f3f1 a93e 1960 363e
000002f0: d9d0 b73e 1b61 8ebd d864 de3c c639 e03d
00000300: 70b7 51bc d10a b6bd efd1 0cbe 7e91 8bbe
00000310: af3e 94be bbbb a9bb 6eaa 06be ecbe e9bd
00000320: 6b0d 953e 1155 903e 35b0 3c3e d459 463e
00000330: 7983 9c3e 3635 7abe 2866 c4bc f7e8 56bd
00000340: 0063 a9be 3d03 443e 8d63 aabe 5a74 ffbd
00000350: 2980 4e3d cb6d f93d 4812 543e 477d 6abe
00000360: 0a2c 94bb 73a4 75be a028 673e b8ce 3b3e
00000370: 1da4 a8be 0822 553e 3376 71bc bd89 113c
00000380: 547c 13be 5345 1bbe abd6 a33e c743 26be
00000390: 486a 7e3e c97d 95bd d1bd 56be 383b 3c3e
000003a0: c836 8c3e 317d 283e 45fe 253e 7cdd fd3d
000003b0: 3a09 83bc eb17 d33d 6c61 b1bc 2351 6cbe
000003c0: 400c 2f3e 4c1a 413d 0ac7 f6bd f245 6f3e
000003d0: f482 243c fa6e 7dbe fb4f 97bc 889a 83be
000003e0: b60b 40be 38c0 eabd 1799 cdbc fa07 82be
000003f0: d9b6 83be 3f6a 92be 8358 21be e282 f23d

convs.1.bias f4 [16]
0.00465028 0.011329899 -0.01988021 -0.017256083 -0.0011556736 -0.018879673 0.025554953 0.015020599
-0.0064087347 -0.019645154 -0.010212845 0.029502325 -0.010374822 0.026764853 0.009423999 0.0007897377
00000000: 6061 983b 0aa1 393c d2db a2bc a15c 8dbc
00000010: f979 97ba 8ba9 9abc 9f58 d13c f518 763c
00000020: 5d00 d2bb e0ee a0bc c753 27bc dcae f13c
00000030: 28fb 29bc f741 db3c 1e67 1a3c 6606 4f3a

convs.2.weight f4 [16, 8]
0.38830453 -0.36467895 -0.4538521 -0.18375991 -0.28742006 0.050179273 0.46309176 0.40817168
-0.15625544 -0.11770415 -0.36073634 0.08586107 0.12871078 -0.042429615 -0.25743714 0.4162206
0.45955068 -0.07907571 0.39559644 -0.20042263 0.40595144 -0.16641916 0.47228158 0.38077387
-0.4548798 -0.20947659 0.0039174026 0.3654245 0.38934875 0.020993413 -0.070695736 0.2049115
0.4093868 -0.20548654 0.08412295 0.287112 0.2766302 -0.44824663 -0.42868713 0.4553945
-0.04738565 -0.07345388 0.3463296 0.42059505 -0.17756964 -0.056895044 -0.31272605 0.38594747
0.02651722 -0.1595251 -0.270674 -0.032416146 -0.22834589 -0.16667052 -0.23142362 -0.00222133
0.3804322 0.17456615 -0.24165314 0.0627573 -0.43123123 0.15000354 0.31877342 0.13050964
0.28143498 -0.25092977 -0.14821605 0.21500155 -0.069371074 -0.03723171 -0.46757588 0.36353138
-0.3645967 0.06289479 -0.2643011 0.4921393 0.41923887 -0.11777697 0.37295 0.037639197
0.33353615 -0.12502195 0.030303925 0.2760646 -0.19603708 -0.5033941 -0.44530243 0.4406194
-0.34994546 -0.32803553 -0.23782352 -0.24891053 0.011299847 0.18993153 0.08769092 0.3672321
0.2615062 -0.35755736 -0.06413105 0.009161634 0.325764 0.47402793 -0.16841471 0.13761026
0.22310627 0.06448504 -0.40276277 -0.16969901 0.038025755 -0.25944558 -0.12952921 0.22498074
-0.24401514 -0.41350418 0.31653735 -0.2864961 0.28046215 0.45190024 -0.40001628 -0.33831558
-0.2843487 0.38467088 0.009543081 -0.13745481 0.24543644 0.012820485 -0.42471117 -0.33977798
00000000: dacf c63e 33b7 babe 4d5f e8be 8f2b 3cbe
00000010: b928 93be c888 4d3d 5d1a ed3e e1fb d03e
00000020: 6d01 20be e00e f1bd 6fb2 b8be eed7 af3d
00000030: c2cc 033e adca 2dbd cdce 83be de1a d53e
00000040: 3a4a eb3e 72f2 a1bd 9e8b ca3e 973b 4dbe
00000050: ded8 cf3e c969 2abe e4ce f13e cbf4 c23e
00000060: 01e6 e8be 0881 56be 8e5d 803b ec18 bb3e
00000070: b858 c73e 61fa ab3c edc8 90bd 52d4 513e
00000080: 269b d13e 106b 52be a748 ac3d 5800 933e
00000090: 79a2 8d3e 9580 e5be e17c dbbe 7829 e93e
000000a0: 7517 42bd fd6e 96bd 1d52 b13e 3c58 d73e
000000b0: d1d4 35be c70a 69bd a11d a0be e89a c53e
000000c0: a43a d93c 8c5a 23be c895 8abe cbc6 04bd
000000d0: 81d3 69be adab 2abe 50fa 6cbe bc93 11bb
000000e0: 02c8 c23e 78c1 323e ec73 77be e686 803d
000000f0: 57ca dcbe 879a 193e 4536 a33e 52a4 053e
00000100: 3f18 903e de79 80be f3c5 17be 5e29 5c3e
00000110: 6c12 8ebd 4780 18bd 1b66 efbe c920 ba3e
00000120: 6bac babe fcce 803d 7952 87be aff9 fb3e
00000130: 7aa6 d63e 0d35 f1bd 4df3 be3e 8f2b 1a3d
00000140: 40c5 aa3e c105 00be f03f f83c 5758 8d3e
00000150: f2bd 48be 70de 00bf aefe e3be de98 e13e
00000160: 0d2c b3be 46f4 a7be 0288 73be 67e2 7ebe
00000170: fe22 393c 697d 423e 4c97 b33d d905 bc3e
00000180: 24e4 853e c211 b7be 2457 83bd ae1a 163c
00000190: 8aca a63e cab3 f23e e874 2cbe b4e9 0c3e
000001a0: f875 643e bc10 843d ec36 cebe 94c5 2dbe
000001b0: e5c0 1b3d 0dd6 84be 4ea3 04be 5a61 663e
000001c0: 1bdf 79be d2b6 d3be 2f11 a23e 9eaf 92be
000001d0: bc98 8f3e 785f e73e efce ccbe b337 adbe
000001e0: 2796 91be 95f3 c43e 955a 1c3c f4c0 0cbe
000001f0: b153 7b3e 030d 523c be73 d9be 61f7 adbe

convs.2.bias f4 [8]
-0.030443467 -0.006276434 -0.02204936 -0.026893383 -0.024844525 0.0112877125 -0.024195997 -0.016728947
00000000: 9464 f9bc 8baa cdbb dca0 b4bc 834f dcbc
00000010: bf86 cbbc 19f0 383c af36 c6bc 250b 89bc

lns.0.weight f4 [32]
0.98297584 0.98236024 1.0002583 0.992823 0.99139637 1.0086868 1.0185596 1.0021172
1.026305 1.0276958 0.99674374 1.0207503 1.0031561 1.0117955 0.99081266 1.0227283
1.0117154 0.9910504 0.97417253 0.9865281 1.008004 1.0210124 1.0316929 1.0199231
0.9802281 1.0144804 0.9818909 0.97042143 1.0160782 0.9834021 0.9992604 0.9841167
00000000: 4ea4 7b3f f67b 7b3f 7708 803f a629 7e3f
00000010: 27cc 7d3f a61c 813f 2960 823f 6045 803f
00000020: f65d 833f 898b 833f 992a 7f3f f2a7 823f
00000030: 6b67 803f 8482 813f e6a5 7d3f c3e8 823f
00000040: e47f 813f 7bb5 7d3f 5f63 793f 1b8d 7c3f
00000050: 4606 813f 89b0 823f 830e 843f d78c 823f
00000060: 3bf0 7a3f 7eda 813f 345d 7b3f 8a6d 783f
00000070: da0e 823f 3dc0 7b3f 88cf 7f3f 12ef 7b3f

lns.0.bias f4 [32]
0.021927744 0.013486188 0.018146582 0.0009880847 0.009438748 -0.0012735534 0.023322215 -0.0050554876
0.0058591217 -0.020421473 0.00015930842 -0.019179765 -0.004257214 0.03343608 0.0018241144 -0.021939272
0.024441363 -0.010529764 -0.02207809 -0.0107486425 0.012513927 -0.02259924 -0.026785763 -0.0073976303
0.019962655 -0.015527502 0.014797613 0.029246695 -0.030235197 -0.016271807 0.011789993 0.019231388
00000000: d0a1 b33c 2cf5 5c3c 24a8 943c 9f82 813a
00000010: faa4 1a3c 5ced a6ba 3b0e bf3c 81a8 a5bb
00000020: e0fd bf3b ef4a a7bc 070c 2739 e21e 9dbc
00000030: 1980 8bbb 45f4 083d 1f17 ef3a fdb9 b3bc
00000040: 4139 c83c 0885 2cbc 1cdd b4bc 131b 30bc
00000050: 3707 4d3c 0b22 b9bc d16d dbbc d267 f2bb
00000060: b988 a33c 1067 7ebc b071 723c c496 ef3c
00000070: ceaf f7bc 744c 85bc d12a 413c 258b 9d3c

lns.1.weight f4 [16]
0.9716642 0.9788151 0.9865968 0.9731762 1.0222629 0.97750545 0.9856321 0.97112435
0.9752518 1.0188588 1.0120281 0.97249156 1.0032036 0.9842692 0.9659451 0.97314185
00000000: fcbe 783f a093 7a3f 9c91 7c3f 1322 793f
00000010: 83d9 823f cc3d 7a3f 6352 7c3f 9b9b 783f
00000020: 1aaa 793f f769 823f 238a 813f 35f5 783f
00000030: fa68 803f 11f9 7b3f 2e48 773f d31f 793f

lns.1.bias f4 [16]
0.02539022 0.015491553 -0.023317678 -0.01819655 -0.021620184 -0.019543694 0.026166402 0.008449404
-0.014142749 -0.026725978 -0.017996058 0.034947548 -0.018725786 0.022679713 0.030020509 0.017065058
00000000: 27ff cf3c 48d0 7d3c b704 bfbc ee10 95bc
00000010: d01c b1bc 191a a0bc ec5a d63c 5e6f 0a3c
00000020: fdb6 67bc 70f0 dabc 786c 93bc 2925 0f3d
00000030: d266 99bc ceca b93c 92ed f53c 05cc 8b3c

lns.2.weight f4 [8]
1.0 1.0 1.0 1.0 1.0 1.0 1.0 1.0
00000000: 0000 803f 0000 803f 0000 803f 0000 803f
00000010: 0000 803f 0000 803f 0000 803f 0000 803f

lns.2.bias f4 [8]
0.0 0.0 0.0 0.0 0.0 0.0 0.0 0.0
00000000: 0000 0000 0000 0000 0000 0000 0000 0000
00000010: 0000 0000 0000 0000 0000 0000 0000 0000

post_mp.0.weight f4 [8, 8]
0.27917054 -0.29982823 -0.12048711 -0.3211128 -0.099579915 -0.16757494 0.08959017 -0.20857958
0.15243272 -0.25367963 -0.0071533807 -0.08201744 0.021647247 -0.12979442 0.12828769 0.08297826
0.17365761 -0.25109687 0.15778795 0.15708587 0.29802254 -0.31437021 0.023680871 -0.03386553
-0.3124803 0.04205755 -0.082673095 -0.033031233 -0.22317831 0.1309459 -0.26616472 -0.105918
0.2778758 0.13542658 -0.22634774 0.14938496 0.33624908 0.3067662 0.36029562 -0.28489944
0.28937626 0.11841033 -0.269921 0.27673104 0.20914239 0.24566393 -0.2883149 -0.0059599318
0.36822215 -0.045196805 -0.32368064 0.19032489 -0.20035812 0.123596415 -0.3082449 -0.016301244
0.01802592 0.2626035 -0.0006157626 -0.15220882 0.013029226 -0.1723726 -0.13571116 -0.31393847
00000000: 71ef 8e3e 1683 99be f2c1 f6bd e668 a4be
00000010: 8ef0 cbbd c498 2bbe 0d7b b73d e395 55be
00000020: 5317 1c3e 4ce2 81be e866 eabb c2f8 a7bd
00000030: 9155 b13c d4e8 04be d95d 033e 82f0 a93d
00000040: 4dd3 313e c58f 80be 2a93 213e 1edb 203e
00000050: 6996 983e 22f5 a0be 63fe c13c 95b6 0abd
00000060: 6bfd 9fbe 8a44 2c3d 8350 a9bd c24b 07bd
00000070: db88 64be af16 063e be46 88be 89eb d8bd
00000080: bd45 8e3e 44ad 0a3e b4c7 67be 5ff8 183e
00000090: d728 ac3e 7610 9d3e ab78 b83e 57de 91be
000000a0: 2029 943e 1d81 f23d 1633 8abe b1af 8d3e
000000b0: 6c29 563e 538f 7b3e 039e 93be 884b c3bb
000000c0: 9d87 bc3e 4920 39bd 78b9 a5be 87e4 423e
000000d0: ae2a 4dbe 1e20 fd3d 47d2 9dbe 308a 85bc
000000e0: 18ab 933c f773 863e 216b 21ba a1dc 1bbe
000000f0: 8978 553c 7182 30be def7 0abe 8bbc a0be

post_mp.0.bias f4 [8]
-0.23730418 -0.2588726 0.25245175 0.27123776 0.039656032 0.01992186 0.09254893 -0.120638475
00000000: deff 72be f38a 84be 5b41 813e addf 8a3e
00000010: 5d6e 223d 2b33 a33c 4b8a bd3d 4e11 f7bd

post_mp.2.weight f4 [2, 8]
-0.206836 0.109887145 -0.08866083 0.2088296 0.22470282 -0.3043181 0.11754901 0.0794508
-0.047959864 -0.2401852 0.2688557 -0.16991374 -0.12747021 0.07172964 -0.13243887 -0.08377001
00000000: d1cc 53be 830c e13d cf93 b5bd 6dd7 553e
00000010: 7f18 663e 95cf 9bbe 89bd f03d 1ab7 a23d
00000020: 9071 44bd 1cf3 75be 74a7 893e defd 2dbe
00000030: 8d87 02be fde6 923d 0e9e 07be 9c8f abbd

post_mp.2.bias f4 [2]
-0.13087574 -0.13906604
00000000: 4a04 06be 5467 0ebe
