GNN/model_min_weights.pth (torch, 12991 bytes, 16 tensors)

convs.0.weight f4 [32, 32]
00000000: 8874 293e 58fd 283e 43cf a13e 455f a1bd
00000010: 089e 433e 4f76 a2be c54b 81be 256c 63be
00000020: 665e bf3d 4af5 d23d 65e5 e9bc 5e72 703d
00000030: b86b 963e d517 31ba 6ea0 9b3e 152f be3c
00000040: da3c 493e 06ba d7bd 0ad7 ebb7 77c5 463e
00000050: 0183 1b3e 6176 97bb 1a0f 8e3e 016d c13d
00000060: 52a8 9dbc db78 3b3e 0ff6 95ba 6c2a e5bd
00000070: ebd5 993d 96e0 663e 6c02 a93e 01df 87bd
00000080: 84ee 2b3e d420 31be 2f9a 8a3e af0e 5ebe
00000090: 3b10 823e 3949 28bb 3f1b 7a3e 3e3d 4dbe
000000a0: a097 84be b562 5ebe 802a 303e 1ea5 903d
000000b0: 08e5 6dbe 5ffb 97be 9235 773e 664b 783e
000000c0: e144 973c c244 803e f5be 33bd df9a 3fbe
000000d0: 967b 8dbe 1f34 19be 0901 37be 0702 743e
000000e0: 7d26 343e 329e 513e ee71 be3d e9f4 323c
000000f0: 0a35 17be 5fe1 d4bd 37db 553e 501f 953e
00000100: 9a86 9d3e d0ec 743e 60ec 08be 58c0 663b
00000110: 8b7e 42be fa04 b1bc d3f2 9ebd be56 0cbe
00000120: 23dc 6c3e d343 193e de42 6abe 8e85 6c3e
00000130: 41af 393e 0f21 bb3d 282a 893e 4b5a 6cbe
00000140: f540 543e 7735 c53d db66 94be d158 633e
00000150: 2ec1 b33d 6b8b b3bd 2a39 423e cfcc 81be
00000160: c3db 903e 9b11 63be 6e1a fcbd de81 a8bd
00000170: df40 8c3e 4296 febc f753 343e 62a4 2f3d
00000180: 2067 073e 9121 743e 7f7a 41be c7a6 4abe
00000190: 07fe 82be e465 27be fc3b ce3c 6283 f9bd
000001a0: 04d0 323d c9ca 74be f052 893e 690c 69be
000001b0: 453b 19bc b8aa 81bd 7ca6 d4bd f2ad 5a3d
000001c0: 84ee 77be b4bf 10be 27d5 39be 0e0c 803e
000001d0: 2fb0 e53b 10f9 8dbd 226b a73d 5bdd 2abe
000001e0: b94e 92be 8762 37bc c37f 88be db2d 01bd
000001f0: 21ab 14be 25ee 99be 09cb ca3d 3f1c 2e3e
00000200: 689a 5cbe b248 2abe 4152 d23d 3f6d c33d
00000210: 7d45 2f3e 15d4 073d eac9 673e 5e3b 68be
00000220: b713 fe3d fe7a 26bd c211 3a3e 14e5 6ebd
00000230: 9f85 5ebe 4e1a 4cbe 0cf5 32bb 2cd8 50be
00000240: d8ec 743e 6217 8c3e 4bdd 643e 80bc a4bd
00000250: caa9 933e f93b 14be bb47 93be b0e0 4ebe
00000260: 3db3 893e 54e8 4a3e 0e6b 163e 6edd 963e
00000270: ea21 8dbe f748 98bd 1d23 bcbd 4aa9 67be
00000280: cbda 9fbd 9973 3abe f719 05be 755c 7fbe
00000290: cfe4 7c3e 17c4 c33d 84ac 3bbe 10e0 5b3e
000002a0: 1541 e93c 7734 a5bd 8835 38bd 342a a43d
000002b0: 25f5 9fbe 35bb 753d e38d 723e 9ac2 1cbd
000002c0: 7f6b 27be 7f95 1e3e 2de4 033d ac00 97bd
000002d0: abda a13d 3193 9c3e 0e46 fbbd 8e0b 22be
000002e0: bf9e 5dbe 95c2 81bc 2dff cfbd 8cbe f2bd
000002f0: 5433 a43d e2eb 543e 7b90 d73d afac 50be
00000300: be80 663e 52d7 753e 7955 953e e05b 20be
00000310: 8587 603d 3343 933e 9574 593d 14a2 a03d
00000320: 00a9 1bbe 1791 a2bd 503b 8dbe 5507 593e
00000330: d7dd 153e 2a63 a2bd 6864 2a3e 462b 1abe
00000340: 852c f6bd c615 d8bd 36b4 1d3e 8a34 8d3e
00000350: 01ba 8b3e bd14 95bd 4132 71bd d7d8 a33e
00000360: 4dc2 17be 8e91 fcbd 1017 d5bd 32e5 363c
00000370: 07ec 903e b463 4ebe 23b7 09be ecdf e63c
00000380: 1c86 353e 2d62 d93d e992 a13d 2a59 08be
00000390: 2d7a 4dbe ed74 a33c 00da 5d3d 390c 2c3e
000003a0: 2099 823e 92bc a73d 0173 38be 6733 33be
000003b0: e6ec 3a3e 197d 7b3e fc30 dd3d 2208 09be
000003c0: ee46 6b3e c1e5 45bd be61 0a3e 6e67 86bc
000003d0: bcbd 9ebd d3c9 153e 8326 a8bd ccbe 81bd
000003e0: e79e 30be 75ac 443e e7a0 693e 24d7 953e
000003f0: a11f 99be 4ae6 7fbd dcff a0bd e51d fdbd
0.1654836 0.16502893 0.3160344 -0.07879499 0.19103253 -0.31730887 -0.2525312 -0.22209223
0.09344177 0.103006914 -0.028551767 0.05870282 0.29379058 -0.00067555654 0.30395836 0.02321581
0.1965212 -0.10533528 -2.8114318e-05 0.19411264 0.15186693 -0.004622266 0.27745897 0.09444619
-0.0192453 0.18307821 -0.0011441129 -0.11189732 0.07511505 0.2254661 0.3300966 -0.066343315
0.16790205 -0.17297679 0.27070758 -0.21685289 0.25403008 -0.002567841 0.24424456 -0.20042893
-0.2589693 -0.21717341 0.17203712 0.070627436 -0.232319 -0.29683968 0.24141529 0.24247512
0.018465461 0.25052458 -0.043883283 -0.18711422 -0.2763335 -0.14961289 -0.17871489 0.23828898
0.17592807 0.20470503 0.09299074 0.010922649 -0.14766327 -0.103945486 0.20884405 0.29125452
0.30766755 0.23918462 -0.1337142 0.003520986 -0.18993585 -0.021608818 -0.07761159 -0.13704965
0.2313085 0.14967279 -0.2287707 0.23097822 0.1813326 0.09137165 0.26789975 -0.23081319
0.20727904 0.09629338 -0.28984722 0.2220185 0.087770805 -0.08766826 0.18967119 -0.2535157
0.28292665 -0.22174685 -0.123097286 -0.08227895 0.27393243 -0.031077508 0.17610155 0.042881377
0.13222933 0.2384093 -0.18894385 -0.19790183 -0.25584432 -0.16347462 0.025175087 -0.121832624
0.04365541 -0.23905481 0.2682109 -0.2275864 -0.00935251 -0.0633139 -0.10383317 0.053388543
-0.2421208 -0.14135629 -0.18147717 0.25009197 0.007009528 -0.069322705 0.08174731 -0.16686003
-0.28575686 -0.011192924 -0.26659974 -0.03153787 -0.14518405 -0.30064502 0.09902007 0.17002963
-0.21543276 -0.16629294 0.10269595 0.095423214 0.17116351 0.03316124 0.22635618 -0.22678897
0.12406104 -0.04064464 0.18170837 -0.058323935 -0.2173066 -0.1993191 -0.0027306704 -0.20394963
0.23918474 0.2736159 0.22350042 -0.08043766 0.28840476 -0.14476003 -0.28765664 -0.20202899
0.2689456 0.19815189 0.14689276 0.29465812 -0.27564937 -0.07435792 -0.09186385 -0.22623172
-0.07805403 -0.1820816 -0.12998186 -0.24937613 0.24696659 0.095588855 -0.18327528 0.21472192
0.028473416 -0.080666475 -0.044972926 0.08015862 -0.31241718 0.059992988 0.23686938 -0.038271524
-0.163496 0.15486716 0.032200027 -0.07373175 0.07903036 0.30581048 -0.12269221 -0.1582472
-0.21642588 -0.015839854 -0.10156093 -0.1185275 0.080176026 0.20793107 0.10525604 -0.20378374
0.22510049 0.2400792 0.29166773 -0.15660048 0.05481674 0.28762206 0.053089697 0.07843414
-0.15201187 -0.0793783 -0.27584314 0.21194203 0.14635406 -0.0792907 0.16639864 -0.1505557
-0.1202021 -0.10551028 0.15400776 0.27579147 0.27290347 -0.07279346 -0.058885816 0.32001373
-0.14820214 -0.1233245 -0.104047894 0.011163043 0.28305075 -0.20155221 -0.13448767 0.028182946
0.1772694 0.10614429 0.07889349 -0.13315263 -0.20066138 0.019953215 0.05416298 0.16801538
0.2550745 0.08190264 -0.1801262 -0.17500077 0.18254432 0.2455944 0.10800359 -0.13382009
0.22976276 -0.048314814 0.13513848 -0.016406741 -0.07751033 0.14627771 -0.082104705 -0.0633522
-0.17248116 0.19206412 0.22815286 0.29265702 -0.29906943 -0.06247548 -0.07861301 -0.123592176

convs.0.bias f4 [32]
00000000: fa49 e53c a170 d73c 9c33 a53c 3ba6 853b
00000010: 4bd9 e7bc ab0f 68bc ddc5 acbc a470 d9bc
00000020: 22a2 0e3c d6dc a03c 145b f7bb bb4e 50bb
00000030: 901d 843c a993 63bc c3a0 55bc e28b b0bc
00000040: fe0f 973c 4cb5 5d3c fe07 633a 1eac ddbc
00000050: 8113 70ba 142b 8b3b 8128 373c baa0 883c
00000060: 376a 873b 004c 8fbc 61af c03c ebd4 873c
00000070: eb44 64bb 95bf 0bbc 506c df3c 08dd dd3b
0.027989376 0.026298823 0.02016621 0.004078654 -0.028301856 -0.014163892 -0.021090442 -0.026542969
0.008705648 0.019636553 -0.007548699 -0.0031785208 0.016127378 -0.013890185 -0.013038817 -0.021551076
0.018440243 0.013531994 0.0008660554 -0.027059611 -0.000915818 0.0042470787 0.0111790905 0.016678203
0.004132535 -0.017492294 0.023521127 0.01658102 -0.0034831117 -0.008529563 0.027273327 0.0067707337

convs.1.weight f4 [32, 16]
00000000: d838 85be 4998 503d d437 243e cbbc e9bb
00000010: f2a3 223e b715 903e 5f6a 903d 1b06 7a3e
00000020: 70c8 a73e 28c4 a73d 5ede 7fbd 0b96 203e
00000030: 5f22 95bd 4d1a 153e 2cb4 50be b352 ddbd
00000040: b7e9 66be 7208 eb3d 4eb6 bcbd 9487 023e
00000050: a98f a33d 1b22 a03e 7d8e 78bc 9668 8cbe
00000060: 0bb1 f9bc 8637 12be 31ee 743e 0551 413e
00000070: 6394 f23d af04 35be 415b d9bc f086 4b3e
00000080: 3d52 0f3d 711d 913c b235 87be 9617 55be
00000090: dc1d 93be 171c 8b3e 9cac 7ebe 57b3 003e
000000a0: d1cb 7ebe 9e7b 09bc 9bc3 70bd 4c64 663e
000000b0: 1854 9c3d 6941 62be e508 93be ed10 56be
000000c0: 3f9c 6ebd e597 bb3d 3cc6 86be 2451 08be
000000d0: 10ef babc 39d4 253d b8b4 59bd 1883 a3be
000000e0: e6c3 943e 3dec 863e f7d5 30be 96e0 95be
000000f0: 0104 c13e 6570 dd3d 0048 a23d a99c 913c
00000100: 9c7f debd 34f6 9f3e 8384 db3d 3277 2dbe
00000110: 2129 cf3c 7557 a9be c332 7a3e 0004 cf3b
00000120: 603f 4fbe 41ad ca3d b2d0 bebc 3e6c 47be
00000130: 9373 9ebe d4c9 a8bd 7d0e 94bc 0008 6e3e
00000140: 7d3f 07be 9eb8 e7bd e24d a43e a088 5cbe
00000150: 5848 0a3e 9702 b43d 7046 5e3e 078f 583e
00000160: 4224 9a3e dc3c a0be 2a76 fc3d 91a6 9a3e
00000170: 33b2 7abe 42a8 7ebe 827c 133e 155b ac3e
00000180: 13bf 873e d121 973e 583f 653e d45c 7b3e
00000190: bd6d cebb 8a0f 29bd f5e4 3ebe d57c 89be
000001a0: d64c f6bd 753f e93d 26e8 9dbe 289c 9ebd
000001b0: 40a8 743e 3508 813e 0ac8 123d 8650 e0bd
000001c0: 8b66 9bbe 3d15 0a3e 9ba1 b63e 2e16 993e
000001d0: 4626 afbd ac1a 953e d70f 0abe 1b7b 4bbe
000001e0: 2973 e3bd fa53 5dbe 6c58 b83d d94d 0b3e
000001f0: 7bbb 23be e9cc 09bd 0ac1 9ebe 8c99 8b3d
00000200: 1271 90be c601 83be 4d08 2e3d 3738 62be
00000210: 2286 843d 26d5 213e d34d 073e 3ef9 90be
00000220: d1bd 2f3b a618 873e adc2 01be 22f4 943e
00000230: 2783 25bd 0d11 63be c29a 9e3e bde1 ae3e
00000240: 3e8e 5abe b468 50be 3975 88bd 444b 54bd
00000250: f047 7e3e daea 203e 1da5 77bd b560 893e
00000260: 246a 403e d50c 6b3e 8116 98be 3a2c d13c
00000270: 87b7 983d 1d11 8fbe f6e6 473d 21c3 503c
00000280: ebdc ac3e b8cc 9cbd ee09 4e3e 8e24 c0be
00000290: dcdd 8d3e fddb 3fbe c4c9 9abe 7efa 99be
000002a0: 0d7c 7dbe 5f1f 2abe cd41 21be 007a ad3c
000002b0: 235c c23e eaa2 29be 9605 85be 435f 4b3e
000002c0: 8040 093e 5d73 8b3e a154 a53d 37d4 ba3d
000002d0: d1b3 f23d effe 53be 6cc4 9abe b58b 733e
000002e0: 84f4 abbe 6796 78bd fd7c 3cbe bc6b 8a3e
000002f0: 802f 153e 87b8 a6be b4cd 86be 60d4 75be
00000300: f312 01be 5497 24be 1c6e 383e fb38 593e
00000310: b62c 82be 256a bcbe 6f2d aabe 5ce7 903e
00000320: 4456 a0be 00e7 e0bd 3384 b2be 195c 2e3e
00000330: dc86 79bc eedb 913e c12e cfbd 1246 33be
00000340: 1cda d93d 8f6b 3f3d 4e59 7fbd 6586 633e
00000350: fba1 ad3e d3cf 22be b340 ff3d fe5e 64bd
00000360: 7765 9fbe 6956 2dbe d2b5 b7be 1f00 533e
00000370: debb 533e b989 57be 8e72 d93c 86f3 a93e
00000380: 0c18 96be 622d 96be cfe9 06bd 9ce5 8ebe
00000390: 89aa 0c3e a1f8 82bc b9fb b03c e060 93be
000003a0: bb5b 96be ef63 49be 0523 4a3c d4d4 1cbe
000003b0: b8fa 17be 38bb 99bd d0b9 49be 9511 a93d
000003c0: 7e32 253e ac15 683e f6d2 763d 186d d3bd
000003d0: 363a 14be e8a1 c5bd 1f63 ba3e b7f4 563e
000003e0: 9b94 adbe 0b3f 1d3d 7760 bebe dcaf 28be
000003f0: d602 4f3d f2a0 643d 919b 29be 55a4 243e
-0.2601993 0.05092648 0.16036922 -0.0071331016 0.15882853 0.28141567 0.07051539 0.24416392
0.3277011 0.08191711 -0.062467925 0.15682237 -0.072819464 0.14560814 -0.2038123 -0.10806789
-0.22550093 0.1147622 -0.09214459 0.12747031 0.079863854 0.3127602 -0.015170691 -0.27423543
-0.030479928 -0.14278993 0.23918988 0.18878563 0.11844709 -0.17677568 -0.026532771 0.19875693
0.034990538 0.017714234 -0.26408154 -0.20809779 -0.28733718 0.27169868 -0.24870533 0.12568413
-0.24882437 -0.008391289 -0.058780294 0.22499198 0.07633227 -0.22095264 -0.28717723 -0.20904894
-0.058254477 0.09159831 -0.26323116 -0.13312203 -0.022819072 0.040485594 -0.053150862 -0.31935954
0.2905571 0.2635211 -0.17269121 -0.29272908 0.37698367 0.10812453 0.07923889 0.017774897
-0.10864183 0.31242526 0.10718634 -0.1694 0.025288166 -0.33074537 0.24433427 0.0063176155
-0.2023902 0.09896327 -0.023292873 -0.19474885 -0.3094755 -0.08241621 -0.018073315 0.2324524
-0.13207813 -0.1131451 0.3209067 -0.21536493 0.1350416 0.087895565 0.21706557 0.2114831
0.30105788 -0.31296432 0.123272255 0.30205205 -0.2448204 -0.24868873 0.14402965 0.3366324
0.26512966 0.29517987 0.22387445 0.2454713 -0.006299703 -0.041274585 -0.18642028 -0.26853052
-0.12026374 0.113890566 -0.30841178 -0.07744628 0.23892307 0.25201574 0.035835303 -0.109528586
-0.30351672 0.13484664 0.3567017 0.29899734 -0.08552222 0.29121912 -0.13482605 -0.1987118
-0.111059494 -0.21614066 0.0900124 0.13603915 -0.15989487 -0.033642683 -0.31006652 0.06816396
-0.28211266 -0.2558729 0.042488385 -0.22091757 0.06470896 0.15803966 0.13213281 -0.28315157
0.002681602 0.26385993 -0.12671919 0.2909251 -0.04040828 -0.22174473 0.30977446 0.341566
-0.21343324 -0.20352441 -0.066629834 -0.05182959 0.2483213 0.15714589 -0.0604602 0.26831594
0.1879049 0.22954114 -0.2970467 0.025533784 0.0745688 -0.27942744 0.048804246 0.012741835
0.33762297 -0.076562345 0.20120975 -0.3752789 0.27708328 -0.18736263 -0.3023206 -0.30073923
-0.24754353 -0.1661353 -0.15747757 0.021176338 0.3796092 -0.16566053 -0.25980824 0.19860558
0.13403511 0.27236453 0.08072782 0.09122508 0.118507035 -0.20702718 -0.30227983 0.23783763
-0.33584988 -0.06069031 -0.18407054 0.2703532 0.14568901 -0.32562658 -0.26328814 -0.24006796
-0.12604885 -0.16073352 0.18010753 0.21213143 -0.25424737 -0.36799732 -0.33237788 0.28301513
-0.31315815 -0.1098156 -0.34866485 0.1702732 -0.015229907 0.28488106 -0.101163395 -0.17507198
0.10637304 0.046733435 -0.062341027 0.22219236 0.33912644 -0.15899591 0.12463512 -0.055754654
-0.311321 -0.16927494 -0.35880905 0.20605515 0.20677134 -0.21048631 0.026543882 0.33193606
-0.2931522 -0.293315 -0.03293782 -0.27909553 0.13736929 -0.015987696 0.021604406 -0.28784847
-0.2936686 -0.19667028 0.012337451 -0.15315562 -0.14841735 -0.07506412 -0.19699788 0.08255307
0.16132542 0.22664517 0.06025978 -0.10323542 -0.1447533 -0.09650022 0.36403748 0.20991789
-0.3390244 0.0383902 -0.37182972 -0.16473335 0.050539814 0.055817552 -0.1656325 0.16078313

convs.1.bias f4 [16]
00000000: c358 99bc 35f5 7dbc 415d d9bc 3cb0 023d
00000010: 8f61 003d 85de a33c a135 20bd 546b 573d
00000020: 98b1 fb3b 7c81 95bb 37ad a43c 1154 c53c
00000030: f415 08bd c2d3 c43c 5e15 a3ba ee46 b73c
-0.018719083 -0.015500356 -0.026533725 0.03190635 0.03134304 0.020003567 -0.039113645 0.05259259
0.007681083 -0.004562555 0.020102127 0.024087938 -0.03322406 0.024026755 -0.0012442281 0.02237269

convs.2.weight f4 [16, 8]
00000000: 76b2 e53e d1bb c43b 94d1 983e 9caf 843e
00000010: d141 57be 54b5 873e 0ea8 bdbe 78c6 46be
00000020: 2ff3 6d3d c7f1 34be df35 bbbe 7501 373e
00000030: 076c 9abe 5b3e 36be c518 cc3e 0d2d a3be
00000040: d0b8 613e dc3a cd3e 88ce 0e3e ced8 f23e
00000050: 3e4a 01be ad60 863e 5b9e 163e 0ac8 763e
00000060: a44f d9be 36ae 6ebe 300e 313e 1960 5bbe
00000070: 1fed 83bd 10e7 413d 28e3 24be 308f d6bd
00000080: f40c 32be c7dd 3dbe 571c f0be 5665 563e
00000090: 898f 41be 336a 0dbe 4f7e 853d e5d0 34be
000000a0: 1e36 563d 5d97 d83e d49b 16be f22e c5bd
000000b0: 7906 d6bc c41c f0bd 4272 8bbd 98e5 ccbe
000000c0: 2235 e2b8 cad3 7d3e d98a 733c 3041 433e
000000d0: 6e70 0b3e 9d7b 0ebe 2b50 e43e f597 683d
000000e0: 1038 7ebe 9fcf aebe cc8b cf3d b1ba 8ebe
000000f0: ec2f dbbd 9322 903d 1dcb d5bd 3b12 b43d
00000100: f819 c3be d41b dcbe 34e4 ed3e 4077 b53e
00000110: 911b 003f 9ec3 6e3e 0e2c c3bd da7a d8bc
00000120: 694c 87be 15fe 3d3e 1e04 d83e a0f1 76be
00000130: ff7f 303e 76d9 49be 3956 a73e 448f 523e
00000140: 032c 84bd bdc8 7b3e bcbd bf3e 74fe 533e
00000150: 2fdf 663c 39ef d1be 3ceb febd 9b9c 5abd
00000160: 4ef7 d9be 8907 173e 2dc1 aebb f3de ae3e
00000170: a7fa d43e 650b 0f3d af0f 7fbe 1d8b a8be
00000180: ee6e 503d eb3d a7be 1b0f e13a 27c9 ae3c
00000190: 62d1 c8be 6b66 703e b152 be3d c0c4 debd
000001a0: d99f 533b f569 b5be 7da8 d0be 97ff afbe
000001b0: 0962 e63c 2e4b e3bd aa60 90be 4417 1f3e
000001c0: 6526 d03e d1cd 213e e223 b43d ea47 aebe
000001d0: d360 36bc 725d c53b 55fa 24be e66d 93be
000001e0: ca49 0bbe 7a00 96bd f0c8 503b 6e72 5cbd
000001f0: 4f3e 43be b04c 5f3e 974b 9cbe abe5 f73e
0.44862717 0.006003835 0.29847395 0.2591523 -0.210212 0.2650553 -0.37042278 -0.19411647
0.058093246 -0.17670356 -0.36564538 0.1787165 -0.30160543 -0.17797224 0.39862648 -0.3187031
0.22043157 0.4008397 0.13945973 0.47431034 -0.12625977 0.26245633 0.14708845 0.24099746
-0.42443573 -0.23308644 0.17290568 -0.21423377 -0.06441712 0.0473395 -0.16102278 -0.104765296
-0.17387754 -0.18541633 -0.46896622 0.20937094 -0.1890241 -0.13810043 0.06518232 -0.17657812
0.052297704 0.4230298 -0.14707881 -0.09628095 -0.026126133 -0.117242366 -0.06808902 -0.40018916
-0.000107864165 0.24787822 0.014864647 0.19067836 0.13617107 -0.13914342 0.44592413 0.056785543
-0.24826074 -0.34142777 0.10134086 -0.2787681 -0.107025 0.070378445 -0.104391314 0.0879254
-0.3810575 -0.4298998 0.46463168 0.35442543 0.50042063 0.2331681 -0.09529887 -0.026425768
-0.26425484 0.18553956 0.4219064 -0.2411561 0.17236327 -0.19711861 0.3268297 0.20562464
-0.06453707 0.24588294 0.37449443 0.20702535 0.014091297 -0.41002825 -0.12447211 -0.053372007
-0.4257149 0.14748968 -0.005333087 0.34154472 0.41597483 0.034922976 -0.24908327 -0.32918635
0.05088704 -0.32664427 0.001717064 0.021336151 -0.39222246 0.2347657 0.09293116 -0.10877371
0.0032291322 -0.354324 -0.40753546 -0.34374687 0.028122919 -0.11098324 -0.2819875 0.15536219
0.40654293 0.15801169 0.087959066 -0.3403924 -0.011131483 0.0060231024 -0.16111119 -0.28794783
-0.13602367 -0.0732431 0.003185805 -0.053820066 -0.19066738 0.21806598 -0.3052642 0.4841741

convs.2.bias f4 [8]
00000000: a92c abbc b0c5 183c 1b5b 90bc c1d3 f3bc
00000010: 9da5 c7bb 3a3e bebc c1d6 14bd 1625 03bd
-0.020895319 0.009324476 -0.017621567 -0.029764058 -0.0060927407 -0.023223031 -0.036337618 -0.03201779

lns.0.weight f4 [32]
00000000: a151 833f 58af 7a3f cd90 823f 6fd5 7d3f
00000010: 41bd 803f aed2 7e3f c00b 7b3f 0bef 7a3f
00000020: 8831 7d3f 860a 7a3f 9306 833f b76d 813f
00000030: 69f8 813f 32d9 7f3f 5ba0 7f3f 0b48 833f
00000040: 3bb9 7b3f 596f 843f f538 7c3f d7b3 823f
00000050: 5393 813f 79ca 773f 3b7b 7d3f 9338 753f
00000060: f054 803f 9fb6 7c3f c926 783f 8089 833f
00000070: ffd2 813f a486 823f 5d53 7d3f fc96 823f
1.0259286 0.97923803 1.020044 0.991538 1.0057756 0.9954022 0.98064804 0.98021
0.98903704 0.9767231 1.0236381 1.0111607 1.0153934 0.9994079 0.9985406 1.0256361
0.98329514 1.0346481 0.9852441 1.0211133 1.0123085 0.96793324 0.9901616 0.9578945
1.0025921 0.9871616 0.9693418 1.0276337 1.0142516 1.0197339 0.9895533 1.0202327

lns.0.bias f4 [32]
00000000: c3d5 553c 112c b13c 0344 e13c a0cf 3e3b
00000010: f67f 06bd e700 51bc 544d cfbc a87e 913c
00000020: 201c 2a3c 76e1 c63c ec9c 86bc 4133 153b
00000030: 54e7 593c d8ba 253c cf87 39bc c9cd e8bc
00000040: 6650 983c 4545 99bc dac7 553c 55e4 0abd
00000050: bd03 edba 0ad0 043d 8348 303c f2b4 003d
00000060: 86ef 1d3c 9491 a1bc 70f7 fb3c 9fdb 843c
00000070: 901c 35bc 57ab acbc aadc bd3c c54d 713c
0.013051453 0.021627458 0.02749825 0.0029115453 -0.032836877 -0.012756563 -0.025305428 0.01776059
0.010382682 0.02427743 -0.016432248 0.0022766145 0.013299782 0.010115348 -0.011323883 -0.028418439
0.018593024 -0.018709788 0.013048137 -0.03390916 -0.0018082779 0.032424964 0.010759476 0.031422563
0.009639626 -0.019722737 0.030757636 0.016218005 -0.011054173 -0.021077795 0.02317651 0.014728014

lns.1.weight f4 [16]
00000000: f572 7a3f ec95 7f3f 4360 7c3f 00b2 793f
00000010: ef29 743f a730 723f 5f3d 783f 910a 7c3f
00000020: 5f91 793f 819e 743f 36e5 713f 10ba 783f
00000030: f017 823f 83d3 743f 6174 783f 4f37 773f
0.9783166 0.9983814 0.98584384 0.9753723 0.95376486 0.9460549 0.96968645 0.98453623
0.97487444 0.9555436 0.94490373 0.9715891 1.0163555 0.9563524 0.9705258 0.9656877

lns.1.bias f4 [16]
00000000: aa3e 81bc ec1b bcbc 1576 f7bc 1571 ce3c
00000010: 94d1 0f3d 77b9 e83c 7007 24bd ebf8 da3c
00000020: c566 3c3c c446 8139 f158 883c b2c3 b73c
00000030: 2343 8ebc 82b8 333d 94ab 14bb 7b70 023d
-0.01577695 -0.022962533 -0.030207673 0.025200406 0.03511198 0.028408749 -0.040046155 0.026730021
0.011499112 0.00024657522 0.016643973 0.022432182 -0.017365998 0.043877132 -0.0022685276 0.03184555

lns.2.weight f4 [8]
00000000: 0000 803f 0000 803f 0000 803f 0000 803f
00000010: 0000 803f 0000 803f 0000 803f 0000 803f
1.0 1.0 1.0 1.0 1.0 1.0 1.0 1.0

lns.2.bias f4 [8]
00000000: 0000 0000 0000 0000 0000 0000 0000 0000
00000010: 0000 0000 0000 0000 0000 0000 0000 0000
0.0 0.0 0.0 0.0 0.0 0.0 0.0 0.0

post_mp.0.weight f4 [8, 8]
00000000: 4bed f5bd 6621 b2bd 7dbd 403e 4ffd ab3e
00000010: 539b 66bd 0270 123e 3f5e ae3e a28a 5a3d
00000020: 40e4 9bbe 95f2 41be de18 4f3e cc80 41bd
00000030: beb8 f33d 2a5d aabe fa30 8cbe fbde 843d
00000040: e673 8b3e 1da5 6dbd ca4f 963e 01f5 223d
00000050: ba6a 333e ea86 b8bd 0944 9cbe a881 de3c
00000060: 9751 93be ddf9 573e a7d1 82bd 5446 71be
00000070: b975 523d 7569 72be e782 a0be c1ea 48be
00000080: cd42 9ebd 146d 05be 1c64 973e 1f7e b4bd
00000090: dc74 aa3c 707e d9bd 892f 2ebd a4ca 763e
000000a0: 65bc f9bd b0b1 6d3e dcaf ae3e 3ddc 4dbe
000000b0: a64a 7d3e aee0 aebd 07b4 99be c470 243e
000000c0: c0a5 fcbd 0d51 863d 9e08 833e 57ec 953e
000000d0: e07c b83e d084 1fbe 355d 71be 503a ae3e
000000e0: 15c0 8e3d ca53 483d 3352 0b3e 5345 333e
000000f0: ff6d ce3d 35b3 00be 6340 b93c a271 3bbe
-0.12008151 -0.086977765 0.18822284 0.33591697 -0.056300472 0.1430054 0.3405628 0.053354867
-0.30447578 -0.18940194 0.2022433 -0.04724197 0.11900471 -0.33274204 -0.27381116 0.06487843
0.2723686 -0.058018792 0.2935775 0.039784435 0.17521182 -0.09010108 -0.30520657 0.027161434
-0.28773186 0.21091409 -0.06387644 -0.23561984 0.0513818 -0.23673041 -0.3134987 -0.19620802
-0.07727585 -0.13029891 0.29568565 -0.08813118 0.020807676 -0.10619819 -0.0425258 0.24100739
-0.121941365 0.23212314 0.34118545 -0.20103545 0.24735507 -0.08538948 -0.30020162 0.16058642
-0.12336302 0.06558428 0.25592512 0.29281875 0.36032772 -0.15578008 -0.23570712 0.34028864
0.069702305 0.048908032 0.13605575 0.17506914 0.10079574 -0.12568362 0.02261371 -0.18305066

post_mp.0.bias f4 [8]
00000000: 4f0b 10be 716f f43d 9fc6 923e e660 70be
00000010: dbc5 b13c 5547 44be ecd4 423e 7898 88bd
-0.14066814 0.11935318 0.2866716 -0.23474464 0.02170079 -0.19167836 0.19026536 -0.06669706

post_mp.2.weight f4 [2, 8]
00000000: df53 913d 6ad5 963e dcb9 8e3d 0e81 a23e
00000010: 7586 48be 8876 d03d e5eb 87be 64da bebd
00000020: 5bef a7be f5ad a4bd 2973 e53d 37d8 37be
00000030: 67cf 963d 5b5e 61bd a8bd 98be cb86 aebc
0.07096075 0.29459697 0.069690436 0.31739086 -0.19582541 0.10178858 -0.2654716 -0.093189985
-0.327998 -0.08040992 0.11203606 -0.17953573 0.073637776 -0.055021625 -0.29832196 -0.021304509

post_mp.2.bias f4 [2]
00000000: e3fd 833d 4db6 d8bc
0.064449094 -0.026454115
